mushroom_0.69_128_mbv2_int8.tflite (tflite, 631976 bytes, 53 tensors)

tfl.pseudo_qconst1 i1 [9, 1280]
00000000: ddeb 0ced fb33 32df f711 00e2 05db 10c8
00000010: a311 25d2 2b13 c10e 24e2 2017 f5d6 f8e5
00000020: 200d 0d17 f70e 1402 2b10 dd0c 0ee7 11e4
00000030: edc9 12a1 e2e2 dbf6 d3e5 24d1 0a11 fd14
00000040: aa19 e21e 0fe2 2c04 fe07 e1ec 17dc 062d
00000050: 021a f2f7 0eeb dbef e7f8 d7ad e406 d2e6
00000060: f0f3 d4e3 f4b3 f614 a9ff ebff 08fb b5f6
00000070: bfdf 0bf0 021b dcc1 a9cc cd03 ed05 0dc7
00000080: cef4 070e d513 e907 1711 1c1a 4203 10f9
00000090: 1ade 1300 d80b 0336 ecb6 fc00 c330 c6a5
000000a0: f11e fc26 1100 0ef9 43e4 c91d d02e eedf
000000b0: 2615 2d04 e3d5 dc24 01f7 1fff 161a 190f
000000c0: 0bf2 fee9 b6d2 1e20 4004 333f 322f 42cf
000000d0: d9fa 0317 bd04 f6fc eb01 1cf5 ac07 31fb
000000e0: e208 f51f eae5 ebfc db1e dd0b e605 26bf
000000f0: 0ebf 102f c9df ffdd e7f1 28c8 dae5 f343
-35 -21 12 -19 -5 51 50 -33
-9 17 0 -30 5 -37 16 -56
-93 17 37 -46 43 19 -63 14
36 -30 32 23 -11 -42 -8 -27
32 13 13 23 -9 14 20 2
43 16 -35 12 14 -25 17 -28
-19 -55 18 -95 -30 -30 -37 -10
-45 -27 36 -47 10 17 -3 20
-86 25 -30 30 15 -30 44 4
-2 7 -31 -20 23 -36 6 45
2 26 -14 -9 14 -21 -37 -17
-25 -8 -41 -83 -28 6 -46 -26
-16 -13 -44 -29 -12 -77 -10 20
-87 -1 -21 -1 8 -5 -75 -10
-65 -33 11 -16 2 27 -36 -63
-87 -52 -51 3 -19 5 13 -57
-50 -12 7 14 -43 19 -23 7
23 17 28 26 66 3 16 -7
26 -34 19 0 -40 11 3 54
-20 -74 -4 0 -61 48 -58 -91
-15 30 -4 38 17 0 14 -7
67 -28 -55 29 -48 46 -18 -33
38 21 45 4 -29 -43 -36 36
1 -9 31 -1 22 26 25 15
11 -14 -2 -23 -74 -46 30 32
64 4 51 63 50 47 66 -49
-39 -6 3 23 -67 4 -10 -4
-21 1 28 -11 -84 7 49 -5
-30 8 -11 31 -22 -27 -21 -4
-37 30 -35 11 -26 5 38 -65
14 -65 16 47 -55 -33 -1 -35
-25 -15 40 -56 -38 -27 -13 67

tfl.pseudo_qconst3 i1 [1280, 1, 1, 112]
00000000: 1b4f f12a 20ff fc24 65dc 102c 512f b43f
00000010: 102b dcf1 332a 1ae5 f9ec 0f13 d6b2 c30e
00000020: c1ed f0b5 88f9 24f5 e61c a805 eb42 e0d6
00000030: 2c42 0b7c 4524 00f7 21e4 1cf0 1904 e7fe
00000040: af0d e002 9cfd d411 0ae4 26b2 21f9 ac26
00000050: 07c7 44dd c281 2bec 03c0 e8ca 2aed 2805
00000060: dbf4 14f8 d3fc d405 2f14 1cb6 01b2 2bc8
00000070: cc79 0a1b 733e 2a06 072f 2b48 21df 1fea
00000080: ed6c fa18 dfca 6b07 1850 3cb5 bf1f 1406
00000090: 20f7 03ca 2905 e49c e8fe 53f1 dbf5 feec
000000a0: 03ea 1da4 1dd0 1a2a 1d0f e10e 06ff 13c3
000000b0: e110 af1d b3fc c248 be11 c5e5 0ae6 0a24
000000c0: a105 56de 3111 fe18 87a8 fb00 3afd d6c3
000000d0: 3506 f5cb 6321 b507 cdc6 8137 1811 56c7
000000e0: fdfe f3e8 7f0d f0a3 f627 fb06 f2f0 bcb7
000000f0: 0afa 0a19 eb43 0dff 18d0 e3c3 c1d2 13d3
27 79 -15 42 32 -1 -4 36
101 -36 16 44 81 47 -76 63
16 43 -36 -15 51 42 26 -27
-7 -20 15 19 -42 -78 -61 14
-63 -19 -16 -75 -120 -7 36 -11
-26 28 -88 5 -21 66 -32 -42
44 66 11 124 69 36 0 -9
33 -28 28 -16 25 4 -25 -2
-81 13 -32 2 -100 -3 -44 17
10 -28 38 -78 33 -7 -84 38
7 -57 68 -35 -62 -127 43 -20
3 -64 -24 -54 42 -19 40 5
-37 -12 20 -8 -45 -4 -44 5
47 20 28 -74 1 -78 43 -56
-52 121 10 27 115 62 42 6
7 47 43 72 33 -33 31 -22
-19 108 -6 24 -33 -54 107 7
24 80 60 -75 -65 31 20 6
32 -9 3 -54 41 5 -28 -100
-24 -2 83 -15 -37 -11 -2 -20
3 -22 29 -92 29 -48 26 42
29 15 -31 14 6 -1 19 -61
-31 16 -81 29 -77 -4 -62 72
-66 17 -59 -27 10 -26 10 36
-95 5 86 -34 49 17 -2 24
-121 -88 -5 0 58 -3 -42 -61
53 6 -11 -53 99 33 -75 7
-51 -58 -127 55 24 17 86 -57
-3 -2 -13 -24 127 13 -16 -93
-10 39 -5 6 -14 -16 -68 -73
10 -6 10 25 -21 67 13 -1
24 -48 -29 -61 -63 -46 19 -45

tfl.pseudo_qconst5 i1 [112, 1, 1, 336]
00000000: d41b fe06 b020 ee0b f4fe 17fa 3b32 bafa
00000010: 07eb e2fa 20f5 11da f606 fe28 de0c 0ddb
00000020: 0de6 0bd6 fdd1 f6de 37d7 3033 e913 cc21
00000030: de44 e7f3 d4f5 3932 15d5 0d3d 12f7 ee14
00000040: f20a 24e8 100f 0214 3300 f508 03d5 d50b
00000050: d0f6 fad3 fcec 00eb 8e22 0507 05ff 1f13
00000060: 02e8 cfa2 25ea 2f1a 3726 1be3 ee1d f5c4
00000070: 00cd 1ec0 18b6 d620 c003 e728 f1f7 1d10
00000080: eb0f 0309 50d2 f021 11e0 eb04 35e5 f3ca
00000090: d544 0c03 3317 18b7 14fd 13c4 dce8 1926
000000a0: 4607 fd02 e649 e3d3 240c ea09 f601 073b
000000b0: 02c7 2402 13fa 2620 031d fcdf f625 38e3
000000c0: 271f fc0b 02ce 2c04 e90e 1628 03aa e002
000000d0: 01f2 f133 cc12 fae1 d506 10f9 fce8 1a0b
000000e0: 15e7 0111 fa02 f7ed f2c1 df13 2e14 1fd5
000000f0: 1d2b 12e2 4001 c206 1801 eac7 1c0c fb16
-44 27 -2 6 -80 32 -18 11
-12 -2 23 -6 59 50 -70 -6
7 -21 -30 -6 32 -11 17 -38
-10 6 -2 40 -34 12 13 -37
13 -26 11 -42 -3 -47 -10 -34
55 -41 48 51 -23 19 -52 33
-34 68 -25 -13 -44 -11 57 50
21 -43 13 61 18 -9 -18 20
-14 10 36 -24 16 15 2 20
51 0 -11 8 3 -43 -43 11
-48 -10 -6 -45 -4 -20 0 -21
-114 34 5 7 5 -1 31 19
2 -24 -49 -94 37 -22 47 26
55 38 27 -29 -18 29 -11 -60
0 -51 30 -64 24 -74 -42 32
-64 3 -25 40 -15 -9 29 16
-21 15 3 9 80 -46 -16 33
17 -32 -21 4 53 -27 -13 -54
-43 68 12 3 51 23 24 -73
20 -3 19 -60 -36 -24 25 38
70 7 -3 2 -26 73 -29 -45
36 12 -22 9 -10 1 7 59
2 -57 36 2 19 -6 38 32
3 29 -4 -33 -10 37 56 -29
39 31 -4 11 2 -50 44 4
-23 14 22 40 3 -86 -32 2
1 -14 -15 51 -52 18 -6 -31
-43 6 16 -7 -4 -24 26 11
21 -25 1 17 -6 2 -9 -19
-14 -63 -33 19 46 20 31 -43
29 43 18 -30 64 1 -62 6
24 1 -22 -57 28 12 -5 22

tfl.pseudo_qconst7 i1 [1, 3, 3, 336]
00000000: 566a 615d 5e56 5d61 6542 4743 604e 4f66
00000010: 5a34 5a61 c46a a359 a75a ce9e 9d82 c23e
00000020: 1865 be5b 6681 6652 40cb 3a49 7f52 5850
00000030: ba58 9025 8157 aa50 f0bd b37a 55c6 595c
00000040: 69fe 9537 5346 5657 4efd 5ea4 603c b2a2
00000050: a658 4c36 9fc9 2d81 4347 a657 66aa b35e
00000060: 6581 672b 66cc 6d03 6b51 5541 5cb4 c7a1
00000070: 2958 b79a 4155 cee2 4143 3060 c2a4 421a
00000080: e87f 71cd 21b2 5bc8 2317 6310 93a6 53cf
00000090: ad53 5497 417f 6747 62ba 9c54 a9a2 3f5a
000000a0: 9150 335e 58a3 5952 9259 9081 42b7 d3b7
000000b0: e820 4d50 4299 7def 589a 5266 af5b 9400
000000c0: c7be 48b0 4d7c a048 4a6d 613c aca7 585c
000000d0: fc9f 9f50 5481 5f9d d74e d593 625f bec3
000000e0: 5d48 7f45 3dc3 2b48 aa56 11aa 4c9f 50f2
000000f0: 4673 9dd2 17c8 5037 5dd4 3d9a 4a2f 40a4
86 106 97 93 94 86 93 97
101 66 71 67 96 78 79 102
90 52 90 97 -60 106 -93 89
-89 90 -50 -98 -99 -126 -62 62
24 101 -66 91 102 -127 102 82
64 -53 58 73 127 82 88 80
-70 88 -112 37 -127 87 -86 80
-16 -67 -77 122 85 -58 89 92
105 -2 -107 55 83 70 86 87
78 -3 94 -92 96 60 -78 -94
-90 88 76 54 -97 -55 45 -127
67 71 -90 87 102 -86 -77 94
101 -127 103 43 102 -52 109 3
107 81 85 65 92 -76 -57 -95
41 88 -73 -102 65 85 -50 -30
65 67 48 96 -62 -92 66 26
-24 127 113 -51 33 -78 91 -56
35 23 99 16 -109 -90 83 -49
-83 83 84 -105 65 127 103 71
98 -70 -100 84 -87 -94 63 90
-111 80 51 94 88 -93 89 82
-110 89 -112 -127 66 -73 -45 -73
-24 32 77 80 66 -103 125 -17
88 -102 82 102 -81 91 -108 0
-57 -66 72 -80 77 124 -96 72
74 109 97 60 -84 -89 88 92
-4 -97 -97 80 84 -127 95 -99
-41 78 -43 -109 98 95 -66 -61
93 72 127 69 61 -61 43 72
-86 86 17 -86 76 -97 80 -14
70 115 -99 -46 23 -56 80 55
93 -44 61 -102 74 47 64 -92

tfl.pseudo_qconst9 i1 [336, 1, 1, 56]
00000000: a246 bbe4 10ec 4cfb c20f 006d db0c 2916
00000010: c920 e413 cd7f ea24 0bf8 41f6 f3ba f3ff
00000020: 1e0b 2811 c4e3 eee4 6830 25e6 2204 0f58
00000030: ffd0 f053 4d2d 201f f3e9 06c5 01ef 233a
00000040: 9617 e919 1009 0fd3 bed4 1922 a6fb 0834
00000050: 032e e1d4 445b 6ff1 e924 1926 2599 f440
00000060: 0e0c 3b02 87f0 cf3b 7f3d f7ff 0ae5 303d
00000070: ced5 0cd3 b8c4 cdf6 f620 4dbf 1e2b 4d4d
00000080: 04e2 eac8 e345 1014 00f9 4401 11e4 fbb8
00000090: b70a f2fa 38c3 cafc 063f 03e6 f0cc c720
000000a0: 812b cc43 bb1b 2544 eb3a e3d1 08fb f203
000000b0: 672c e047 def5 f7b9 fe1e 3619 dccf f945
000000c0: 09ce e200 e7d7 01ee 0b23 3cc4 c555 8eb6
000000d0: 0bbf 93e3 416e dd7f 6658 0403 9ac5 82a1
000000e0: e4ef 7fe8 0a00 e221 e43c f6bd 1e39 1dd2
000000f0: e4cc 3a34 3011 ecff eddf 3fd2 223e 3220
-94 70 -69 -28 16 -20 76 -5
-62 15 0 109 -37 12 41 22
-55 32 -28 19 -51 127 -22 36
11 -8 65 -10 -13 -70 -13 -1
30 11 40 17 -60 -29 -18 -28
104 48 37 -26 34 4 15 88
-1 -48 -16 83 77 45 32 31
-13 -23 6 -59 1 -17 35 58
-106 23 -23 25 16 9 15 -45
-66 -44 25 34 -90 -5 8 52
3 46 -31 -44 68 91 111 -15
-23 36 25 38 37 -103 -12 64
14 12 59 2 -121 -16 -49 59
127 61 -9 -1 10 -27 48 61
-50 -43 12 -45 -72 -60 -51 -10
-10 32 77 -65 30 43 77 77
4 -30 -22 -56 -29 69 16 20
0 -7 68 1 17 -28 -5 -72
-73 10 -14 -6 56 -61 -54 -4
6 63 3 -26 -16 -52 -57 32
-127 43 -52 67 -69 27 37 68
-21 58 -29 -47 8 -5 -14 3
103 44 -32 71 -34 -11 -9 -71
-2 30 54 25 -36 -49 -7 69
9 -50 -30 0 -25 -41 1 -18
11 35 60 -60 -59 85 -114 -74
11 -65 -109 -29 65 110 -35 127
102 88 4 3 -102 -59 -126 -95
-28 -17 127 -24 10 0 -30 33
-28 60 -10 -67 30 57 29 -46
-28 -52 58 52 48 17 -20 -1
-19 -33 63 -46 34 62 50 32

tfl.pseudo_qconst11 i1 [56, 1, 1, 336]
00000000: 0b20 0c04 f900 fc05 0a07 f4f2 fb07 11f6
00000010: 0c13 f0f0 f612 f7e3 1c04 0af4 2c09 cdfd
00000020: 2200 14ed 0c18 02f5 1ded 24f7 0317 0efa
00000030: fc0b 01fa e426 15dd ed19 0003 2535 fbfd
00000040: fe08 fd0d 04d4 deee 1726 0481 0406 fa21
00000050: 1306 eeee 130b 121e 021a f1f5 170c 1afe
00000060: f2eb 1512 0607 0916 e8f3 fc09 fa06 0bfe
00000070: d9da 0308 0321 e9c0 e2f7 1d15 f5fe f91e
00000080: 04fb effb 2f0d 1200 0bef 0842 fa1a 1a17
00000090: fb0b 0c10 e407 eee7 1307 e00e 25f0 0704
000000a0: faf3 3b10 0902 2513 f904 f80e 080e 0be8
000000b0: 0ef4 0006 fdf6 0e1c fa1e fee1 0c09 fef3
000000c0: 0504 f5e2 0323 030e 09fc 1a2e 1f1a 29f8
000000d0: 0813 1608 0d0c 0a15 d0f5 1100 0d06 0130
000000e0: c50e 14fc 020a f31b 02f4 f91e f507 db12
000000f0: 1c19 0104 f717 23fb 0cfd 31fd 110d f6f5
11 32 12 4 -7 0 -4 5
10 7 -12 -14 -5 7 17 -10
12 19 -16 -16 -10 18 -9 -29
28 4 10 -12 44 9 -51 -3
34 0 20 -19 12 24 2 -11
29 -19 36 -9 3 23 14 -6
-4 11 1 -6 -28 38 21 -35
-19 25 0 3 37 53 -5 -3
-2 8 -3 13 4 -44 -34 -18
23 38 4 -127 4 6 -6 33
19 6 -18 -18 19 11 18 30
2 26 -15 -11 23 12 26 -2
-14 -21 21 18 6 7 9 22
-24 -13 -4 9 -6 6 11 -2
-39 -38 3 8 3 33 -23 -64
-30 -9 29 21 -11 -2 -7 30
4 -5 -17 -5 47 13 18 0
11 -17 8 66 -6 26 26 23
-5 11 12 16 -28 7 -18 -25
19 7 -32 14 37 -16 7 4
-6 -13 59 16 9 2 37 19
-7 4 -8 14 8 14 11 -24
14 -12 0 6 -3 -10 14 28
-6 30 -2 -31 12 9 -2 -13
5 4 -11 -30 3 35 3 14
9 -4 26 46 31 26 41 -8
8 19 22 8 13 12 10 21
-48 -11 17 0 13 6 1 48
-59 14 20 -4 2 10 -13 27
2 -12 -7 30 -11 7 -37 18
28 25 1 4 -9 23 35 -5
12 -3 49 -3 17 13 -10 -11

tfl.pseudo_qconst13 i1 [1, 3, 3, 336]
00000000: fc13 620c ca17 e12d 241c 11c2 0af1 f407
00000010: 22e0 e8f1 12de fe01 95d9 1f4b 2020 fbdb
00000020: c2f8 27db 4250 100f fa34 09da c500 0526
00000030: 76f5 1df0 0e4d 7fe2 000b 25f3 a126 1081
00000040: 1e00 332d 220b f4e4 b6fa 06e2 de1f 7f20
00000050: 05d0 24e7 ec1b 11a3 2804 eedc fc9f fa30
00000060: a1fe 0ee5 34cd 2f02 0a24 1dd6 deeb 18db
00000070: df7f d8fd 0856 08cf 1777 52fd 1005 7708
00000080: 0efd 240b f905 c413 e7f0 0910 e017 d91d
00000090: c007 fd50 f81a 1bfd d31c adf5 e424 3e22
000000a0: f31a 27b6 0d61 2b04 07fb f706 8407 aa49
000000b0: 0e1b 0314 02d2 0906 e718 1ced dd19 df51
000000c0: 3b17 0ced cd43 02fd 022e fc6e 2410 c7ac
000000d0: 1d4d 7f40 0cf1 f6b4 0205 1cf3 de6b 204b
000000e0: 150b 1504 25c1 8d11 de22 20f0 0f3d d222
000000f0: 0b16 4910 d6e3 e928 b7e0 25a7 0a0b cee1
-4 19 98 12 -54 23 -31 45
36 28 17 -62 10 -15 -12 7
34 -32 -24 -15 18 -34 -2 1
-107 -39 31 75 32 32 -5 -37
-62 -8 39 -37 66 80 16 15
-6 52 9 -38 -59 0 5 38
118 -11 29 -16 14 77 127 -30
0 11 37 -13 -95 38 16 -127
30 0 51 45 34 11 -12 -28
-74 -6 6 -30 -34 31 127 32
5 -48 36 -25 -20 27 17 -93
40 4 -18 -36 -4 -97 -6 48
-95 -2 14 -27 52 -51 47 2
10 36 29 -42 -34 -21 24 -37
-33 127 -40 -3 8 86 8 -49
23 119 82 -3 16 5 119 8
14 -3 36 11 -7 5 -60 19
-25 -16 9 16 -32 23 -39 29
-64 7 -3 80 -8 26 27 -3
-45 28 -83 -11 -28 36 62 34
-13 26 39 -74 13 97 43 4
7 -5 -9 6 -124 7 -86 73
14 27 3 20 2 -46 9 6
-25 24 28 -19 -35 25 -33 81
59 23 12 -19 -51 67 2 -3
2 46 -4 110 36 16 -57 -84
29 77 127 64 12 -15 -10 -76
2 5 28 -13 -34 107 32 75
21 11 21 4 37 -63 -115 17
-34 34 32 -16 15 61 -46 34
11 22 73 16 -42 -29 -23 40
-73 -32 37 -89 10 11 -50 -31

tfl.pseudo_qconst15 i1 [336, 1, 1, 56]
00000000: a436 0800 dec0 e10c f1d6 4ddf ecd0 bc21
00000010: 0310 cdf3 1231 2edf f0bb 40d8 2f59 25f5
00000020: bbfd e8f3 1c02 ba31 18f7 f9cc 1c4b 7f11
00000030: 5bcb dfb6 d73b bebb dade 0731 1317 e515
00000040: f20a 4509 c90a 13f4 20c4 3205 f783 321c
00000050: 5e06 16cb 324c 0cd3 b6d1 de0c 9a81 1529
00000060: f819 ee60 d6d4 4bbe 2808 e4e4 fed7 1640
00000070: 0336 b828 e60c 8b31 3722 fd09 f2d7 cad8
00000080: acbd 1d33 73af f4c3 f4a6 21fb ed16 e9df
00000090: c6ed 0b09 1941 bdf5 e500 0efa 4c1c d23b
000000a0: e9f3 b181 6a2b 2fbf f739 3bbf efb9 39d7
000000b0: 7f5e a4dc e51c 2e00 d145 0ac1 28d9 172e
000000c0: 4804 b01c f8d5 1812 09e8 df48 e611 e90d
000000d0: 46d3 f602 edf1 ebee 1dee a415 052b 1f13
000000e0: 347f 08be e527 ef3c 201b efba 3017 38ff
000000f0: 23ea cd22 ccdd 25ed 5306 040d f221 07ec
-92 54 8 0 -34 -64 -31 12
-15 -42 77 -33 -20 -48 -68 33
3 16 -51 -13 18 49 46 -33
-16 -69 64 -40 47 89 37 -11
-69 -3 -24 -13 28 2 -70 49
24 -9 -7 -52 28 75 127 17
91 -53 -33 -74 -41 59 -66 -69
-38 -34 7 49 19 23 -27 21
-14 10 69 9 -55 10 19 -12
32 -60 50 5 -9 -125 50 28
94 6 22 -53 50 76 12 -45
-74 -47 -34 12 -102 -127 21 41
-8 25 -18 96 -42 -44 75 -66
40 8 -28 -28 -2 -41 22 64
3 54 -72 40 -26 12 -117 49
55 34 -3 9 -14 -41 -54 -40
-84 -67 29 51 115 -81 -12 -61
-12 -90 33 -5 -19 22 -23 -33
-58 -19 11 9 25 65 -67 -11
-27 0 14 -6 76 28 -46 59
-23 -13 -79 -127 106 43 47 -65
-9 57 59 -65 -17 -71 57 -41
127 94 -92 -36 -27 28 46 0
-47 69 10 -63 40 -39 23 46
72 4 -80 28 -8 -43 24 18
9 -24 -33 72 -26 17 -23 13
70 -45 -10 2 -19 -15 -21 -18
29 -18 -92 21 5 43 31 19
52 127 8 -66 -27 39 -17 60
32 27 -17 -70 48 23 56 -1
35 -22 -51 34 -52 -35 37 -19
83 6 4 13 -14 33 7 -20

tfl.pseudo_qconst17 i1 [56, 1, 1, 336]
00000000: eeff fd26 0abd 0e00 21f3 0521 1414 011a
00000010: 2015 eef8 1103 0081 f40b 0505 24f9 f60f
00000020: 10e1 2c04 2721 18e2 2131 fc1f 1714 f1fc
00000030: de14 1019 1503 eefd 0d02 f914 035c 17f2
00000040: fe01 3034 4a2d 050a fff3 3de5 1626 121c
00000050: 171a 4036 20e7 ed10 0931 0103 d51c ebf6
00000060: d5f8 05d8 1df5 1310 0909 1bf9 130b fb0d
00000070: efe5 15e6 da0a e8fb 26e6 1400 030b 08fa
00000080: 0a1b e60d 1125 22fa 222e 38f1 19f1 f209
00000090: f208 3512 0cf4 1907 cf11 0f2c 121c 3c00
000000a0: ffcf ef14 d908 f637 bff7 0e10 213f 0eff
000000b0: ee26 1d06 e040 e41c eaff 11ef f5fe de59
000000c0: 2315 1632 1c33 1aeb 160a 27f3 140e 1bfd
000000d0: 0522 1125 fa28 47e5 181c 2a0d 101f 1412
000000e0: fb0d 17f7 1413 2a07 17e4 360f 250e 13f5
000000f0: d428 f920 1ceb 2b33 f2f5 0c24 1301 093a
-18 -1 -3 38 10 -67 14 0
33 -13 5 33 20 20 1 26
32 21 -18 -8 17 3 0 -127
-12 11 5 5 36 -7 -10 15
16 -31 44 4 39 33 24 -30
33 49 -4 31 23 20 -15 -4
-34 20 16 25 21 3 -18 -3
13 2 -7 20 3 92 23 -14
-2 1 48 52 74 45 5 10
-1 -13 61 -27 22 38 18 28
23 26 64 54 32 -25 -19 16
9 49 1 3 -43 28 -21 -10
-43 -8 5 -40 29 -11 19 16
9 9 27 -7 19 11 -5 13
-17 -27 21 -26 -38 10 -24 -5
38 -26 20 0 3 11 8 -6
10 27 -26 13 17 37 34 -6
34 46 56 -15 25 -15 -14 9
-14 8 53 18 12 -12 25 7
-49 17 15 44 18 28 60 0
-1 -49 -17 20 -39 8 -10 55
-65 -9 14 16 33 63 14 -1
-18 38 29 6 -32 64 -28 28
-22 -1 17 -17 -11 -2 -34 89
35 21 22 50 28 51 26 -21
22 10 39 -13 20 14 27 -3
5 34 17 37 -6 40 71 -27
24 28 42 13 16 31 20 18
-5 13 23 -9 20 19 42 7
23 -28 54 15 37 14 19 -11
-44 40 -7 32 28 -21 43 51
-14 -11 12 36 19 1 9 58

tfl.pseudo_qconst19 i1 [1, 3, 3, 336]
00000000: d654 102d 1736 f024 02e9 fc12 8b17 991c
00000010: 0c2c edcb 2814 1ea9 f8cf 3717 09ed d1fc
00000020: 0b0d 14d1 fe0e 34ff baf9 edfe ff1c e0f6
00000030: 8800 0398 f7b4 e4e7 1006 1ef6 1b0e 067f
00000040: bba4 18fb 1412 112e e418 1bd5 3238 0f18
00000050: 0838 142f 0692 b22a f7fc 3a10 cb08 60e8
00000060: 041c f67f 61f6 0323 20fa ef1d e359 db1d
00000070: 1681 dbed 0c23 dd34 ebf5 fd54 1e01 9aeb
00000080: 8aee ce1b f316 04f9 0bf7 ee11 fb1c 9d00
00000090: e3fa 01e2 1aa7 2836 3f37 0814 eb2f 121a
000000a0: 0be4 7ff5 4df4 1ff5 f22c ebe6 1327 171c
000000b0: e382 10f6 e817 1b13 1914 09da fffc 19ee
000000c0: 00f3 e816 1522 23db 19ce c905 1cfb 848f
000000d0: 3f1a 8110 e800 1d0a 1f20 e921 2bf7 070d
000000e0: 3b4d 190d 3426 24d9 1ca1 01f7 0b0e 81e3
000000f0: 0902 0e38 220f 4609 03f5 818d 2608 fb11
-42 84 16 45 23 54 -16 36
2 -23 -4 18 -117 23 -103 28
12 44 -19 -53 40 20 30 -87
-8 -49 55 23 9 -19 -47 -4
11 13 20 -47 -2 14 52 -1
-70 -7 -19 -2 -1 28 -32 -10
-120 0 3 -104 -9 -76 -28 -25
16 6 30 -10 27 14 6 127
-69 -92 24 -5 20 18 17 46
-28 24 27 -43 50 56 15 24
8 56 20 47 6 -110 -78 42
-9 -4 58 16 -53 8 96 -24
4 28 -10 127 97 -10 3 35
32 -6 -17 29 -29 89 -37 29
22 -127 -37 -19 12 35 -35 52
-21 -11 -3 84 30 1 -102 -21
-118 -18 -50 27 -13 22 4 -7
11 -9 -18 17 -5 28 -99 0
-29 -6 1 -30 26 -89 40 54
63 55 8 20 -21 47 18 26
11 -28 127 -11 77 -12 31 -11
-14 44 -21 -26 19 39 23 28
-29 -126 16 -10 -24 23 27 19
25 20 9 -38 -1 -4 25 -18
0 -13 -24 22 21 34 35 -37
25 -50 -55 5 28 -5 -124 -113
63 26 -127 16 -24 0 29 10
31 32 -23 33 43 -9 7 13
59 77 25 13 52 38 36 -39
28 -95 1 -9 11 14 -127 -29
9 2 14 56 34 15 70 9
3 -11 -127 -115 38 8 -5 17

tfl.pseudo_qconst21 i1 [336, 1, 1, 56]
00000000: 05f4 d464 e588 3514 03ac c26c ad19 0a29
00000010: cd81 031f df09 5ae9 2b12 d5d9 446e 0b1c
00000020: c931 2e02 f522 3228 35f8 d9da 6e2a ec39
00000030: 09ed 9cc1 281a 1d84 c805 05e5 10fa b1e3
00000040: 1832 23f2 001b 4cef e5f6 48fe ef12 7f0a
00000050: 1f27 17fe 04e6 e3f9 fe04 06ba fe00 fff3
00000060: ff13 2105 3322 0fe3 f0f7 f71e 19df dbdf
00000070: 09cf ffbb f9ec 8189 fbf4 eb09 2f60 f867
00000080: effd da27 11d6 e275 2323 a911 66f6 fe16
00000090: 79e0 2cda 93df 53ea 0536 1d53 f034 2ec3
000000a0: f2df a7c4 22e6 e925 4de6 e6f9 3bd2 3f18
000000b0: 0b41 2100 ea22 dc1f 1430 0df6 ef01 101e
000000c0: f9ea e838 06b7 fc00 0b00 01f1 2825 f408
000000d0: 8101 051c ef17 f824 0c3a 2808 2fef 08e1
000000e0: f801 e9bd e0dd 352f 3d81 f5df fff8 a90c
000000f0: fff4 0c23 2004 c000 200d 15f3 c913 fd35
5 -12 -44 100 -27 -120 53 20
3 -84 -62 108 -83 25 10 41
-51 -127 3 31 -33 9 90 -23
43 18 -43 -39 68 110 11 28
-55 49 46 2 -11 34 50 40
53 -8 -39 -38 110 42 -20 57
9 -19 -100 -63 40 26 29 -124
-56 5 5 -27 16 -6 -79 -29
24 50 35 -14 0 27 76 -17
-27 -10 72 -2 -17 18 127 10
31 39 23 -2 4 -26 -29 -7
-2 4 6 -70 -2 0 -1 -13
-1 19 33 5 51 34 15 -29
-16 -9 -9 30 25 -33 -37 -33
9 -49 -1 -69 -7 -20 -127 -119
-5 -12 -21 9 47 96 -8 103
-17 -3 -38 39 17 -42 -30 117
35 35 -87 17 102 -10 -2 22
121 -32 44 -38 -109 -33 83 -22
5 54 29 83 -16 52 46 -61
-14 -33 -89 -60 34 -26 -23 37
77 -26 -26 -7 59 -46 63 24
11 65 33 0 -22 34 -36 31
20 48 13 -10 -17 1 16 30
-7 -22 -24 56 6 -73 -4 0
11 0 1 -15 40 37 -12 8
-127 1 5 28 -17 23 -8 36
12 58 40 8 47 -17 8 -31
-8 1 -23 -67 -32 -35 53 47
61 -127 -11 -33 -1 -8 -87 12
-1 -12 12 35 32 4 -64 0
32 13 21 -13 -55 19 -3 53

tfl.pseudo_qconst23 i1 [56, 1, 1, 192]
00000000: d75c 0cf4 0c0d d616 f7f6 0321 d50e d224
00000010: faf3 480a fe2b 19df faf2 273e e0fe fa02
00000020: 1218 250d ea09 08fa eff8 ef07 1d27 1f15
00000030: 1ee9 dee5 f5f6 1203 0432 0803 f008 b318
00000040: fe0b 0f29 ff50 263a dbcd f83c 3119 020f
00000050: f7e3 1fd8 4af8 fe1b fafd ef24 1c2e 0b07
00000060: 0925 3dc5 05f5 f91d 2cfb f7ed 30e3 0d12
00000070: 21ee e7b6 2ce3 de40 a62e 25c2 810f 100a
00000080: e7fb f0e1 1407 ef35 1bf9 f318 0d0f 24ec
00000090: cff8 13f7 ea0e ce0e 3df7 021e 3eed 38e6
000000a0: 4ff0 0d1a 02da 270b c9bc 18e9 65f1 1c42
000000b0: e9f4 0605 dc02 292c f9fe f103 ba09 fbf1
000000c0: fa23 480d f2fa c137 efe6 bb17 0eec b4f2
000000d0: 36d5 c8e7 041e 07ef f805 f62b fffe db32
000000e0: e9eb 3de1 2fc4 601f dc81 4001 b122 c41b
000000f0: fad8 9c10 10c7 f099 0f13 b827 d7dd fbd7
-41 92 12 -12 12 13 -42 22
-9 -10 3 33 -43 14 -46 36
-6 -13 72 10 -2 43 25 -33
-6 -14 39 62 -32 -2 -6 2
18 24 37 13 -22 9 8 -6
-17 -8 -17 7 29 39 31 21
30 -23 -34 -27 -11 -10 18 3
4 50 8 3 -16 8 -77 24
-2 11 15 41 -1 80 38 58
-37 -51 -8 60 49 25 2 15
-9 -29 31 -40 74 -8 -2 27
-6 -3 -17 36 28 46 11 7
9 37 61 -59 5 -11 -7 29
44 -5 -9 -19 48 -29 13 18
33 -18 -25 -74 44 -29 -34 64
-90 46 37 -62 -127 15 16 10
-25 -5 -16 -31 20 7 -17 53
27 -7 -13 24 13 15 36 -20
-49 -8 19 -9 -22 14 -50 14
61 -9 2 30 62 -19 56 -26
79 -16 13 26 2 -38 39 11
-55 -68 24 -23 101 -15 28 66
-23 -12 6 5 -36 2 41 44
-7 -2 -15 3 -70 9 -5 -15
-6 35 72 13 -14 -6 -63 55
-17 -26 -69 23 14 -20 -76 -14
54 -43 -56 -25 4 30 7 -17
-8 5 -10 43 -1 -2 -37 50
-23 -21 61 -31 47 -60 96 31
-36 -127 64 1 -79 34 -60 27
-6 -40 -100 16 16 -57 -16 -103
15 19 -72 39 -41 -35 -5 -41

tfl.pseudo_qconst25 i1 [1, 3, 3, 192]
00000000: 544b c4c6 50ab 4652 b5a9 b3bd 4644 c1d1
00000010: 4e9a bf49 496d be3c 543b 3b4a bdc2 e948
00000020: 5163 9a54 4e34 4fc0 bec0 af30 4849 3b48
00000030: a9b0 54c3 4168 c05e 489d 38a2 b86f 3e41
00000040: a7c4 4a46 b1a6 50b9 654e 5cbb 4348 9c44
00000050: 55c3 5368 52bb 5848 5390 4a4d 4645 39ba
00000060: ba66 684f 49bb c74d 4d4e 4e44 c96a 3b4f
00000070: b24b 3ecd c4b4 4f48 3bbf 3a45 c3ad a546
00000080: 3d4b 4bb4 a83e 53c9 f1c4 c94a 3fad a33b
00000090: bc48 be43 baaa 3a42 8962 c6b3 365b c9b8
000000a0: 4e9f 4c8d 5d4a b53e bdd3 b95f 41bd 4839
000000b0: 4a50 c754 8644 564d e94a 5930 4748 b746
000000c0: 665a abaa 6699 556d a290 9ea0 5a5e aebc
000000d0: 5881 a25a 57f3 a052 614a 505d abab fb61
000000e0: 61da 816d 6343 5fa6 a9b0 a141 5e63 5157
000000f0: 4a9b 62af 597f ad78 5b19 5096 a67f 5552
84 75 -60 -58 80 -85 70 82
-75 -87 -77 -67 70 68 -63 -47
78 -102 -65 73 73 109 -66 60
84 59 59 74 -67 -62 -23 72
81 99 -102 84 78 52 79 -64
-66 -64 -81 48 72 73 59 72
-87 -80 84 -61 65 104 -64 94
72 -99 56 -94 -72 111 62 65
-89 -60 74 70 -79 -90 80 -71
101 78 92 -69 67 72 -100 68
85 -61 83 104 82 -69 88 72
83 -112 74 77 70 69 57 -70
-70 102 104 79 73 -69 -57 77
77 78 78 68 -55 106 59 79
-78 75 62 -51 -60 -76 79 72
59 -65 58 69 -61 -83 -91 70
61 75 75 -76 -88 62 83 -55
-15 -60 -55 74 63 -83 -93 59
-68 72 -66 67 -70 -86 58 66
-119 98 -58 -77 54 91 -55 -72
78 -97 76 -115 93 74 -75 62
-67 -45 -71 95 65 -67 72 57
74 80 -57 84 -122 68 86 77
-23 74 89 48 71 72 -73 70
102 90 -85 -86 102 -103 85 109
-94 -112 -98 -96 90 94 -82 -68
88 -127 -94 90 87 -13 -96 82
97 74 80 93 -85 -85 -5 97
97 -38 -127 109 99 67 95 -90
-87 -80 -95 65 94 99 81 87
74 -101 98 -81 89 127 -83 120
91 25 80 -106 -90 127 85 82

tfl.pseudo_qconst27 i1 [192, 1, 1, 32]
00000000: eed0 1810 fadf f73c daea 111f 86f1 06f0
00000010: dbaa d750 e516 f1e5 0ed3 dfd0 ff81 0b09
00000020: 01e0 e511 caf9 0b1e 10e5 81f7 1324 fc19
00000030: dcf3 15bd d01e def0 0ecc dc20 d1ff 01ec
00000040: 31eb 39a6 52ff faff 11e6 1b13 0a01 6712
00000050: d3bf f9d8 f20f fceb ef30 0695 1003 1b7f
00000060: e981 01f7 eef2 bdf7 fcfa ec01 ff05 f1d2
00000070: e4f5 fdfb d503 05fe 0812 0702 1938 1806
00000080: 81f6 e4ef b8d9 65d3 08db d41e 291b fefd
00000090: beca 23d1 fa08 0ff2 281d 07fe e914 3ff2
000000a0: 460b f6cb 4538 fc0a 7f03 5f1a 122c e5ce
000000b0: d32b ecc2 d502 cab4 480f cc01 0de5 351e
000000c0: 05f1 0ff3 fc18 d0db c949 f9ff ff8b 0bf4
000000d0: 47f4 0e10 19f9 df46 d4ed 4431 d3ea 81fc
000000e0: 30b7 260a 00e5 650a f914 1e02 f818 212b
000000f0: 875b fdf7 0017 da25 0425 0fe6 7fe7 1738
-18 -48 24 16 -6 -33 -9 60
-38 -22 17 31 -122 -15 6 -16
-37 -86 -41 80 -27 22 -15 -27
14 -45 -33 -48 -1 -127 11 9
1 -32 -27 17 -54 -7 11 30
16 -27 -127 -9 19 36 -4 25
-36 -13 21 -67 -48 30 -34 -16
14 -52 -36 32 -47 -1 1 -20
49 -21 57 -90 82 -1 -6 -1
17 -26 27 19 10 1 103 18
-45 -65 -7 -40 -14 15 -4 -21
-17 48 6 -107 16 3 27 127
-23 -127 1 -9 -18 -14 -67 -9
-4 -6 -20 1 -1 5 -15 -46
-28 -11 -3 -5 -43 3 5 -2
8 18 7 2 25 56 24 6
-127 -10 -28 -17 -72 -39 101 -45
8 -37 -44 30 41 27 -2 -3
-66 -54 35 -47 -6 8 15 -14
40 29 7 -2 -23 20 63 -14
70 11 -10 -53 69 56 -4 10
127 3 95 26 18 44 -27 -50
-45 43 -20 -62 -43 2 -54 -76
72 15 -52 1 13 -27 53 30
5 -15 15 -13 -4 24 -48 -37
-55 73 -7 -1 -1 -117 11 -12
71 -12 14 16 25 -7 -33 70
-44 -19 68 49 -45 -22 -127 -4
48 -73 38 10 0 -27 101 10
-7 20 30 2 -8 24 33 43
-121 91 -3 -9 0 23 -38 37
4 37 15 -26 127 -25 23 56

tfl.pseudo_qconst29 i1 [32, 1, 1, 192]
00000000: d513 15fd f723 e8a7 10f4 2ced d8fb ef07
00000010: 02f6 0c25 eac6 fff9 0ff3 e7f4 19d0 1011
00000020: 0502 fd0b 0447 1afb f709 fcc4 1e1d fef2
00000030: 0513 cde1 f2eb f225 f9ff 0c1c 17e2 d4cd
00000040: 0209 d4d1 d3e7 c608 0c29 f118 06f5 22ce
00000050: eae0 2cf8 16c3 fa05 03ef 16f3 1d1e 4108
00000060: e5f5 f8e2 02fe a5f3 071d 1418 2c35 eefb
00000070: 04fc fdf1 fbd8 fe1f 570b d2fc 00db f0eb
00000080: b20a 0d19 fdda f818 f904 ce14 022a c6eb
00000090: 0e35 1be1 dfac fa19 156a 171f e00f dc1f
000000a0: 21f1 7f14 021e f6f3 141f 110e 30fc eb0f
000000b0: ec02 d6f6 e6fe 130e fbe4 fdf8 e906 2d51
000000c0: 0ef9 1612 f8fd 171e 9502 fd14 0403 fee0
000000d0: a9e2 111b fff7 fffd f10a 0909 0a2d fc1a
000000e0: f7f6 020d fed5 ff15 edfd 00eb d2f5 f944
000000f0: 0d0f 16db 0cf7 fd08 0a12 f301 031f 02d1
-43 19 21 -3 -9 35 -24 -89
16 -12 44 -19 -40 -5 -17 7
2 -10 12 37 -22 -58 -1 -7
15 -13 -25 -12 25 -48 16 17
5 2 -3 11 4 71 26 -5
-9 9 -4 -60 30 29 -2 -14
5 19 -51 -31 -14 -21 -14 37
-7 -1 12 28 23 -30 -44 -51
2 9 -44 -47 -45 -25 -58 8
12 41 -15 24 6 -11 34 -50
-22 -32 44 -8 22 -61 -6 5
3 -17 22 -13 29 30 65 8
-27 -11 -8 -30 2 -2 -91 -13
7 29 20 24 44 53 -18 -5
4 -4 -3 -15 -5 -40 -2 31
87 11 -46 -4 0 -37 -16 -21
-78 10 13 25 -3 -38 -8 24
-7 4 -50 20 2 42 -58 -21
14 53 27 -31 -33 -84 -6 25
21 106 23 31 -32 15 -36 31
33 -15 127 20 2 30 -10 -13
20 31 17 14 48 -4 -21 15
-20 2 -42 -10 -26 -2 19 14
-5 -28 -3 -8 -23 6 45 81
14 -7 22 18 -8 -3 23 30
-107 2 -3 20 4 3 -2 -32
-87 -30 17 27 -1 -9 -1 -3
-15 10 9 9 10 45 -4 26
-9 -10 2 13 -2 -43 -1 21
-19 -3 0 -21 -46 -11 -7 68
13 15 22 -37 12 -9 -3 8
10 18 -13 1 3 31 2 -47

tfl.pseudo_qconst31 i1 [1, 3, 3, 192]
00000000: 457f 0826 e8fe fdb2 fdf1 0a20 36f6 06a5
00000010: 4a0e 0a05 f334 146f e9eb 12e7 1912 7ca9
00000020: d20a d2eb ecf7 8121 992c f081 1a3d b7ee
00000030: 1c1d f8ee f42f 0ece ed47 0ee4 d5f1 ffe0
00000040: 3ec4 1517 edb4 31fe ead0 0018 020e 93f2
00000050: 13ed f407 1d2c f5ed 2242 a642 522a e6db
00000060: 33dd d112 100d 0ccd 2dea f622 f51f f603
00000070: 0b10 21d7 96e1 8109 e80d ea62 ddd8 35a4
00000080: 2bf5 e931 2efb 0721 d527 13be 7feb d43b
00000090: e709 ce19 360b 2d15 9100 fd0f 1f0d fc04
000000a0: 0ac1 1b33 d9ed 0602 4d1d 1495 fb42 ce03
000000b0: 20ee 1ed1 073f 1af4 f50f 0b81 fd29 0bce
000000c0: 7ffc 1081 bddb 038f 2624 8111 7a19 1a5b
000000d0: 8f04 fecf ff4e f977 7bf0 1f14 1816 7f81
000000e0: 177f 8145 12e3 d0e1 9de7 b515 52ac 1dd5
000000f0: 1526 7f37 e87f 4197 c54d ffd4 a21a 349b
69 127 8 38 -24 -2 -3 -78
-3 -15 10 32 54 -10 6 -91
74 14 10 5 -13 52 20 111
-23 -21 18 -25 25 18 124 -87
-46 10 -46 -21 -20 -9 -127 33
-103 44 -16 -127 26 61 -73 -18
28 29 -8 -18 -12 47 14 -50
-19 71 14 -28 -43 -15 -1 -32
62 -60 21 23 -19 -76 49 -2
-22 -48 0 24 2 14 -109 -14
19 -19 -12 7 29 44 -11 -19
34 66 -90 66 82 42 -26 -37
51 -35 -47 18 16 13 12 -51
45 -22 -10 34 -11 31 -10 3
11 16 33 -41 -106 -31 -127 9
-24 13 -22 98 -35 -40 53 -92
43 -11 -23 49 46 -5 7 33
-43 39 19 -66 127 -21 -44 59
-25 9 -50 25 54 11 45 21
-111 0 -3 15 31 13 -4 4
10 -63 27 51 -39 -19 6 2
77 29 20 -107 -5 66 -50 3
32 -18 30 -47 7 63 26 -12
-11 15 11 -127 -3 41 11 -50
127 -4 16 -127 -67 -37 3 -113
38 36 -127 17 122 25 26 91
-113 4 -2 -49 -1 78 -7 119
123 -16 31 20 24 22 127 -127
23 127 -127 69 18 -29 -48 -31
-99 -25 -75 21 82 -84 29 -43
21 38 127 55 -24 127 65 -105
-59 77 -1 -44 -94 26 52 -101

tfl.pseudo_qconst33 i1 [192, 1, 1, 32]
00000000: 8f3e 7f1c fe05 2afe 1dfe cf2f 592e b5c7
00000010: aec8 102d caae ff13 060a e704 d93b d801
00000020: bbe2 8118 17f1 e8ed 2292 1df7 0b19 1528
00000030: e3e7 f029 0bc2 61e9 0ef8 3c1d 06da e624
00000040: 170c c836 2103 fd1e 0811 0700 b2d7 cfad
00000050: 81c4 1106 f0e8 d838 3cbc 25e5 46a9 31d0
00000060: 10e9 6afa ec26 fdb5 f7e7 ed0d d924 e139
00000070: 22e9 c8ee 0e27 010b 2481 c50a eefc ff0d
00000080: 9b1f e227 ffeb f744 1533 30c1 7f3d d7e6
00000090: 051a d5ed bddd 2a57 d09c 0cfd 1433 b0f5
000000a0: 0901 e2e1 a614 7f11 dde8 260e ed11 fb4f
000000b0: de1f f7fc db02 1615 23db f90d e7c2 200b
000000c0: 13d0 c719 281f 16a9 c0de 7c3a 1fb5 cefc
000000d0: e6c9 ca81 2f31 0b31 0dd0 5743 1a18 f906
000000e0: 7f2e b435 19ea 2d38 0fe3 b5cb 3701 a8f0
000000f0: 40dd 9986 bb27 0800 3cbb 12d3 2f02 2110
-113 62 127 28 -2 5 42 -2
29 -2 -49 47 89 46 -75 -57
-82 -56 16 45 -54 -82 -1 19
6 10 -25 4 -39 59 -40 1
-69 -30 -127 24 23 -15 -24 -19
34 -110 29 -9 11 25 21 40
-29 -25 -16 41 11 -62 97 -23
14 -8 60 29 6 -38 -26 36
23 12 -56 54 33 3 -3 30
8 17 7 0 -78 -41 -49 -83
-127 -60 17 6 -16 -24 -40 56
60 -68 37 -27 70 -87 49 -48
16 -23 106 -6 -20 38 -3 -75
-9 -25 -19 13 -39 36 -31 57
34 -23 -56 -18 14 39 1 11
36 -127 -59 10 -18 -4 -1 13
-101 31 -30 39 -1 -21 -9 68
21 51 48 -63 127 61 -41 -26
5 26 -43 -19 -67 -35 42 87
-48 -100 12 -3 20 51 -80 -11
9 1 -30 -31 -90 20 127 17
-35 -24 38 14 -19 17 -5 79
-34 31 -9 -4 -37 2 22 21
35 -37 -7 13 -25 -62 32 11
19 -48 -57 25 40 31 22 -87
-64 -34 124 58 31 -75 -50 -4
-26 -55 -54 -127 47 49 11 49
13 -48 87 67 26 24 -7 6
127 46 -76 53 25 -22 45 56
15 -29 -75 -53 55 1 -88 -16
64 -35 -103 -122 -69 39 8 0
60 -69 18 -45 47 2 33 16

tfl.pseudo_qconst35 i1 [32, 1, 1, 192]
00000000: 0702 b704 e6ea eb1d 06d4 fadf 1920 f7f8
00000010: 0e09 08d6 1dee fbf9 ecd9 01ed eac6 f70a
00000020: 4ef7 1c5a 1d0b f50e 2792 d11e 1b28 0404
00000030: 3ac4 e229 d4e1 2307 e0f6 c77f 46e0 d723
00000040: 05f8 d403 23f6 fb10 f2f0 1c18 f101 c6e7
00000050: 44da f2f6 f1d4 f104 150d 1013 02dd 05e3
00000060: fde6 2cc3 0cdb f209 e806 35bd ff62 2b04
00000070: 30ff e3fb f00a ff1f 0011 ff08 001a 27ca
00000080: 0f25 fdbf e824 f8f5 4cf8 0f2e d829 ef03
00000090: c101 04f1 5d15 f5d5 44f7 34f7 aeea edcd
000000a0: dddc df14 400f 1233 df36 d204 2533 ef0e
000000b0: ffc5 2213 cb36 1132 cffa 0e06 e8b1 d038
000000c0: 02f5 25f0 0414 fedb fb11 fdfd f403 0dee
000000d0: 05cc eafc fff2 0624 08de 1eff 0c22 14e0
000000e0: ecf5 08ed 81ed 17f1 e707 3200 ed13 f5f3
000000f0: 1a20 f452 13fe 1400 e4e1 e5f6 181a 0318
7 2 -73 4 -26 -22 -21 29
6 -44 -6 -33 25 32 -9 -8
14 9 8 -42 29 -18 -5 -7
-20 -39 1 -19 -22 -58 -9 10
78 -9 28 90 29 11 -11 14
39 -110 -47 30 27 40 4 4
58 -60 -30 41 -44 -31 35 7
-32 -10 -57 127 70 -32 -41 35
5 -8 -44 3 35 -10 -5 16
-14 -16 28 24 -15 1 -58 -25
68 -38 -14 -10 -15 -44 -15 4
21 13 16 19 2 -35 5 -29
-3 -26 44 -61 12 -37 -14 9
-24 6 53 -67 -1 98 43 4
48 -1 -29 -5 -16 10 -1 31
0 17 -1 8 0 26 39 -54
15 37 -3 -65 -24 36 -8 -11
76 -8 15 46 -40 41 -17 3
-63 1 4 -15 93 21 -11 -43
68 -9 52 -9 -82 -22 -19 -51
-35 -36 -33 20 64 15 18 51
-33 54 -46 4 37 51 -17 14
-1 -59 34 19 -53 54 17 50
-49 -6 14 6 -24 -79 -48 56
2 -11 37 -16 4 20 -2 -37
-5 17 -3 -3 -12 3 13 -18
5 -52 -22 -4 -1 -14 6 36
8 -34 30 -1 12 34 20 -32
-20 -11 8 -19 -127 -19 23 -15
-25 7 50 0 -19 19 -11 -13
26 32 -12 82 19 -2 20 0
-28 -31 -27 -10 24 26 3 24

tfl.pseudo_qconst37 i1 [1, 3, 3, 192]
00000000: 01e7 f0da 3ed9 ff01 0419 3609 f80c 16ec
00000010: e181 1237 0700 3012 fbd8 1a0f e1c0 4e26
00000020: b2c6 00fc b1f1 dffb e9b0 81db d0cc 04e4
00000030: 149d 0296 351a b6e9 f206 0a0c de61 f92c
00000040: 1618 d1e9 282c 2227 130a eedb e2b2 fe08
00000050: a5ec f921 1a33 b406 0a89 f3e9 1615 23f9
00000060: a9a7 0a11 e8f9 d80b 023e 0524 f3cd 08ed
00000070: f5ee 07f6 fe0a df03 f05f fc4d 2172 f77f
00000080: d81d 4520 fcea 2918 251e e4f6 f4fa 0630
00000090: 3229 2815 bc16 1dc0 21fe 2a9d 0bfc dd20
000000a0: c0e3 070f 2ef0 b315 0db1 1984 2a2a 1ab0
000000b0: 324f 20f1 11fe 0401 ee0e 3ef0 ee16 8b0a
000000c0: 0624 2481 7f81 81b1 e513 04af 0a01 5ffc
000000d0: e3a0 5d2c 27f2 7fdb f42d 0910 1c89 b9be
000000e0: af25 5208 81f9 7ffa 16d6 9381 7fa0 f90a
000000f0: 0509 7fb5 7f70 bd06 c970 9015 f57f 7f7f
1 -25 -16 -38 62 -39 -1 1
4 25 54 9 -8 12 22 -20
-31 -127 18 55 7 0 48 18
-5 -40 26 15 -31 -64 78 38
-78 -58 0 -4 -79 -15 -33 -5
-23 -80 -127 -37 -48 -52 4 -28
20 -99 2 -106 53 26 -74 -23
-14 6 10 12 -34 97 -7 44
22 24 -47 -23 40 44 34 39
19 10 -18 -37 -30 -78 -2 8
-91 -20 -7 33 26 51 -76 6
10 -119 -13 -23 22 21 35 -7
-87 -89 10 17 -24 -7 -40 11
2 62 5 36 -13 -51 8 -19
-11 -18 7 -10 -2 10 -33 3
-16 95 -4 77 33 114 -9 127
-40 29 69 32 -4 -22 41 24
37 30 -28 -10 -12 -6 6 48
50 41 40 21 -68 22 29 -64
33 -2 42 -99 11 -4 -35 32
-64 -29 7 15 46 -16 -77 21
13 -79 25 -124 42 42 26 -80
50 79 32 -15 17 -2 4 1
-18 14 62 -16 -18 22 -117 10
6 36 36 -127 127 -127 -127 -79
-27 19 4 -81 10 1 95 -4
-29 -96 93 44 39 -14 127 -37
-12 45 9 16 28 -119 -71 -66
-81 37 82 8 -127 -7 127 -6
22 -42 -109 -127 127 -96 -7 10
5 9 127 -75 127 112 -67 6
-55 112 -112 21 -11 127 127 127

tfl.pseudo_qconst39 i1 [192, 1, 1, 32]
00000000: 04e7 10d1 0f21 fc7f fcea f8f8 e81b 1230
00000010: e8ff fcea 3a05 10fa e51d 3810 1bf2 31e4
00000020: 0b01 02ee f703 0b2b dc51 051a feac f804
00000030: 03f0 d1d6 f581 ce0d d314 04f5 f907 00f9
00000040: 10fd 1620 f71f fc56 f981 f538 1ec0 cdec
00000050: 6402 0bf0 0fe8 a700 eae4 fcec 01f8 2ad2
00000060: 0d1d e807 f4ff 30cf 2634 f827 1d26 bd81
00000070: dfe2 48ef 01f0 f9da 171f d0d5 20f8 0718
00000080: ded6 043c 50f8 e71e 551a cf06 3ffc 9520
00000090: cffa ccf2 dd2a a181 2fff d5db 3539 feda
000000a0: ffe5 0eaf 0121 f834 a712 fb81 ed56 3b28
000000b0: 0a1c 1b20 5819 b349 4533 2e48 130f 0fe3
000000c0: bad5 cf1b 12f8 da4b f97f 5c18 0357 1506
000000d0: 064d e714 1b46 6e2c facf 8946 fe0f e8f6
000000e0: 3d7f 08a9 c5fe 2f2b 01f3 3221 08e9 01bb
000000f0: efdc 65b3 0df3 257e 4507 0ad8 c625 152d
4 -25 16 -47 15 33 -4 127
-4 -22 -8 -8 -24 27 18 48
-24 -1 -4 -22 58 5 16 -6
-27 29 56 16 27 -14 49 -28
11 1 2 -18 -9 3 11 43
-36 81 5 26 -2 -84 -8 4
3 -16 -47 -42 -11 -127 -50 13
-45 20 4 -11 -7 7 0 -7
16 -3 22 32 -9 31 -4 86
-7 -127 -11 56 30 -64 -51 -20
100 2 11 -16 15 -24 -89 0
-22 -28 -4 -20 1 -8 42 -46
13 29 -24 7 -12 -1 48 -49
38 52 -8 39 29 38 -67 -127
-33 -30 72 -17 1 -16 -7 -38
23 31 -48 -43 32 -8 7 24
-34 -42 4 60 80 -8 -25 30
85 26 -49 6 63 -4 -107 32
-49 -6 -52 -14 -35 42 -95 -127
47 -1 -43 -37 53 57 -2 -38
-1 -27 14 -81 1 33 -8 52
-89 18 -5 -127 -19 86 59 40
10 28 27 32 88 25 -77 73
69 51 46 72 19 15 15 -29
-70 -43 -49 27 18 -8 -38 75
-7 127 92 24 3 87 21 6
6 77 -25 20 27 70 110 44
-6 -49 -119 70 -2 15 -24 -10
61 127 8 -87 -59 -2 47 43
1 -13 50 33 8 -23 1 -69
-17 -36 101 -77 13 -13 37 126
69 7 10 -40 -58 37 21 45

tfl.pseudo_qconst41 i1 [32, 1, 1, 144]
00000000: ffdd 44ff 09e3 1cce b401 26f9 00f4 f148
00000010: 7801 15f4 cf44 0500 e812 eff4 f0f9 ebff
00000020: 4fee 1502 e3f5 1e00 f603 f481 3502 0102
00000030: fb00 0fce 0720 0afe 131d f6f3 07e3 2fdb
00000040: f815 f005 f3ec 1b0f fefa fdf5 f9fe 000b
00000050: 3617 f20e f60f fd01 23e6 0008 0819 ff00
00000060: 01f7 f7e8 0902 27fa 0f0b bfff e5d1 1ff5
00000070: ef21 da13 00e7 3201 11f3 061d 2ce8 03f5
00000080: fe11 02ea 142e 023c fd71 0ef6 e61f e6f6
00000090: 0805 03fc 011b f203 2406 f406 f18e fee2
000000a0: 13ef f501 32f7 fdff fd12 ff04 e309 0325
000000b0: 03f5 0ff8 0600 fdfe fefb 1dfa 0109 f4f9
000000c0: 0312 01fc 2aef f7f5 f7f8 02f0 e5fb da09
000000d0: fffc fe0c 0181 e5fb f906 ff06 fe10 f300
000000e0: 01c7 06f6 0bf3 0dff fe12 f7f5 ff16 000d
000000f0: 12ae 02fd f903 4fce f011 0305 0df4 fb07
-1 -35 68 -1 9 -29 28 -50
-76 1 38 -7 0 -12 -15 72
120 1 21 -12 -49 68 5 0
-24 18 -17 -12 -16 -7 -21 -1
79 -18 21 2 -29 -11 30 0
-10 3 -12 -127 53 2 1 2
-5 0 15 -50 7 32 10 -2
19 29 -10 -13 7 -29 47 -37
-8 21 -16 5 -13 -20 27 15
-2 -6 -3 -11 -7 -2 0 11
54 23 -14 14 -10 15 -3 1
35 -26 0 8 8 25 -1 0
1 -9 -9 -24 9 2 39 -6
15 11 -65 -1 -27 -47 31 -11
-17 33 -38 19 0 -25 50 1
17 -13 6 29 44 -24 3 -11
-2 17 2 -22 20 46 2 60
-3 113 14 -10 -26 31 -26 -10
8 5 3 -4 1 27 -14 3
36 6 -12 6 -15 -114 -2 -30
19 -17 -11 1 50 -9 -3 -1
-3 18 -1 4 -29 9 3 37
3 -11 15 -8 6 0 -3 -2
-2 -5 29 -6 1 9 -12 -7
3 18 1 -4 42 -17 -9 -11
-9 -8 2 -16 -27 -5 -38 9
-1 -4 -2 12 1 -127 -27 -5
-7 6 -1 6 -2 16 -13 0
1 -57 6 -10 11 -13 13 -1
-2 18 -9 -11 -1 22 0 13
18 -82 2 -3 -7 3 79 -50
-16 17 3 5 13 -12 -5 7

tfl.pseudo_qconst43 i1 [1, 3, 3, 144]
00000000: 1af4 1381 21fa f8c2 f2f7 0502 fd07 f9f0
00000010: ef07 f21d 0efd df06 ecf3 f3fd 08fc e9f7
00000020: fffc bbf7 1305 fd11 f731 f800 f2e1 daf9
00000030: 2600 0ff4 0a0b aafb f0f2 c607 1200 04f7
00000040: 5301 dc14 fdfd ebfa faee fffd 0afe f6f8
00000050: fd08 f10a 0503 fa01 fbf9 d8f7 d4f2 f510
00000060: dcf8 eaf5 07fc 0801 ccfc 010c fde8 f9a8
00000070: 1dfa f5eb 19ff 0108 f9f4 fffd feeb fff5
00000080: 0315 081e f606 e2f9 fc05 d00d 0105 f9a8
00000090: ed12 14f6 7fff f6a1 0007 09f2 ed06 ed00
000000a0: 14b3 a0bf 08f3 2707 0a27 dafa f6cd af07
000000b0: 151a 88e5 177f ffaa ecf0 07ef 0eea a11b
000000c0: 0e20 6712 3c0d 8135 0c18 d50c ff0d f927
000000d0: 7f3b ea7f 3202 09ff ede9 17bc 7f14 13fb
000000e0: fe01 fde5 1316 3d5d f224 a259 c219 1a1d
000000f0: f801 eb09 e7fc fddd 8418 15db d6bb fc81
26 -12 19 -127 33 -6 -8 -62
-14 -9 5 2 -3 7 -7 -16
-17 7 -14 29 14 -3 -33 6
-20 -13 -13 -3 8 -4 -23 -9
-1 -4 -69 -9 19 5 -3 17
-9 49 -8 0 -14 -31 -38 -7
38 0 15 -12 10 11 -86 -5
-16 -14 -58 7 18 0 4 -9
83 1 -36 20 -3 -3 -21 -6
-6 -18 -1 -3 10 -2 -10 -8
-3 8 -15 10 5 3 -6 1
-5 -7 -40 -9 -44 -14 -11 16
-36 -8 -22 -11 7 -4 8 1
-52 -4 1 12 -3 -24 -7 -88
29 -6 -11 -21 25 -1 1 8
-7 -12 -1 -3 -2 -21 -1 -11
3 21 8 30 -10 6 -30 -7
-4 5 -48 13 1 5 -7 -88
-19 18 20 -10 127 -1 -10 -95
0 7 9 -14 -19 6 -19 0
20 -77 -96 -65 8 -13 39 7
10 39 -38 -6 -10 -51 -81 7
21 26 -120 -27 23 127 -1 -86
-20 -16 7 -17 14 -22 -95 27
14 32 103 18 60 13 -127 53
12 24 -43 12 -1 13 -7 39
127 59 -22 127 50 2 9 -1
-19 -23 23 -68 127 20 19 -5
-2 1 -3 -27 19 22 61 93
-14 36 -94 89 -62 25 26 29
-8 1 -21 9 -25 -4 -3 -35
-124 24 21 -37 -42 -69 -4 -127

tfl.pseudo_qconst45 i1 [144, 1, 1, 24]
00000000: 842a 1ccd f60f 1510 e010 e97f aa07 e9b4
00000010: 9729 4001 4935 1a5c a6f1 2711 bcf0 fd14
00000020: f12f d126 127f b840 fb1c ec2b e33a 55b0
00000030: cb7f 1430 b8ca fb9d 31fe efb2 d913 f9d9
00000040: 3708 4cdc 3909 ce1a 0237 61fb ac21 a74f
00000050: ea13 14f4 c919 231d f810 ec35 81c5 fbe7
00000060: 02f2 81e5 2907 f413 fc0a e8e9 cc1b e2d3
00000070: 09f5 1e44 0d01 1226 81d4 f055 0f24 c203
00000080: 2ee1 e9d5 e960 e952 c810 0734 e33d 18e5
00000090: 20ea e7b4 3000 cada da16 007f ba4b e1bc
000000a0: 4b14 22df 34ef 1c32 fd4c e40b 03c1 faf8
000000b0: 7f0d bee3 c972 6622 18dc 3ffc 0c30 ff31
000000c0: c200 f3c3 fe09 2be1 ac28 f7cf ce10 c36d
000000d0: b902 320c 32e6 497f eaf3 2440 390c 501d
000000e0: 130d f00d 3d07 01f5 2404 3006 7f50 fce9
000000f0: bac2 1029 00ee 36f1 05de eef5 1c02 815a
-124 42 28 -51 -10 15 21 16
-32 16 -23 127 -86 7 -23 -76
-105 41 64 1 73 53 26 92
-90 -15 39 17 -68 -16 -3 20
-15 47 -47 38 18 127 -72 64
-5 28 -20 43 -29 58 85 -80
-53 127 20 48 -72 -54 -5 -99
49 -2 -17 -78 -39 19 -7 -39
55 8 76 -36 57 9 -50 26
2 55 97 -5 -84 33 -89 79
-22 19 20 -12 -55 25 35 29
-8 16 -20 53 -127 -59 -5 -25
2 -14 -127 -27 41 7 -12 19
-4 10 -24 -23 -52 27 -30 -45
9 -11 30 68 13 1 18 38
-127 -44 -16 85 15 36 -62 3
46 -31 -23 -43 -23 96 -23 82
-56 16 7 52 -29 61 24 -27
32 -22 -25 -76 48 0 -54 -38
-38 22 0 127 -70 75 -31 -68
75 20 34 -33 52 -17 28 50
-3 76 -28 11 3 -63 -6 -8
127 13 -66 -29 -55 114 102 34
24 -36 63 -4 12 48 -1 49
-62 0 -13 -61 -2 9 43 -31
-84 40 -9 -49 -50 16 -61 109
-71 2 50 12 50 -26 73 127
-22 -13 36 64 57 12 80 29
19 13 -16 13 61 7 1 -11
36 4 48 6 127 80 -4 -23
-70 -62 16 41 0 -18 54 -15
5 -34 -18 -11 28 2 -127 90

tfl.pseudo_qconst47 i1 [24, 1, 1, 144]
00000000: f42c fee9 fcfd e15e 0701 f803 0004 ff06
00000010: 0a00 0905 28d5 03f2 f9f9 e59d fef6 ecf3
00000020: 0efc fe0b f013 0c0d f414 0df3 f20a e6e0
00000030: f903 0ff0 feec ee03 f3ff 1209 f612 0ff3
00000040: 0581 3bf2 f814 edf3 03f1 f906 5318 0603
00000050: 06fe f158 081b 2107 f90c f2f6 0101 18f9
00000060: fe06 f01d fb16 00ef 1b00 03dd 2703 fff0
00000070: 0b05 0dea fb04 17fc f913 0bfd 0109 12f0
00000080: 0a9b 0306 e620 eb28 0a19 ee0f de1c 2b16
00000090: 087f 3c97 01b6 c212 0adf e8fe e10f 3121
000000a0: f0d0 0d39 eade fd11 bfe2 4206 1d17 2aaf
000000b0: d19d 03e4 3360 99a6 fac6 c3c4 5afd 08c5
000000c0: 69dd 02d8 54e0 29d3 60b0 f3e9 a9f7 0930
000000d0: 0dde d82f 71ef 2357 a7ea 88e6 d39b d5a3
000000e0: 0feb 112e bc70 2cfe b539 28dd 952e 00eb
000000f0: 81ea 2bd1 d024 a1fb df00 0907 dcf2 0501
-12 44 -2 -23 -4 -3 -31 94
7 1 -8 3 0 4 -1 6
10 0 9 5 40 -43 3 -14
-7 -7 -27 -99 -2 -10 -20 -13
14 -4 -2 11 -16 19 12 13
-12 20 13 -13 -14 10 -26 -32
-7 3 15 -16 -2 -20 -18 3
-13 -1 18 9 -10 18 15 -13
5 -127 59 -14 -8 20 -19 -13
3 -15 -7 6 83 24 6 3
6 -2 -15 88 8 27 33 7
-7 12 -14 -10 1 1 24 -7
-2 6 -16 29 -5 22 0 -17
27 0 3 -35 39 3 -1 -16
11 5 13 -22 -5 4 23 -4
-7 19 11 -3 1 9 18 -16
10 -101 3 6 -26 32 -21 40
10 25 -18 15 -34 28 43 22
8 127 60 -105 1 -74 -62 18
10 -33 -24 -2 -31 15 49 33
-16 -48 13 57 -22 -34 -3 17
-65 -30 66 6 29 23 42 -81
-47 -99 3 -28 51 96 -103 -90
-6 -58 -61 -60 90 -3 8 -59
105 -35 2 -40 84 -32 41 -45
96 -80 -13 -23 -87 -9 9 48
13 -34 -40 47 113 -17 35 87
-89 -22 -120 -26 -45 -101 -43 -93
15 -21 17 46 -68 112 44 -2
-75 57 40 -35 -107 46 0 -21
-127 -22 43 -47 -48 36 -95 -5
-33 0 9 7 -36 -14 5 1

tfl.pseudo_qconst49 i1 [1, 3, 3, 144]
00000000: b0cc 1305 e007 1842 3b1c f1e4 f105 f60b
00000010: f715 1af8 e201 242e 07fb ee29 27c6 1d00
00000020: 26fc 3403 8a08 0e13 0806 3517 efeb 0601
00000030: 09e4 2e12 0726 ed1a efdf e518 7601 f3ae
00000040: a52f 3027 0f01 f819 7f22 2009 130e fefb
00000050: 09f8 041d f51e 6215 1313 f227 180e eb4d
00000060: a300 05f9 04e7 1e06 0c02 ed2a 0206 7fab
00000070: d802 0cf7 021d fbcf 0e2b 8116 0d48 1221
00000080: 2706 2302 eaf8 81e6 1822 4be2 e8e8 0b81
00000090: c202 0735 c92a d7d5 7f1e 816d 1536 5cbd
000000a0: fff4 f24a 03ea 5cea 4ef4 017f 2fbd 4a1f
000000b0: e6cf dfdb 811c fc0f 7fd3 7fe3 1c8c 1df7
000000c0: 7f66 e621 f68d f1ee 8160 ea0a 7fc0 2429
000000d0: 2286 36b0 7fd7 67f4 677f 5a09 057f eb5b
000000e0: 06fb 0a7f 02dc 7f42 7f65 bbfd 397f d87f
000000f0: 0ade 03a7 127c ddf7 1ee2 e07f 7f7f f6c3
-80 -52 19 5 -32 7 24 66
59 28 -15 -28 -15 5 -10 11
-9 21 26 -8 -30 1 36 46
7 -5 -18 41 39 -58 29 0
38 -4 52 3 -118 8 14 19
8 6 53 23 -17 -21 6 1
9 -28 46 18 7 38 -19 26
-17 -33 -27 24 118 1 -13 -82
-91 47 48 39 15 1 -8 25
127 34 32 9 19 14 -2 -5
9 -8 4 29 -11 30 98 21
19 19 -14 39 24 14 -21 77
-93 0 5 -7 4 -25 30 6
12 2 -19 42 2 6 127 -85
-40 2 12 -9 2 29 -5 -49
14 43 -127 22 13 72 18 33
39 6 35 2 -22 -8 -127 -26
24 34 75 -30 -24 -24 11 -127
-62 2 7 53 -55 42 -41 -43
127 30 -127 109 21 54 92 -67
-1 -12 -14 74 3 -22 92 -22
78 -12 1 127 47 -67 74 31
-26 -49 -33 -37 -127 28 -4 15
127 -45 127 -29 28 -116 29 -9
127 102 -26 33 -10 -115 -15 -18
-127 96 -22 10 127 -64 36 41
34 -122 54 -80 127 -41 103 -12
103 127 90 9 5 127 -21 91
6 -5 10 127 2 -36 127 66
127 101 -69 -3 57 127 -40 127
10 -34 3 -89 18 124 -35 -9
30 -30 -32 127 127 127 -10 -61

tfl.pseudo_qconst51 i1 [144, 1, 1, 24]
00000000: d43b 84ef fdc0 b1fe 8137 170f f7af c0de
00000010: d423 fa19 5527 a45e 05fe 7b29 c5ac 10d2
00000020: b60c fe1f 457f 0c06 a154 c0bb 42de dd00
00000030: 03f7 3016 0a08 e215 0622 de81 d910 196f
00000040: dbf3 1735 20dc 410c ecea 050c fbf6 2a81
00000050: e5f6 fd0b 0a1e e8e9 eb34 e8d2 f4f4 e0f6
00000060: cd3f d5c3 1020 e0f5 78fb cf81 fe3f 3636
00000070: 0ee4 f8d5 5214 fe01 fd0f 0efd 000e 007f
00000080: f6fb 0505 eefc 1614 fe16 0119 0dff 0602
00000090: b7b3 361e c21f dcbf f9bb 7ff1 d019 f966
000000a0: 7d02 cbe3 1016 01c2 81ec 20af 69fb ee0b
000000b0: 0604 3eef fc2a 0cf1 efa6 0a11 0cd2 cad3
000000c0: 1dff a591 05c2 a83b 8183 d537 f0b2 1bfb
000000d0: b62a 8c12 7244 1500 bc39 0d12 05e5 a4d8
000000e0: 9b7f eb2e c4f1 e419 c91c 42c5 411b 1c2d
000000f0: 00e5 e1f5 c033 14e4 89ea d38a ed0f b028
-44 59 -124 -17 -3 -64 -79 -2
-127 55 23 15 -9 -81 -64 -34
-44 35 -6 25 85 39 -92 94
5 -2 123 41 -59 -84 16 -46
-74 12 -2 31 69 127 12 6
-95 84 -64 -69 66 -34 -35 0
3 -9 48 22 10 8 -30 21
6 34 -34 -127 -39 16 25 111
-37 -13 23 53 32 -36 65 12
-20 -22 5 12 -5 -10 42 -127
-27 -10 -3 11 10 30 -24 -23
-21 52 -24 -46 -12 -12 -32 -10
-51 63 -43 -61 16 32 -32 -11
120 -5 -49 -127 -2 63 54 54
14 -28 -8 -43 82 20 -2 1
-3 15 14 -3 0 14 0 127
-10 -5 5 5 -18 -4 22 20
-2 22 1 25 13 -1 6 2
-73 -77 54 30 -62 31 -36 -65
-7 -69 127 -15 -48 25 -7 102
125 2 -53 -29 16 22 1 -62
-127 -20 32 -81 105 -5 -18 11
6 4 62 -17 -4 42 12 -15
-17 -90 10 17 12 -46 -54 -45
29 -1 -91 -111 5 -62 -88 59
-127 -125 -43 55 -16 -78 27 -5
-74 42 -116 18 114 68 21 0
-68 57 13 18 5 -27 -92 -40
-101 127 -21 46 -60 -15 -28 25
-55 28 66 -59 65 27 28 45
0 -27 -31 -11 -64 51 20 -28
-119 -22 -45 -118 -19 15 -80 40

tfl.pseudo_qconst53 i1 [24, 1, 1, 144]
00000000: fa29 1e1b 0c5c ef01 ebfa fb04 c7fd 064e
00000010: f6e2 fc0d 061f fb2d f4e0 3bfc 03d8 0c13
00000020: 1018 ebdb faf9 d7eb f1f0 0f03 e736 f7f9
00000030: e2d9 1124 0d21 1315 f7e3 20ce 1fee fc2b
00000040: d0df 17c2 f2f1 f907 fff0 1122 f5e3 fc08
00000050: 01fd 0d73 1d00 0eed 661d c203 004d 0d19
00000060: 05fd f4fe 8109 301a 000f fecb 1a30 fdd7
00000070: 0e19 dc08 e3e8 f3f9 ea2a 0820 0aed fb02
00000080: 17f3 e4eb fc0a ec00 03e4 ef1d 1c09 fa34
00000090: 0130 300f 20ce 40af 0bc4 f1d8 1843 20c1
000000a0: dd10 4bfc b9eb f42a 2beb 05ec fbff cfbe
000000b0: f12e fd06 1c4c 1012 eb0a f3f2 3178 ed14
000000c0: 0408 ef0a 11fb 08e3 9e25 ed50 04f3 0c3c
000000d0: f915 11fe d025 b8ff f6e4 e914 dc1d 9f4d
000000e0: 3900 9909 f0db 493b 0648 2c20 d909 06c6
000000f0: 2211 371c 7fe7 3906 ebd4 28f0 1428 ea09
-6 41 30 27 12 92 -17 1
-21 -6 -5 4 -57 -3 6 78
-10 -30 -4 13 6 31 -5 45
-12 -32 59 -4 3 -40 12 19
16 24 -21 -37 -6 -7 -41 -21
-15 -16 15 3 -25 54 -9 -7
-30 -39 17 36 13 33 19 21
-9 -29 32 -50 31 -18 -4 43
-48 -33 23 -62 -14 -15 -7 7
-1 -16 17 34 -11 -29 -4 8
1 -3 13 115 29 0 14 -19
102 29 -62 3 0 77 13 25
5 -3 -12 -2 -127 9 48 26
0 15 -2 -53 26 48 -3 -41
14 25 -36 8 -29 -24 -13 -7
-22 42 8 32 10 -19 -5 2
23 -13 -28 -21 -4 10 -20 0
3 -28 -17 29 28 9 -6 52
1 48 48 15 32 -50 64 -81
11 -60 -15 -40 24 67 32 -63
-35 16 75 -4 -71 -21 -12 42
43 -21 5 -20 -5 -1 -49 -66
-15 46 -3 6 28 76 16 18
-21 10 -13 -14 49 120 -19 20
4 8 -17 10 17 -5 8 -29
-98 37 -19 80 4 -13 12 60
-7 21 17 -2 -48 37 -72 -1
-10 -28 -23 20 -36 29 -97 77
57 0 -103 9 -16 -37 73 59
6 72 44 32 -39 9 6 -58
34 17 55 28 127 -25 57 6
-21 -44 40 -16 20 40 -22 9

tfl.pseudo_qconst55 i1 [1, 3, 3, 144]
00000000: fc01 fe87 37dd 07f8 f3fd b42e fe8b f30d
00000010: 000c 0bef 09f6 01f6 f6f0 f313 08dd 071f
00000020: 0e1f 170c df08 1504 0d2f ec06 93ea d112
00000030: ae09 feea 1406 c60a f4e8 faf1 f7f7 01a0
00000040: 1912 2f09 17fa cfa3 2bed d9d6 fbed 5809
00000050: 0bee 0cf5 1016 fc81 e702 04d2 e87f e3ef
00000060: 0400 28b0 f00d 13fe 1527 18fe 0ffa fe0d
00000070: 1400 0a19 fe04 0510 0d07 05dc 1311 bcd4
00000080: fdf8 1af5 24df 27fa 1422 0427 0318 100f
00000090: 0f7f 7fcd 2327 de01 ad29 97c5 32cd 03df
000000a0: ec0f 05c4 e7ab e829 b517 11c0 e195 f97f
000000b0: 0324 f37f d10f fae5 7ffa f9da dd81 81e4
000000c0: efea 2d29 fbfe 81bd e4db 16e7 f4a7 479c
000000d0: 06fd 7f4e 3681 ce93 200b e1b7 e07f 9c05
000000e0: 1330 e019 ee7f 053f 81f4 0c81 f84a ebd3
000000f0: dafc 0881 dcfa 07fa 2281 7f1c ba06 c57f
-4 1 -2 -121 55 -35 7 -8
-13 -3 -76 46 -2 -117 -13 13
0 12 11 -17 9 -10 1 -10
-10 -16 -13 19 8 -35 7 31
14 31 23 12 -33 8 21 4
13 47 -20 6 -109 -22 -47 18
-82 9 -2 -22 20 6 -58 10
-12 -24 -6 -15 -9 -9 1 -96
25 18 47 9 23 -6 -49 -93
43 -19 -39 -42 -5 -19 88 9
11 -18 12 -11 16 22 -4 -127
-25 2 4 -46 -24 127 -29 -17
4 0 40 -80 -16 13 19 -2
21 39 24 -2 15 -6 -2 13
20 0 10 25 -2 4 5 16
13 7 5 -36 19 17 -68 -44
-3 -8 26 -11 36 -33 39 -6
20 34 4 39 3 24 16 15
15 127 127 -51 35 39 -34 1
-83 41 -105 -59 50 -51 3 -33
-20 15 5 -60 -25 -85 -24 41
-75 23 17 -64 -31 -107 -7 127
3 36 -13 127 -47 15 -6 -27
127 -6 -7 -38 -35 -127 -127 -28
-17 -22 45 41 -5 -2 -127 -67
-28 -37 22 -25 -12 -89 71 -100
6 -3 127 78 54 -127 -50 -109
32 11 -31 -73 -32 127 -100 5
19 48 -32 25 -18 127 5 63
-127 -12 12 -127 -8 74 -21 -45
-38 -4 8 -127 -36 -6 7 -6
34 -127 127 28 -70 6 -59 127

tfl.pseudo_qconst57 i1 [144, 1, 1, 24]
00000000: 01c6 7f3f e164 156b a3e7 f58b 24fc d621
00000010: fcf1 c9a0 9d23 25e2 eafe e82a cf06 00fe
00000020: 8111 f207 161d e0d7 e60a e8d3 050b 30e1
00000030: ccd6 f752 d4fb 1712 b0fc f3d4 0cc5 7fec
00000040: f924 16ec ebd2 c64f c12f dff7 c3dc bb0d
00000050: 32d7 074f 8c27 d7eb c90b e408 81cd ff6e
00000060: 13e6 ffdc dcfd 7f2d de12 e60d 0644 059a
00000070: f600 0da6 f2e2 0410 d4fe 0006 d1e9 b619
00000080: 18f7 1220 d21d db13 d007 d9f8 81d7 ed1b
00000090: bcf0 f64a f14f e3e4 b1b9 4d99 f8d2 c581
000000a0: 1cd2 c5ed f402 f6a7 eea2 8287 e82d 8947
000000b0: f5eb c6f6 a756 979d 90e4 0d7f bad0 1805
000000c0: 1e05 45b2 2408 430f 3ee4 0b7f 03b2 5a4a
000000d0: efe8 e9fd 02e5 d23d 0abf ad55 7b0f 3f27
000000e0: 05f8 b7b8 2b48 cf3d 7fe8 fa7d 5e43 df48
000000f0: 160c 1861 210d fd43 c519 ed0a 1e2c fd67
1 -58 127 63 -31 100 21 107
-93 -25 -11 -117 36 -4 -42 33
-4 -15 -55 -96 -99 35 37 -30
-22 -2 -24 42 -49 6 0 -2
-127 17 -14 7 22 29 -32 -41
-26 10 -24 -45 5 11 48 -31
-52 -42 -9 82 -44 -5 23 18
-80 -4 -13 -44 12 -59 127 -20
-7 36 22 -20 -21 -46 -58 79
-63 47 -33 -9 -61 -36 -69 13
50 -41 7 79 -116 39 -41 -21
-55 11 -28 8 -127 -51 -1 110
19 -26 -1 -36 -36 -3 127 45
-34 18 -26 13 6 68 5 -102
-10 0 13 -90 -14 -30 4 16
-44 -2 0 6 -47 -23 -74 25
24 -9 18 32 -46 29 -37 19
-48 7 -39 -8 -127 -41 -19 27
-68 -16 -10 74 -15 79 -29 -28
-79 -71 77 -103 -8 -46 -59 -127
28 -46 -59 -19 -12 2 -10 -89
-18 -94 -126 -121 -24 45 -119 71
-11 -21 -58 -10 -89 86 -105 -99
-112 -28 13 127 -70 -48 24 5
30 5 69 -78 36 8 67 15
62 -28 11 127 3 -78 90 74
-17 -24 -23 -3 2 -27 -46 61
10 -65 -83 85 123 15 63 39
5 -8 -73 -72 43 72 -49 61
127 -24 -6 125 94 67 -33 72
22 12 24 97 33 13 -3 67
-59 25 -19 10 30 44 -3 103

tfl.pseudo_qconst59 i1 [24, 1, 1, 144]
00000000: 09fe 37fa 121c e2d9 ecdb 18df d4eb dffb
00000010: 03e2 dfeb 12e3 f0ed d1ee 1b1a 31d1 b704
00000020: d6f1 ddf6 3322 d9c3 ee1c 17e1 1104 2102
00000030: 158f e00c e2e9 f028 1b39 1d19 dcd9 09d4
00000040: f79d 0ced f5e5 ff37 f2e9 f9ea 04b9 db7f
00000050: d315 d40e d8e6 04d3 28ab fff5 a0f8 ecf8
00000060: f500 cb0e 02e4 f02c cb24 0c40 f1ff 10fe
00000070: ffe1 e20e eae2 5510 fa2b 0dea 452f 21af
00000080: f356 e522 eb14 54c2 01e3 f513 d6c6 eebe
00000090: df28 10ed 1618 a656 1b52 cc2e 0911 fa32
000000a0: 22cf f71e f6fd 03eb db0f 0318 fafc 2703
000000b0: 0cf8 bee6 e7ab 021d 03fe 190c 2c03 54f3
000000c0: fbbd f10c e630 d6fc ee2a f313 d67f c02f
000000d0: 46df 08f6 c4f3 f7e9 d9d6 180a 0e23 e8d0
000000e0: 77ac fba4 b829 c015 c337 f7fc e90c 050f
000000f0: dcd5 33a5 2cfd e29b 31df 2819 ec14 dfc8
9 -2 55 -6 18 28 -30 -39
-20 -37 24 -33 -44 -21 -33 -5
3 -30 -33 -21 18 -29 -16 -19
-47 -18 27 26 49 -47 -73 4
-42 -15 -35 -10 51 34 -39 -61
-18 28 23 -31 17 4 33 2
21 -113 -32 12 -30 -23 -16 40
27 57 29 25 -36 -39 9 -44
-9 -99 12 -19 -11 -27 -1 55
-14 -23 -7 -22 4 -71 -37 127
-45 21 -44 14 -40 -26 4 -45
40 -85 -1 -11 -96 -8 -20 -8
-11 0 -53 14 2 -28 -16 44
-53 36 12 64 -15 -1 16 -2
-1 -31 -30 14 -22 -30 85 16
-6 43 13 -22 69 47 33 -81
-13 86 -27 34 -21 20 84 -62
1 -29 -11 19 -42 -58 -18 -66
-33 40 16 -19 22 24 -90 86
27 82 -52 46 9 17 -6 50
34 -49 -9 30 -10 -3 3 -21
-37 15 3 24 -6 -4 39 3
12 -8 -66 -26 -25 -85 2 29
3 -2 25 12 44 3 84 -13
-5 -67 -15 12 -26 48 -42 -4
-18 42 -13 19 -42 127 -64 47
70 -33 8 -10 -60 -13 -9 -23
-39 -42 24 10 14 35 -24 -48
119 -84 -5 -92 -72 41 -64 21
-61 55 -9 -4 -23 12 5 15
-36 -43 51 -91 44 -3 -30 -101
49 -33 40 25 -20 20 -33 -56
