pcqat_model.tflite (tflite, 637136 bytes, 53 tensors)

mushroom_mobilenet_v2/quant_Conv1/Conv2D;mushroom_mobilenet_v2/quant_Conv1/LastValueQuant/FakeQuantWithMinMaxVarsPerChannel i1 [16, 3, 3, 3]
0	0x12	18
1	0x19	25
2	0x00	0
3	0xb9	-71
4	0x81	-127
5	0xd5	-43
6	0x30	48
7	0x72	114
8	0x19	25
9	0x12	18
10	0x30	48
11	0x00	0
12	0xb9	-71
13	0x81	-127
14	0xd5	-43
15	0x48	72
16	0x72	114
17	0x19	25
18	0x00	0
19	0x00	0
20	0x00	0
21	0xee	-18
22	0xe5	-27
23	0xee	-18
24	0x12	18
25	0x12	18
26	0x00	0
27	0x00	0
28	0x00	0
29	0xe1	-31
30	0x20	32
31	0x54	84
32	0x2c	44
33	0x7f	127
34	0x7f	127
35	0x54	84
36	0x00	0
37	0x00	0
38	0x00	0
39	0x00	0
40	0xe1	-31
41	0x00	0
42	0x20	32
43	0x00	0
44	0x00	0
45	0x00	0
46	0x20	32
47	0xe1	-31
48	0x00	0
49	0x00	0
50	0x00	0
51	0x00	0
52	0x00	0
53	0x00	0
54	0xc7	-57
55	0xaa	-86
56	0xe5	-27
57	0xb9	-71
58	0x81	-127
59	0xd5	-43
60	0xe5	-27
61	0xc7	-57
62	0xee	-18
63	0x12	18
64	0x30	48
65	0x00	0
66	0x12	18
67	0x30	48
68	0x00	0
69	0x12	18
70	0x19	25
71	0x00	0
72	0x19	25
73	0x30	48
74	0x12	18
75	0x30	48
76	0x48	72
77	0x12	18
78	0x19	25
79	0x12	18
80	0x00	0
81	0x00	0
82	0x00	0
83	0x00	0
84	0x00	0
85	0x00	0
86	0x00	0
87	0x00	0
88	0x00	0
89	0x00	0
90	0x00	0
91	0x00	0
92	0x00	0
93	0x00	0
94	0x00	0
95	0x00	0
96	0x00	0
97	0x00	0
98	0x00	0
99	0x00	0
100	0x00	0
101	0x00	0
102	0x00	0
103	0x00	0
104	0x00	0
105	0x00	0
106	0x00	0
107	0x00	0
108	0x30	48
109	0x72	114
110	0x19	25
111	0xc7	-57
112	0x9b	-101
113	0xe5	-27
114	0x00	0
115	0x00	0
116	0x00	0
117	0x48	72
118	0x72	114
119	0x19	25
120	0xb9	-71
121	0x81	-127
122	0xd5	-43
123	0x00	0
124	0x12	18
125	0x00	0
126	0x19	25
127	0x12	18
128	0x00	0
129	0xe5	-27
130	0xe5	-27
131	0xee	-18
132	0x00	0
133	0x00	0
134	0x00	0
135	0x00	0
136	0x00	0
137	0x00	0
138	0x00	0
139	0x00	0
140	0x00	0
141	0x00	0
142	0x00	0
143	0x00	0
144	0x00	0
145	0x00	0
146	0x00	0
147	0x00	0
148	0x00	0
149	0x00	0
150	0x00	0
151	0x00	0
152	0x00	0
153	0x00	0
154	0x00	0
155	0x00	0
156	0x00	0
157	0x00	0
158	0x00	0
159	0x00	0
160	0x00	0
161	0x00	0
162	0x14	20
163	0x00	0
164	0xea	-22
165	0x5d	93
166	0xdd	-35
167	0xc6	-58
168	0x5d	93
169	0xea	-22
170	0xc6	-58
171	0x3a	58
172	0xf2	-14
173	0xc6	-58
174	0x7f	127
175	0xd2	-46
176	0x99	-103
177	0x3a	58
178	0xf2	-14
179	0xd2	-46
180	0x3a	58
181	0x00	0
182	0xc6	-58
183	0x3a	58
184	0xf2	-14
185	0xc6	-58
186	0xea	-22
187	0x0f	15
188	0x0f	15
189	0x00	0
190	0x00	0
191	0x00	0
192	0x00	0
193	0x00	0
194	0x00	0
195	0x00	0
196	0x00	0
197	0x00	0
198	0x00	0
199	0x00	0
200	0x00	0
201	0x00	0
202	0x00	0
203	0x00	0
204	0x00	0
205	0x00	0
206	0x00	0
207	0x00	0
208	0x00	0
209	0x00	0
210	0x00	0
211	0x00	0
212	0x00	0
213	0x00	0
214	0x00	0
215	0x00	0
216	0x00	0
217	0xea	-22
218	0x00	0
219	0x00	0
220	0x00	0
221	0x00	0
222	0x17	23
223	0xea	-22
224	0x00	0
225	0xca	-54
226	0x94	-108
227	0xdd	-35
228	0xca	-54
229	0x81	-127
230	0xdd	-35
231	0x00	0
232	0xea	-22
233	0x00	0
234	0xca	-54
235	0xca	-54
236	0xea	-22
237	0xdd	-35
238	0xdd	-35
239	0xea	-22
240	0x00	0
241	0x00	0
242	0x00	0
243	0xb4	-76
244	0x7f	127
245	0x20	32
246	0xe1	-31
247	0x7f	127
248	0xcf	-49
249	0x54	84
250	0xcf	-49
251	0xe1	-31
252	0xe1	-31
253	0x20	32
254	0x00	0
255	0x00	0

mushroom_mobilenet_v2/quant_expanded_conv_depthwise/depthwise;mushroom_mobilenet_v2/quant_expanded_conv_depthwise/LastValueQuant/FakeQuantWithMinMaxVarsPerChannel i1 [1, 3, 3, 16]
0	0xfd	-3
1	0xfd	-3
2	0xfe	-2
3	0xfc	-4
4	0xff	-1
5	0x02	2
6	0x25	37
7	0xff	-1
8	0xfc	-4
9	0xf6	-10
10	0xcd	-51
11	0xfa	-6
12	0xf1	-15
13	0xfd	-3
14	0xf4	-12
15	0xff	-1
16	0x01	1
17	0xff	-1
18	0x35	53
19	0xfe	-2
20	0x02	2
21	0xfa	-6
22	0x54	84
23	0x01	1
24	0x62	98
25	0xef	-17
26	0xe7	-25
27	0xfd	-3
28	0x69	105
29	0xfe	-2
30	0x02	2
31	0x3c	60
32	0x03	3
33	0xfb	-5
34	0xfc	-4
35	0xfa	-6
36	0x01	1
37	0xf9	-7
38	0x89	-119
39	0x02	2
40	0xe0	-32
41	0x19	25
42	0x4a	74
43	0xf6	-10
44	0xef	-17
45	0xfe	-2
46	0x09	9
47	0xfb	-5
48	0x40	64
49	0x28	40
50	0xfe	-2
51	0xfc	-4
52	0x02	2
53	0x00	0
54	0x25	37
55	0x02	2
56	0xf6	-10
57	0xe6	-26
58	0xbf	-65
59	0xf5	-11
60	0xf4	-12
61	0xfc	-4
62	0x72	114
63	0xfa	-6
64	0xc7	-57
65	0x17	23
66	0xcd	-51
67	0xfc	-4
68	0x3b	59
69	0xfe	-2
70	0x5a	90
71	0x04	4
72	0x13	19
73	0xf7	-9
74	0xc3	-61
75	0xf6	-10
76	0xe2	-30
77	0xfe	-2
78	0x10	16
79	0xfd	-3
80	0xf7	-9
81	0xfa	-6
82	0x02	2
83	0xf9	-7
84	0xc1	-63
85	0xf8	-8
86	0xf7	-9
87	0x00	0
88	0x04	4
89	0x01	1
90	0x12	18
91	0xf9	-7
92	0xf7	-9
93	0xff	-1
94	0x81	-127
95	0xfa	-6
96	0xf8	-8
97	0xe2	-30
98	0x00	0
99	0xfd	-3
100	0xff	-1
101	0x02	2
102	0x99	-103
103	0x03	3
104	0xf5	-11
105	0x0f	15
106	0x6a	106
107	0xf6	-10
108	0x00	0
109	0xfc	-4
110	0xe8	-24
111	0xf8	-8
112	0x05	5
113	0xf2	-14
114	0x03	3
115	0xfb	-5
116	0xfc	-4
117	0x00	0
118	0xec	-20
119	0x02	2
120	0xd8	-40
121	0x0f	15
122	0x0d	13
123	0xf9	-7
124	0xf6	-10
125	0xfd	-3
126	0xfc	-4
127	0xf5	-11
128	0x04	4
129	0x00	0
130	0xff	-1
131	0xf6	-10
132	0x06	6
133	0xfe	-2
134	0x03	3
135	0x00	0
136	0xf5	-11
137	0x02	2
138	0xf5	-11
139	0xff	-1
140	0x03	3
141	0xfb	-5
142	0x1a	26
143	0xf6	-10

mushroom_mobilenet_v2/quant_expanded_conv_project/Conv2D;mushroom_mobilenet_v2/quant_expanded_conv_project/LastValueQuant/FakeQuantWithMinMaxVarsPerChannel i1 [8, 1, 1, 16]
0	0xfb	-5
1	0xfb	-5
2	0xe7	-25
3	0x00	0
4	0xfb	-5
5	0x00	0
6	0x81	-127
7	0x00	0
8	0x14	20
9	0x27	39
10	0x14	20
11	0x00	0
12	0x00	0
13	0x00	0
14	0xe7	-25
15	0x0b	11
16	0xe2	-30
17	0xf2	-14
18	0x81	-127
19	0x00	0
20	0x08	8
21	0x00	0
22	0x0d	13
23	0x00	0
24	0x00	0
25	0xf9	-7
26	0x00	0
27	0x00	0
28	0xe2	-30
29	0x00	0
30	0x00	0
31	0x00	0
32	0x0a	10
33	0x00	0
34	0x0a	10
35	0x00	0
36	0x3c	60
37	0x00	0
38	0x1e	30
39	0x00	0
40	0x00	0
41	0xef	-17
42	0x7f	127
43	0x00	0
44	0x00	0
45	0x00	0
46	0x7f	127
47	0xf8	-8
48	0xde	-34
49	0x00	0
50	0x09	9
51	0x00	0
52	0x37	55
53	0x00	0
54	0xcb	-53
55	0x00	0
56	0xf0	-16
57	0x28	40
58	0x9d	-99
59	0x00	0
60	0x00	0
61	0x00	0
62	0x7f	127
63	0xf0	-16
64	0x08	8
65	0x00	0
66	0xf2	-14
67	0x00	0
68	0x81	-127
69	0x00	0
70	0x00	0
71	0x00	0
72	0x00	0
73	0xf2	-14
74	0x00	0
75	0x00	0
76	0x00	0
77	0x00	0
78	0x30	48
79	0x00	0
80	0x74	116
81	0x00	0
82	0xcb	-53
83	0x00	0
84	0x09	9
85	0x00	0
86	0x00	0
87	0x00	0
88	0xde	-34
89	0x09	9
90	0x00	0
91	0x00	0
92	0x7f	127
93	0x00	0
94	0x00	0
95	0xf8	-8
96	0x7f	127
97	0xf8	-8
98	0x0f	15
99	0x00	0
100	0x0f	15
101	0x00	0
102	0x00	0
103	0x00	0
104	0x28	40
105	0x0f	15
106	0x00	0
107	0x00	0
108	0x9d	-99
109	0x00	0
110	0x09	9
111	0x09	9
112	0x0d	13
113	0x30	48
114	0x18	24
115	0x00	0
116	0xf2	-14
117	0x00	0
118	0xf9	-7
119	0x00	0
120	0x81	-127
121	0x00	0
122	0x00	0
123	0x00	0
124	0xe2	-30
125	0x00	0
126	0xf9	-7
127	0xbc	-68

mushroom_mobilenet_v2/quant_block_1_expand/Conv2D;mushroom_mobilenet_v2/quant_block_1_expand/LastValueQuant/FakeQuantWithMinMaxVarsPerChannel i1 [48, 1, 1, 8]
0	0x1f	31
1	0x00	0
2	0x8d	-115
3	0x81	-127
4	0x00	0
5	0x00	0
6	0xe1	-31
7	0x1f	31
8	0x00	0
9	0xc8	-56
10	0x00	0
11	0x00	0
12	0xde	-34
13	0x81	-127
14	0x37	55
15	0x00	0
16	0x81	-127
17	0x00	0
18	0x37	55
19	0x9c	-100
20	0x00	0
21	0x00	0
22	0x00	0
23	0x00	0
24	0x00	0
25	0xdc	-36
26	0xdc	-36
27	0xb6	-74
28	0x00	0
29	0x7f	127
30	0x7f	127
31	0x24	36
32	0x2e	46
33	0x00	0
34	0x7f	127
35	0x8c	-116
36	0x00	0
37	0x00	0
38	0x00	0
39	0x1d	29
40	0x16	22
41	0x7f	127
42	0x00	0
43	0x00	0
44	0x00	0
45	0x16	22
46	0x00	0
47	0xea	-22
48	0x00	0
49	0x00	0
50	0x00	0
51	0xe1	-31
52	0x00	0
53	0x00	0
54	0x00	0
55	0x81	-127
56	0x81	-127
57	0x18	24
58	0x00	0
59	0xe8	-24
60	0x00	0
61	0x00	0
62	0x00	0
63	0xe8	-24
64	0x00	0
65	0xc5	-59
66	0xdc	-36
67	0xdc	-36
68	0x3a	58
69	0x49	73
70	0x7f	127
71	0x00	0
72	0xde	-34
73	0x9c	-100
74	0x00	0
75	0x00	0
76	0x00	0
77	0x81	-127
78	0x5b	91
79	0x00	0
80	0x00	0
81	0x00	0
82	0xc0	-64
83	0x81	-127
84	0x00	0
85	0x00	0
86	0x00	0
87	0x1f	31
88	0x23	35
89	0x00	0
90	0x81	-127
91	0x81	-127
92	0xc8	-56
93	0xde	-34
94	0xde	-34
95	0x23	35
96	0x7f	127
97	0x00	0
98	0x00	0
99	0x3a	58
100	0x00	0
101	0x00	0
102	0x00	0
103	0x24	36
104	0x00	0
105	0x23	35
106	0x00	0
107	0x23	35
108	0x81	-127
109	0xc8	-56
110	0xc8	-56
111	0x00	0
112	0xd0	-48
113	0xd0	-48
114	0x62	98
115	0x7f	127
116	0x4d	77
117	0x30	48
118	0x7f	127
119	0x00	0
120	0xe8	-24
121	0x00	0
122	0x00	0
123	0xe8	-24
124	0x00	0
125	0x00	0
126	0x00	0
127	0x81	-127
128	0x2c	44
129	0x00	0
130	0x81	-127
131	0x81	-127
132	0xd5	-43
133	0x00	0
134	0xd5	-43
135	0x00	0
136	0x00	0
137	0x81	-127
138	0x00	0
139	0x00	0
140	0x00	0
141	0x63	99
142	0x81	-127
143	0x00	0
144	0xa5	-91
145	0x00	0
146	0x81	-127
147	0x6e	110
148	0x00	0
149	0x00	0
150	0x00	0
151	0x00	0
152	0x4f	79
153	0x00	0
154	0x00	0
155	0x00	0
156	0x00	0
157	0x81	-127
158	0x81	-127
159	0xb3	-77
160	0x00	0
161	0x00	0
162	0x00	0
163	0x00	0
164	0x7f	127
165	0xc5	-59
166	0xb6	-74
167	0x00	0
168	0x00	0
169	0x00	0
170	0xea	-22
171	0x00	0
172	0x7f	127
173	0xd2	-46
174	0xbf	-65
175	0x00	0
176	0x81	-127
177	0x23	35
178	0x79	121
179	0x9c	-100
180	0x00	0
181	0x00	0
182	0x00	0
183	0x00	0
184	0x00	0
185	0xc5	-59
186	0xdc	-36
187	0xc5	-59
188	0x49	73
189	0x5f	95
190	0x7f	127
191	0x24	36
192	0x00	0
193	0x00	0
194	0x00	0
195	0x00	0
196	0x81	-127
197	0x37	55
198	0x37	55
199	0x00	0
200	0x00	0
201	0x1d	29
202	0x00	0
203	0x00	0
204	0x00	0
205	0x00	0
206	0x00	0
207	0x7f	127
208	0x1f	31
209	0x1f	31
210	0x00	0
211	0x00	0
212	0x00	0
213	0x00	0
214	0x1f	31
215	0x81	-127
216	0x7f	127
217	0xea	-22
218	0x00	0
219	0x16	22
220	0x00	0
221	0x00	0
222	0x00	0
223	0x00	0
224	0x00	0
225	0x00	0
226	0x00	0
227	0x3e	62
228	0x9c	-100
229	0x81	-127
230	0x81	-127
231	0x00	0
232	0x3e	62
233	0x00	0
234	0x9c	-100
235	0x81	-127
236	0x00	0
237	0xc3	-61
238	0xc3	-61
239	0x81	-127
240	0x7f	127
241	0xdc	-36
242	0x49	73
243	0xb6	-74
244	0x00	0
245	0x00	0
246	0x00	0
247	0xb6	-74
248	0x00	0
249	0x37	55
250	0x00	0
251	0x00	0
252	0x00	0
253	0x81	-127
254	0x79	121
255	0x00	0

mushroom_mobilenet_v2/quant_block_1_depthwise/depthwise;mushroom_mobilenet_v2/quant_block_1_depthwise/LastValueQuant/FakeQuantWithMinMaxVarsPerChannel i1 [1, 3, 3, 48]
0	0xe2	-30
1	0x3d	61
2	0x28	40
3	0x2c	44
4	0xff	-1
5	0xe1	-31
6	0xf7	-9
7	0x18	24
8	0xf8	-8
9	0x2e	46
10	0x11	17
11	0x04	4
12	0x0c	12
13	0xe7	-25
14	0x36	54
15	0x14	20
16	0xf6	-10
17	0x04	4
18	0x05	5
19	0xdc	-36
20	0x04	4
21	0x40	64
22	0x01	1
23	0xee	-18
24	0xaa	-86
25	0xdc	-36
26	0xf9	-7
27	0x0c	12
28	0x05	5
29	0xc9	-55
30	0x20	32
31	0x0a	10
32	0xe0	-32
33	0x11	17
34	0x2a	42
35	0x26	38
36	0x34	52
37	0x14	20
38	0xe3	-29
39	0xf2	-14
40	0xd6	-42
41	0x14	20
42	0x36	54
43	0xc9	-55
44	0x32	50
45	0xd9	-39
46	0xd9	-39
47	0xf1	-15
48	0xc4	-60
49	0x58	88
50	0x38	56
51	0x4d	77
52	0x1e	30
53	0xdf	-33
54	0xe0	-32
55	0x2b	43
56	0xd2	-46
57	0x3e	62
58	0x46	70
59	0xdb	-37
60	0x05	5
61	0xd3	-45
62	0x2e	46
63	0x15	21
64	0x03	3
65	0x03	3
66	0x1b	27
67	0xee	-18
68	0x4a	74
69	0x44	68
70	0xf1	-15
71	0xda	-38
72	0x0a	10
73	0xa7	-89
74	0x03	3
75	0x1f	31
76	0x10	16
77	0x3f	63
78	0x28	40
79	0x14	20
80	0xdb	-37
81	0x14	20
82	0x43	67
83	0x34	52
84	0x41	65
85	0x23	35
86	0x63	99
87	0xf5	-11
88	0xd3	-45
89	0xba	-70
90	0x07	7
91	0xfd	-3
92	0x55	85
93	0xc8	-56
94	0xd2	-46
95	0xfa	-6
96	0xeb	-21
97	0x2e	46
98	0x1b	27
99	0x19	25
100	0x20	32
101	0xf5	-11
102	0xe3	-29
103	0x27	39
104	0xd8	-40
105	0x17	23
106	0x20	32
107	0xd9	-39
108	0xce	-50
109	0xed	-19
110	0xff	-1
111	0xf8	-8
112	0x0a	10
113	0xfd	-3
114	0x26	38
115	0x2b	43
116	0x02	2
117	0x04	4
118	0xf8	-8
119	0xed	-19
120	0xfe	-2
121	0xd9	-39
122	0x04	4
123	0x1e	30
124	0xc3	-61
125	0x04	4
126	0x05	5
127	0x08	8
128	0xf2	-14
129	0x02	2
130	0x28	40
131	0x10	16
132	0x05	5
133	0x19	25
134	0xbe	-66
135	0x00	0
136	0xf1	-15
137	0x04	4
138	0xd9	-39
139	0xc3	-61
140	0x19	25
141	0xf4	-12
142	0xec	-20
143	0x0c	12
144	0xd9	-39
145	0x01	1
146	0x2e	46
147	0x30	48
148	0x06	6
149	0xd0	-48
150	0xf8	-8
151	0x22	34
152	0xf5	-11
153	0x30	48
154	0x15	21
155	0x0a	10
156	0x12	18
157	0xdc	-36
158	0x3e	62
159	0x2f	47
160	0xfc	-4
161	0x25	37
162	0x07	7
163	0xcc	-52
164	0xfd	-3
165	0x51	81
166	0xee	-18
167	0xe8	-24
168	0x94	-108
169	0x03	3
170	0x4c	76
171	0x18	24
172	0x03	3
173	0xa6	-90
174	0x29	41
175	0x39	57
176	0xcd	-51
177	0x42	66
178	0x29	41
179	0x30	48
180	0x3e	62
181	0xa7	-89
182	0x1f	31
183	0xc1	-63
184	0xd5	-43
185	0x1f	31
186	0x3e	62
187	0xcf	-49
188	0xb2	-78
189	0xd3	-45
190	0xce	-50
191	0xde	-34
192	0xbe	-66
193	0x11	17
194	0x12	18
195	0x58	88
196	0x45	69
197	0xd0	-48
198	0xd0	-48
199	0x6d	109
200	0xb9	-71
201	0x43	67
202	0x57	87
203	0xc6	-58
204	0x24	36
205	0xcd	-51
206	0x40	64
207	0x4b	75
208	0x32	50
209	0x43	67
210	0x43	67
211	0xe7	-25
212	0x64	100
213	0x54	84
214	0xc7	-57
215	0xc8	-56
216	0x19	25
217	0xf7	-9
218	0xa2	-94
219	0x43	67
220	0x28	40
221	0x5e	94
222	0x39	57
223	0x52	82
224	0xc3	-61
225	0x53	83
226	0x3f	63
227	0x4d	77
228	0x4e	78
229	0x81	-127
230	0x9b	-101
231	0xa7	-89
232	0xd3	-45
233	0xa8	-88
234	0x2e	46
235	0x30	48
236	0xab	-85
237	0xbd	-67
238	0xc7	-57
239	0xc4	-60
240	0xda	-38
241	0x0a	10
242	0xe7	-25
243	0x18	24
244	0x3c	60
245	0xe3	-29
246	0xd1	-47
247	0x2f	47
248	0xca	-54
249	0x17	23
250	0x38	56
251	0xc7	-57
252	0xcd	-51
253	0xdc	-36
254	0xf8	-8
255	0x29	41

mushroom_mobilenet_v2/quant_block_1_project/Conv2D;mushroom_mobilenet_v2/quant_block_1_project/LastValueQuant/FakeQuantWithMinMaxVarsPerChannel i1 [8, 1, 1, 48]
0	0x00	0
1	0x00	0
2	0x21	33
3	0x00	0
4	0x00	0
5	0x00	0
6	0x00	0
7	0x7f	127
8	0x00	0
9	0x00	0
10	0x21	33
11	0x00	0
12	0x00	0
13	0x00	0
14	0x00	0
15	0x64	100
16	0x00	0
17	0x00	0
18	0x00	0
19	0x00	0
20	0x00	0
21	0x00	0
22	0xc7	-57
23	0x00	0
24	0x00	0
25	0x00	0
26	0x00	0
27	0x82	-126
28	0x00	0
29	0x00	0
30	0xdb	-37
31	0x00	0
32	0x00	0
33	0x00	0
34	0x00	0
35	0x00	0
36	0x00	0
37	0x00	0
38	0x00	0
39	0xdb	-37
40	0x00	0
41	0x00	0
42	0x00	0
43	0x00	0
44	0x00	0
45	0x00	0
46	0x00	0
47	0x21	33
48	0x17	23
49	0x17	23
50	0x00	0
51	0x81	-127
52	0x17	23
53	0x00	0
54	0x17	23
55	0x00	0
56	0x37	55
57	0x00	0
58	0x00	0
59	0xf0	-16
60	0xe3	-29
61	0x21	33
62	0x00	0
63	0x00	0
64	0x17	23
65	0x21	33
66	0xe3	-29
67	0xe3	-29
68	0x17	23
69	0x81	-127
70	0x00	0
71	0x21	33
72	0x17	23
73	0x00	0
74	0xe3	-29
75	0x00	0
76	0x00	0
77	0xda	-38
78	0x17	23
79	0x00	0
80	0xe3	-29
81	0x2f	47
82	0x00	0
83	0x21	33
84	0xad	-83
85	0x21	33
86	0xf0	-16
87	0x00	0
88	0x00	0
89	0x00	0
90	0x00	0
91	0x00	0
92	0x21	33
93	0x00	0
94	0x37	55
95	0x00	0
96	0x00	0
97	0x46	70
98	0x1e	30
99	0x74	116
100	0x46	70
101	0x00	0
102	0x00	0
103	0x00	0
104	0x3c	60
105	0xb7	-73
106	0x00	0
107	0x00	0
108	0x2a	42
109	0x00	0
110	0xd0	-48
111	0x00	0
112	0xdb	-37
113	0x46	70
114	0xb7	-73
115	0x3c	60
116	0x74	116
117	0xdb	-37
118	0xeb	-21
119	0x00	0
120	0x7f	127
121	0x00	0
122	0xb7	-73
123	0x00	0
124	0x46	70
125	0x46	70
126	0x3c	60
127	0xeb	-21
128	0x3c	60
129	0x1e	30
130	0x00	0
131	0x00	0
132	0x00	0
133	0x74	116
134	0xd0	-48
135	0x00	0
136	0x00	0
137	0x46	70
138	0xeb	-21
139	0x2a	42
140	0x46	70
141	0x2a	42
142	0xdb	-37
143	0x1e	30
144	0x00	0
145	0x2a	42
146	0xeb	-21
147	0x1e	30
148	0x97	-105
149	0x00	0
150	0x00	0
151	0x00	0
152	0x1e	30
153	0x1e	30
154	0x00	0
155	0x00	0
156	0x00	0
157	0x00	0
158	0xeb	-21
159	0x00	0
160	0xeb	-21
161	0x3c	60
162	0x7f	127
163	0x00	0
164	0x2a	42
165	0xdb	-37
166	0x1e	30
167	0x00	0
168	0x3c	60
169	0x1e	30
170	0xdb	-37
171	0x00	0
172	0x1e	30
173	0x1e	30
174	0x97	-105
175	0x2a	42
176	0x1e	30
177	0x74	116
178	0x3c	60
179	0x3c	60
180	0xeb	-21
181	0x46	70
182	0xdb	-37
183	0x2a	42
184	0xeb	-21
185	0x1e	30
186	0x00	0
187	0x1e	30
188	0x3c	60
189	0x00	0
190	0x00	0
191	0x00	0
192	0x11	17
193	0x00	0
194	0x00	0
195	0x00	0
196	0x11	17
197	0x22	34
198	0x00	0
199	0x18	24
200	0x00	0
201	0x00	0
202	0xc4	-60
203	0x18	24
204	0x00	0
205	0x00	0
206	0x00	0
207	0xe5	-27
208	0xf4	-12
209	0x00	0
210	0x00	0
211	0x00	0
212	0x00	0
213	0x00	0
214	0x00	0
215	0x00	0
216	0x00	0
217	0xeb	-21
218	0x00	0
219	0xe5	-27
220	0x00	0
221	0x00	0
222	0x00	0
223	0x00	0
224	0x11	17
225	0x00	0
226	0x00	0
227	0xeb	-21
228	0x00	0
229	0x00	0
230	0x00	0
231	0x7f	127
232	0xeb	-21
233	0x00	0
234	0xeb	-21
235	0x11	17
236	0x00	0
237	0x00	0
238	0xf4	-12
239	0x43	67
240	0x00	0
241	0xeb	-21
242	0x1e	30
243	0x00	0
244	0x3c	60
245	0xeb	-21
246	0xdb	-37
247	0x00	0
248	0xdb	-37
249	0x7f	127
250	0x00	0
251	0x1e	30
252	0x00	0
253	0x00	0
254	0xeb	-21
255	0x00	0

mushroom_mobilenet_v2/quant_block_2_expand/Conv2D;mushroom_mobilenet_v2/quant_block_2_expand/LastValueQuant/FakeQuantWithMinMaxVarsPerChannel i1 [48, 1, 1, 8]
0	0x00	0
1	0x63	99
2	0x00	0
3	0x63	99
4	0x00	0
5	0x7f	127
6	0x00	0
7	0x27	39
8	0x00	0
9	0x49	73
10	0x29	41
11	0x00	0
12	0xcc	-52
13	0x81	-127
14	0x49	73
15	0x29	41
16	0x00	0
17	0x00	0
18	0x00	0
19	0x00	0
20	0xbe	-66
21	0x00	0
22	0x2e	46
23	0x7f	127
24	0x00	0
25	0x00	0
26	0x00	0
27	0x00	0
28	0xd9	-39
29	0xd9	-39
30	0x4d	77
31	0x7f	127
32	0x00	0
33	0x00	0
34	0x00	0
35	0x00	0
36	0x00	0
37	0x00	0
38	0x81	-127
39	0x4f	79
40	0x00	0
41	0x3e	62
42	0x30	48
43	0x7f	127
44	0xee	-18
45	0x6f	111
46	0x00	0
47	0x30	48
48	0x81	-127
49	0x00	0
50	0x00	0
51	0x00	0
52	0x20	32
53	0x00	0
54	0x00	0
55	0x00	0
56	0x00	0
57	0xcc	-52
58	0x49	73
59	0x00	0
60	0x00	0
61	0x49	73
62	0x00	0
63	0x81	-127
64	0x00	0
65	0x7f	127
66	0x00	0
67	0x63	99
68	0x00	0
69	0x47	71
70	0x00	0
71	0x47	71
72	0x00	0
73	0xd6	-42
74	0xd6	-42
75	0x81	-127
76	0x00	0
77	0x81	-127
78	0x00	0
79	0xd6	-42
80	0x00	0
81	0xc5	-59
82	0x81	-127
83	0xb6	-74
84	0x00	0
85	0x4f	79
86	0x00	0
87	0x00	0
88	0x00	0
89	0x4f	79
90	0x78	120
91	0x2c	44
92	0x00	0
93	0x81	-127
94	0x00	0
95	0xe0	-32
96	0x00	0
97	0xbf	-65
98	0x00	0
99	0x00	0
100	0xd2	-46
101	0x00	0
102	0xbf	-65
103	0x81	-127
104	0x00	0
105	0x16	22
106	0x00	0
107	0x00	0
108	0x00	0
109	0x00	0
110	0x7f	127
111	0x8e	-114
112	0x1a	26
113	0x53	83
114	0x00	0
115	0x00	0
116	0xe8	-24
117	0x00	0
118	0x7f	127
119	0xaf	-81
120	0x00	0
121	0xbf	-65
122	0x5a	90
123	0x32	50
124	0x81	-127
125	0x00	0
126	0x32	50
127	0xd2	-46
128	0x5b	91
129	0x00	0
130	0xbf	-65
131	0x00	0
132	0x7f	127
133	0x00	0
134	0xbf	-65
135	0x00	0
136	0x00	0
137	0x81	-127
138	0x51	81
139	0x20	32
140	0x00	0
141	0x00	0
142	0x00	0
143	0x20	32
144	0x00	0
145	0x00	0
146	0x00	0
147	0x00	0
148	0x9c	-100
149	0x00	0
150	0x7f	127
151	0x27	39
152	0x00	0
153	0x7f	127
154	0x00	0
155	0x7f	127
156	0x00	0
157	0x7f	127
158	0x00	0
159	0x33	51
160	0x00	0
161	0x49	73
162	0x00	0
163	0x00	0
164	0x66	102
165	0xcc	-52
166	0x81	-127
167	0xcc	-52
168	0x00	0
169	0x00	0
170	0x16	22
171	0x00	0
172	0xe4	-28
173	0x16	22
174	0x7f	127
175	0xc8	-56
176	0x00	0
177	0x00	0
178	0xcd	-51
179	0xdc	-36
180	0x27	39
181	0xdc	-36
182	0x7f	127
183	0xcd	-51
184	0x00	0
185	0x7f	127
186	0x8e	-114
187	0xec	-20
188	0x00	0
189	0x27	39
190	0x00	0
191	0x00	0
192	0x7f	127
193	0x00	0
194	0x00	0
195	0x00	0
196	0x27	39
197	0x00	0
198	0x00	0
199	0x27	39
200	0x00	0
201	0x81	-127
202	0xe9	-23
203	0xc2	-62
204	0x00	0
205	0xe9	-23
206	0x00	0
207	0x00	0
208	0x20	32
209	0x00	0
210	0x00	0
211	0x00	0
212	0x81	-127
213	0x00	0
214	0x3a	58
215	0xd6	-42
216	0x00	0
217	0x00	0
218	0x00	0
219	0x00	0
220	0xd0	-48
221	0x00	0
222	0x81	-127
223	0x22	34
224	0x00	0
225	0x00	0
226	0x00	0
227	0x00	0
228	0x69	105
229	0x00	0
230	0x81	-127
231	0x51	81
232	0x18	24
233	0x00	0
234	0x18	24
235	0x00	0
236	0x81	-127
237	0x00	0
238	0xc2	-62
239	0x00	0
240	0x81	-127
241	0x00	0
242	0x00	0
243	0x00	0
244	0x00	0
245	0x00	0
246	0x00	0
247	0x00	0
248	0x00	0
249	0xbf	-65
250	0x00	0
251	0x81	-127
252	0xbf	-65
253	0xd2	-46
254	0xbf	-65
255	0xbf	-65

mushroom_mobilenet_v2/quant_block_2_depthwise/depthwise;mushroom_mobilenet_v2/quant_block_2_depthwise/LastValueQuant/FakeQuantWithMinMaxVarsPerChannel i1 [1, 3, 3, 48]
0	0x07	7
1	0xcc	-52
2	0x38	56
3	0xce	-50
4	0xfb	-5
5	0x03	3
6	0x00	0
7	0x29	41
8	0x0d	13
9	0xeb	-21
10	0xe8	-24
11	0x00	0
12	0xe4	-28
13	0xfa	-6
14	0x17	23
15	0x02	2
16	0xd2	-46
17	0x01	1
18	0xf4	-12
19	0xf2	-14
20	0xf8	-8
21	0x28	40
22	0x09	9
23	0x0c	12
24	0x12	18
25	0x0d	13
26	0x04	4
27	0xfb	-5
28	0x0b	11
29	0xf2	-14
30	0xd4	-44
31	0x15	21
32	0xfd	-3
33	0xf2	-14
34	0xfb	-5
35	0x01	1
36	0x1d	29
37	0x22	34
38	0x12	18
39	0x12	18
40	0xd9	-39
41	0x05	5
42	0x28	40
43	0xfa	-6
44	0xf5	-11
45	0x04	4
46	0x04	4
47	0xe9	-23
48	0xee	-18
49	0x15	21
50	0xc1	-63
51	0x3e	62
52	0x17	23
53	0xec	-20
54	0x29	41
55	0x0c	12
56	0xfb	-5
57	0xe8	-24
58	0xef	-17
59	0xfe	-2
60	0xe6	-26
61	0x01	1
62	0x08	8
63	0x05	5
64	0x2d	45
65	0xda	-38
66	0xfd	-3
67	0x16	22
68	0xe2	-30
69	0x0b	11
70	0xe1	-31
71	0xe7	-25
72	0xe9	-23
73	0x29	41
74	0xf9	-7
75	0x26	38
76	0x28	40
77	0xb1	-79
78	0x31	49
79	0x2f	47
80	0x32	50
81	0xde	-34
82	0x0f	15
83	0x2a	42
84	0xf1	-15
85	0x21	33
86	0xcb	-53
87	0xee	-18
88	0x22	34
89	0x23	35
90	0xc8	-56
91	0xd6	-42
92	0xd5	-43
93	0xee	-18
94	0xea	-22
95	0xd3	-45
96	0x0b	11
97	0x09	9
98	0xf1	-15
99	0x0d	13
100	0x01	1
101	0x07	7
102	0x14	20
103	0xf9	-7
104	0x09	9
105	0xf6	-10
106	0xf6	-10
107	0xfd	-3
108	0xfd	-3
109	0xfc	-4
110	0xfe	-2
111	0x03	3
112	0x0b	11
113	0x0d	13
114	0xf9	-7
115	0xf0	-16
116	0xfe	-2
117	0x13	19
118	0xf7	-9
119	0x0b	11
120	0x09	9
121	0x04	4
122	0xfe	-2
123	0xff	-1
124	0xff	-1
125	0xfe	-2
126	0x08	8
127	0x0c	12
128	0xdb	-37
129	0xf5	-11
130	0xfc	-4
131	0xf1	-15
132	0x0c	12
133	0x0b	11
134	0x03	3
135	0xf6	-10
136	0x07	7
137	0xf7	-9
138	0x01	1
139	0xe7	-25
140	0xff	-1
141	0x01	1
142	0x02	2
143	0xf7	-9
144	0x06	6
145	0x1e	30
146	0xc3	-61
147	0x2a	42
148	0x10	16
149	0xfe	-2
150	0xf9	-7
151	0x09	9
152	0xe8	-24
153	0x13	19
154	0xee	-18
155	0xfc	-4
156	0x1d	29
157	0xe9	-23
158	0x2d	45
159	0x0c	12
160	0x22	34
161	0x0e	14
162	0xe7	-25
163	0xe9	-23
164	0xe1	-31
165	0xe9	-23
166	0x23	35
167	0xd7	-41
168	0x13	19
169	0xee	-18
170	0xf2	-14
171	0xc1	-63
172	0x32	50
173	0x03	3
174	0x25	37
175	0x07	7
176	0x0b	11
177	0x13	19
178	0x14	20
179	0x21	33
180	0x13	19
181	0xeb	-21
182	0xc7	-57
183	0xf6	-10
184	0x2e	46
185	0xfc	-4
186	0xd9	-39
187	0x0a	10
188	0xf4	-12
189	0x21	33
190	0x40	64
191	0x03	3
192	0xbd	-67
193	0xe3	-29
194	0x18	24
195	0xf8	-8
196	0xb4	-76
197	0xc3	-61
198	0xd3	-45
199	0xdb	-37
200	0x28	40
201	0x7f	127
202	0x1d	29
203	0xa0	-96
204	0x27	39
205	0x59	89
206	0xdc	-36
207	0xda	-38
208	0xe2	-30
209	0xa3	-93
210	0x37	55
211	0x2e	46
212	0x46	70
213	0xce	-50
214	0x04	4
215	0xe2	-30
216	0xdf	-33
217	0x0a	10
218	0x1b	27
219	0xe6	-26
220	0xe0	-32
221	0x42	66
222	0xd9	-39
223	0xe3	-29
224	0xc6	-58
225	0x3f	63
226	0xb5	-75
227	0x9c	-100
228	0x93	-109
229	0xdd	-35
230	0x38	56
231	0x0c	12
232	0xd2	-46
233	0xbf	-65
234	0x35	53
235	0x29	41
236	0x48	72
237	0xd7	-41
238	0xe7	-25
239	0x40	64
240	0x10	16
241	0xfd	-3
242	0x0c	12
243	0xec	-20
244	0x26	38
245	0x00	0
246	0xe3	-29
247	0xfd	-3
248	0xfe	-2
249	0xf2	-14
250	0xf5	-11
251	0x26	38
252	0x1a	26
253	0xf3	-13
254	0xfd	-3
255	0xf4	-12

mushroom_mobilenet_v2/quant_block_2_project/Conv2D;mushroom_mobilenet_v2/quant_block_2_project/LastValueQuant/FakeQuantWithMinMaxVarsPerChannel i1 [8, 1, 1, 48]
0	0x00	0
1	0x00	0
2	0x00	0
3	0x00	0
4	0x00	0
5	0x00	0
6	0x00	0
7	0x00	0
8	0x00	0
9	0x00	0
10	0x00	0
11	0x00	0
12	0x00	0
13	0x0d	13
14	0xf4	-12
15	0xf4	-12
16	0x00	0
17	0x00	0
18	0x19	25
19	0x00	0
20	0x00	0
21	0x0d	13
22	0x00	0
23	0x00	0
24	0x00	0
25	0x00	0
26	0x00	0
27	0xed	-19
28	0x00	0
29	0x11	17
30	0x00	0
31	0xf4	-12
32	0x00	0
33	0x00	0
34	0x11	17
35	0x0d	13
36	0x00	0
37	0x00	0
38	0x81	-127
39	0x11	17
40	0x00	0
41	0x00	0
42	0x00	0
43	0x00	0
44	0x23	35
45	0x00	0
46	0x11	17
47	0xed	-19
48	0xcb	-53
49	0x00	0
50	0x00	0
51	0x00	0
52	0x54	84
53	0xa6	-90
54	0x29	41
55	0x00	0
56	0xa6	-90
57	0xe0	-32
58	0x00	0
59	0xe0	-32
60	0x1c	28
61	0xcb	-53
62	0x1c	28
63	0x00	0
64	0x00	0
65	0x74	116
66	0x00	0
67	0x1c	28
68	0x3a	58
69	0x00	0
70	0x00	0
71	0xa6	-90
72	0x00	0
73	0x3a	58
74	0xec	-20
75	0x00	0
76	0x15	21
77	0xe0	-32
78	0x00	0
79	0xe0	-32
80	0x00	0
81	0xe0	-32
82	0xec	-20
83	0x74	116
84	0x81	-127
85	0x15	21
86	0x00	0
87	0x00	0
88	0x00	0
89	0x29	41
90	0x00	0
91	0x29	41
92	0xe0	-32
93	0xe0	-32
94	0x00	0
95	0x00	0
96	0x00	0
97	0x00	0
98	0xe4	-28
99	0x00	0
100	0x00	0
101	0xd4	-44
102	0x39	57
103	0x39	57
104	0xd4	-44
105	0x00	0
106	0x76	118
107	0xa8	-88
108	0x39	57
109	0x00	0
110	0x00	0
111	0x00	0
112	0xb5	-75
113	0xa8	-88
114	0x27	39
115	0x76	118
116	0x81	-127
117	0x39	57
118	0xd4	-44
119	0x51	81
120	0x51	81
121	0xa8	-88
122	0x39	57
123	0x00	0
124	0x00	0
125	0x00	0
126	0xd4	-44
127	0x00	0
128	0xd4	-44
129	0x76	118
130	0x81	-127
131	0x00	0
132	0x00	0
133	0x39	57
134	0x00	0
135	0x00	0
136	0xd4	-44
137	0x00	0
138	0xb5	-75
139	0x51	81
140	0x00	0
141	0x51	81
142	0xd4	-44
143	0x1d	29
144	0xe9	-23
145	0x00	0
146	0xf1	-15
147	0x00	0
148	0x00	0
149	0xbd	-67
150	0x1e	30
151	0x0f	15
152	0xd9	-39
153	0xd2	-46
154	0x1e	30
155	0x00	0
156	0x15	21
157	0x00	0
158	0x00	0
159	0x00	0
160	0xf1	-15
161	0x00	0
162	0x00	0
163	0x2b	43
164	0xd2	-46
165	0x00	0
166	0x00	0
167	0x00	0
168	0x00	0
169	0x00	0
170	0x0f	15
171	0x00	0
172	0xf1	-15
173	0xf1	-15
174	0xe9	-23
175	0x00	0
176	0xf1	-15
177	0x1e	30
178	0x7f	127
179	0xbd	-67
180	0x00	0
181	0x00	0
182	0x00	0
183	0x00	0
184	0xe9	-23
185	0x00	0
186	0xf1	-15
187	0x1e	30
188	0x0f	15
189	0x00	0
190	0x00	0
191	0x00	0
192	0x00	0
193	0x00	0
194	0x1c	28
195	0xe0	-32
196	0x1c	28
197	0x00	0
198	0x00	0
199	0x1c	28
200	0x00	0
201	0x00	0
202	0x00	0
203	0x00	0
204	0x00	0
205	0x00	0
206	0x54	84
207	0x29	41
208	0x00	0
209	0x00	0
210	0xc1	-63
211	0xec	-20
212	0x3a	58
213	0xcb	-53
214	0x1c	28
215	0x1c	28
216	0x00	0
217	0x00	0
218	0xc1	-63
219	0x1c	28
220	0x81	-127
221	0xc1	-63
222	0x00	0
223	0x54	84
224	0x00	0
225	0xec	-20
226	0x1c	28
227	0x00	0
228	0xe0	-32
229	0x00	0
230	0xec	-20
231	0xa6	-90
232	0x00	0
233	0xec	-20
234	0x00	0
235	0x00	0
236	0x81	-127
237	0x00	0
238	0xec	-20
239	0x54	84
240	0xf0	-16
241	0x00	0
242	0x0e	14
243	0xf6	-10
244	0x00	0
245	0xe5	-27
246	0x00	0
247	0x00	0
248	0xf0	-16
249	0xd2	-46
250	0xf0	-16
251	0x2b	43
252	0xf0	-16
253	0x15	21
254	0x0b	11
255	0x00	0

mushroom_mobilenet_v2/quant_block_3_expand/Conv2D;mushroom_mobilenet_v2/quant_block_3_expand/LastValueQuant/FakeQuantWithMinMaxVarsPerChannel i1 [48, 1, 1, 8]
0	0x00	0
1	0xdf	-33
2	0xb0	-80
3	0x7f	127
4	0x00	0
5	0xcd	-51
6	0x00	0
7	0x00	0
8	0x00	0
9	0x7f	127
10	0xb5	-75
11	0xca	-54
12	0x00	0
13	0xca	-54
14	0x00	0
15	0xd9	-39
16	0x88	-120
17	0x00	0
18	0x2b	43
19	0xd8	-40
20	0x7f	127
21	0x00	0
22	0x00	0
23	0x00	0
24	0x00	0
25	0x14	20
26	0xed	-19
27	0xe3	-29
28	0xe3	-29
29	0xd3	-45
30	0x14	20
31	0x7f	127
32	0x7f	127
33	0x00	0
34	0xed	-19
35	0x00	0
36	0xc8	-56
37	0xed	-19
38	0x00	0
39	0x00	0
40	0x00	0
41	0x00	0
42	0x00	0
43	0x00	0
44	0x5c	92
45	0xcc	-52
46	0x81	-127
47	0x5c	92
48	0x00	0
49	0x00	0
50	0xd6	-42
51	0x00	0
52	0xa4	-92
53	0x00	0
54	0x81	-127
55	0x99	-103
56	0x00	0
57	0x00	0
58	0xd6	-42
59	0x00	0
60	0x61	97
61	0x00	0
62	0x81	-127
63	0x4b	75
64	0x00	0
65	0x00	0
66	0x00	0
67	0x00	0
68	0xa9	-87
69	0x2b	43
70	0x7f	127
71	0x88	-120
72	0x00	0
73	0x00	0
74	0x00	0
75	0x00	0
76	0x81	-127
77	0x00	0
78	0x81	-127
79	0x81	-127
80	0xa4	-92
81	0x00	0
82	0x00	0
83	0x00	0
84	0x81	-127
85	0x00	0
86	0x00	0
87	0x00	0
88	0x7f	127
89	0x00	0
90	0xed	-19
91	0x14	20
92	0x3b	59
93	0x00	0
94	0x00	0
95	0x14	20
96	0xb3	-77
97	0x00	0
98	0x00	0
99	0x00	0
100	0x81	-127
101	0x00	0
102	0x00	0
103	0xe0	-32
104	0x00	0
105	0x81	-127
106	0x00	0
107	0xd6	-42
108	0xd6	-42
109	0x00	0
110	0x00	0
111	0x00	0
112	0x00	0
113	0x7f	127
114	0xa9	-87
115	0x00	0
116	0x00	0
117	0x2b	43
118	0x00	0
119	0x00	0
120	0x38	56
121	0x00	0
122	0x38	56
123	0x00	0
124	0x8f	-113
125	0x38	56
126	0x77	119
127	0x81	-127
128	0x00	0
129	0xca	-54
130	0x7f	127
131	0x2d	45
132	0x00	0
133	0xc3	-61
134	0x00	0
135	0x00	0
136	0x00	0
137	0x00	0
138	0x00	0
139	0x00	0
140	0x7f	127
141	0x00	0
142	0x00	0
143	0x00	0
144	0xd8	-40
145	0x00	0
146	0xd8	-40
147	0x00	0
148	0x7f	127
149	0x00	0
150	0x7f	127
151	0x2b	43
152	0x00	0
153	0x7f	127
154	0x00	0
155	0x7f	127
156	0xb9	-71
157	0x7f	127
158	0x00	0
159	0x4d	77
160	0x24	36
161	0xb8	-72
162	0x00	0
163	0x00	0
164	0x81	-127
165	0x69	105
166	0x00	0
167	0x4c	76
168	0x47	71
169	0x00	0
170	0x00	0
171	0x00	0
172	0x7f	127
173	0x00	0
174	0x00	0
175	0x21	33
176	0x00	0
177	0x81	-127
178	0x16	22
179	0xcf	-49
180	0x16	22
181	0xc4	-60
182	0x00	0
183	0x00	0
184	0x00	0
185	0x40	64
186	0x16	22
187	0xec	-20
188	0x24	36
189	0x81	-127
190	0x00	0
191	0xb3	-77
192	0x00	0
193	0x00	0
194	0x00	0
195	0x00	0
196	0x00	0
197	0x00	0
198	0x7f	127
199	0x24	36
200	0xc8	-56
201	0x00	0
202	0x00	0
203	0x00	0
204	0x7f	127
205	0x00	0
206	0x00	0
207	0x00	0
208	0x81	-127
209	0x00	0
210	0x00	0
211	0x00	0
212	0x00	0
213	0x00	0
214	0x00	0
215	0x00	0
216	0xcc	-52
217	0xb8	-72
218	0x24	36
219	0x3b	59
220	0x7f	127
221	0x6a	106
222	0x00	0
223	0x24	36
224	0xdf	-33
225	0xaf	-81
226	0x24	36
227	0x4c	76
228	0x7f	127
229	0x6a	106
230	0x00	0
231	0x3b	59
232	0x00	0
233	0x7f	127
234	0x3c	60
235	0x7f	127
236	0xc8	-56
237	0x63	99
238	0x00	0
239	0x00	0
240	0xcc	-52
241	0x00	0
242	0x00	0
243	0x00	0
244	0x7f	127
245	0x24	36
246	0x00	0
247	0x00	0
248	0x7f	127
249	0x2d	45
250	0x2d	45
251	0xa0	-96
252	0x00	0
253	0x1b	27
254	0x00	0
255	0x00	0

mushroom_mobilenet_v2/quant_block_3_depthwise/depthwise;mushroom_mobilenet_v2/quant_block_3_depthwise/LastValueQuant/FakeQuantWithMinMaxVarsPerChannel i1 [1, 3, 3, 48]
0	0x1d	29
1	0xc2	-62
2	0xd9	-39
3	0x29	41
4	0xd9	-39
5	0xf8	-8
6	0x12	18
7	0xf2	-14
8	0x23	35
9	0xda	-38
10	0x3d	61
11	0x35	53
12	0x29	41
13	0xa9	-87
14	0xcd	-51
15	0xf5	-11
16	0xd3	-45
17	0x3e	62
18	0x17	23
19	0x41	65
20	0x3a	58
21	0x2a	42
22	0x31	49
23	0x25	37
24	0xef	-17
25	0x26	38
26	0xbe	-66
27	0x34	52
28	0xdb	-37
29	0xc7	-57
30	0xbd	-67
31	0x3e	62
32	0x1e	30
33	0xdb	-37
34	0x34	52
35	0x04	4
36	0xcd	-51
37	0x28	40
38	0xe1	-31
39	0x28	40
40	0x1b	27
41	0xb8	-72
42	0x00	0
43	0xce	-50
44	0x39	57
45	0xda	-38
46	0x23	35
47	0x28	40
48	0x2f	47
49	0xb8	-72
50	0xca	-54
51	0x41	65
52	0xc4	-60
53	0xe0	-32
54	0x37	55
55	0xdc	-36
56	0x32	50
57	0xd9	-39
58	0x47	71
59	0x46	70
60	0x3d	61
61	0x1e	30
62	0xb9	-71
63	0xd8	-40
64	0xc6	-58
65	0xfc	-4
66	0x34	52
67	0x59	89
68	0x4d	77
69	0x43	67
70	0x49	73
71	0x3a	58
72	0xdb	-37
73	0x0d	13
74	0xa7	-89
75	0x43	67
76	0xd0	-48
77	0xfc	-4
78	0x50	80
79	0x5b	91
80	0x31	49
81	0xe2	-30
82	0x53	83
83	0xba	-70
84	0xc0	-64
85	0x3a	58
86	0x44	68
87	0x47	71
88	0x31	49
89	0x07	7
90	0x0a	10
91	0x91	-111
92	0x03	3
93	0xde	-34
94	0x35	53
95	0x36	54
96	0x1b	27
97	0xe6	-26
98	0xe2	-30
99	0x18	24
100	0xe6	-26
101	0xe5	-27
102	0x28	40
103	0xe1	-31
104	0x15	21
105	0xf6	-10
106	0x29	41
107	0x22	34
108	0x1b	27
109	0x2b	43
110	0xc9	-55
111	0xd9	-39
112	0xee	-18
113	0xd6	-42
114	0x24	36
115	0x30	48
116	0x21	33
117	0x1a	26
118	0x1b	27
119	0x1f	31
120	0xe5	-27
121	0xf3	-13
122	0xcc	-52
123	0x18	24
124	0xe7	-25
125	0x3d	61
126	0xfd	-3
127	0x29	41
128	0x17	23
129	0xf8	-8
130	0x2b	43
131	0x3e	62
132	0xdc	-36
133	0x1e	30
134	0xe4	-28
135	0x1b	27
136	0x1b	27
137	0x28	40
138	0xfa	-6
139	0xbd	-67
140	0xc7	-57
141	0xf8	-8
142	0x13	19
143	0x1a	26
144	0x32	50
145	0xb3	-77
146	0xcc	-52
147	0x39	57
148	0xbf	-65
149	0xe7	-25
150	0x36	54
151	0xdc	-36
152	0x2f	47
153	0xdc	-36
154	0xfc	-4
155	0x4b	75
156	0x4a	74
157	0x81	-127
158	0x0a	10
159	0xdd	-35
160	0xc0	-64
161	0x4e	78
162	0x36	54
163	0xea	-22
164	0x45	69
165	0x47	71
166	0x4c	76
167	0x3a	58
168	0xdb	-37
169	0xb8	-72
170	0x0f	15
171	0x44	68
172	0xcd	-51
173	0xb4	-76
174	0x90	-112
175	0x4a	74
176	0x3b	59
177	0xe5	-27
178	0x50	80
179	0x08	8
180	0xc3	-61
181	0x3a	58
182	0xd8	-40
183	0x44	68
184	0x30	48
185	0xab	-85
186	0xcc	-52
187	0x20	32
188	0x53	83
189	0xda	-38
190	0x2f	47
191	0x46	70
192	0x59	89
193	0xae	-82
194	0xb8	-72
195	0x68	104
196	0x96	-106
197	0xc5	-59
198	0x57	87
199	0xb9	-71
200	0x54	84
201	0xba	-70
202	0x02	2
203	0x61	97
204	0x6d	109
205	0x2b	43
206	0x0e	14
207	0xc5	-59
208	0xbf	-65
209	0xf5	-11
210	0x59	89
211	0xe3	-29
212	0x62	98
213	0x6f	111
214	0x74	116
215	0x67	103
216	0xc6	-58
217	0xf2	-14
218	0x06	6
219	0x5f	95
220	0xc0	-64
221	0xf9	-7
222	0x78	120
223	0x74	116
224	0x5a	90
225	0xce	-50
226	0x7e	126
227	0x94	-108
228	0xb4	-76
229	0x55	85
230	0x67	103
231	0x7f	127
232	0x50	80
233	0x1e	30
234	0x9d	-99
235	0x69	105
236	0x06	6
237	0xc0	-64
238	0x5d	93
239	0x6c	108
240	0x38	56
241	0xe9	-23
242	0xdc	-36
243	0x2d	45
244	0xcc	-52
245	0xe0	-32
246	0x30	48
247	0xd4	-44
248	0x39	57
249	0xd5	-43
250	0x02	2
251	0x2f	47
252	0x36	54
253	0x33	51
254	0x09	9
255	0xda	-38

mushroom_mobilenet_v2/quant_block_3_project/Conv2D;mushroom_mobilenet_v2/quant_block_3_project/LastValueQuant/FakeQuantWithMinMaxVarsPerChannel i1 [16, 1, 1, 48]
0	0x00	0
1	0x16	22
2	0x00	0
3	0xd1	-47
4	0x00	0
5	0x00	0
6	0xed	-19
7	0x00	0
8	0xed	-19
9	0x00	0
10	0x00	0
11	0x16	22
12	0x00	0
13	0x30	48
14	0x00	0
15	0x00	0
16	0x21	33
17	0xed	-19
18	0xd1	-47
19	0x00	0
20	0x30	48
21	0xed	-19
22	0x7f	127
23	0xed	-19
24	0xe2	-30
25	0x00	0
26	0x00	0
27	0xed	-19
28	0x16	22
29	0x16	22
30	0xe2	-30
31	0x00	0
32	0x00	0
33	0x00	0
34	0x7f	127
35	0xed	-19
36	0x57	87
37	0x00	0
38	0x16	22
39	0x30	48
40	0x00	0
41	0x00	0
42	0x00	0
43	0x00	0
44	0x00	0
45	0x21	33
46	0xe2	-30
47	0xed	-19
48	0x16	22
49	0x00	0
50	0x00	0
51	0xd1	-47
52	0x00	0
53	0x00	0
54	0x00	0
55	0x00	0
56	0x00	0
57	0x00	0
58	0x16	22
59	0x7f	127
60	0x57	87
61	0x00	0
62	0x00	0
63	0x00	0
64	0xed	-19
65	0x00	0
66	0x00	0
67	0x00	0
68	0xed	-19
69	0xd1	-47
70	0xed	-19
71	0x00	0
72	0x00	0
73	0x00	0
74	0x00	0
75	0x16	22
76	0xe2	-30
77	0x00	0
78	0x00	0
79	0x90	-112
80	0x00	0
81	0x00	0
82	0x00	0
83	0x00	0
84	0x00	0
85	0x7f	127
86	0xed	-19
87	0xed	-19
88	0x16	22
89	0x00	0
90	0x00	0
91	0x00	0
92	0x00	0
93	0x00	0
94	0x00	0
95	0xe2	-30
96	0xe8	-24
97	0x00	0
98	0x2a	42
99	0x1c	28
100	0x2a	42
101	0x00	0
102	0x55	85
103	0x2a	42
104	0x9b	-101
105	0xda	-38
106	0x3d	61
107	0x00	0
108	0x3d	61
109	0xda	-38
110	0x3d	61
111	0x3d	61
112	0xe8	-24
113	0xda	-38
114	0x7f	127
115	0x2a	42
116	0xe8	-24
117	0x1c	28
118	0x1c	28
119	0x00	0
120	0x00	0
121	0x2a	42
122	0x3d	61
123	0x00	0
124	0xe8	-24
125	0x00	0
126	0xc4	-60
127	0x1c	28
128	0xaa	-86
129	0xe8	-24
130	0x00	0
131	0xc4	-60
132	0x1c	28
133	0xda	-38
134	0xda	-38
135	0x1c	28
136	0xc4	-60
137	0xda	-38
138	0x2a	42
139	0x3d	61
140	0xc4	-60
141	0xc4	-60
142	0xaa	-86
143	0x00	0
144	0xe8	-24
145	0x7f	127
146	0x00	0
147	0x2a	42
148	0xda	-38
149	0x00	0
150	0x00	0
151	0x00	0
152	0x00	0
153	0x00	0
154	0x00	0
155	0x00	0
156	0x1c	28
157	0x55	85
158	0x00	0
159	0x00	0
160	0x55	85
161	0x3d	61
162	0x00	0
163	0x2a	42
164	0xaa	-86
165	0xe8	-24
166	0x00	0
167	0xc4	-60
168	0x00	0
169	0xe8	-24
170	0x1c	28
171	0x3d	61
172	0xaa	-86
173	0x3d	61
174	0x55	85
175	0x00	0
176	0xda	-38
177	0x00	0
178	0x00	0
179	0x55	85
180	0x00	0
181	0x00	0
182	0x2a	42
183	0xaa	-86
184	0x2a	42
185	0x3d	61
186	0x00	0
187	0x00	0
188	0x2a	42
189	0x00	0
190	0x00	0
191	0x3d	61
192	0x00	0
193	0x37	55
194	0x00	0
195	0xa5	-91
196	0x00	0
197	0x00	0
198	0x00	0
199	0x00	0
200	0x00	0
201	0xdd	-35
202	0x00	0
203	0xdd	-35
204	0x00	0
205	0x00	0
206	0x00	0
207	0xeb	-21
208	0x19	25
209	0x25	37
210	0x00	0
211	0x00	0
212	0x72	114
213	0x25	37
214	0x19	25
215	0x00	0
216	0x00	0
217	0x19	25
218	0x00	0
219	0x81	-127
220	0x72	114
221	0x00	0
222	0x00	0
223	0x00	0
224	0x00	0
225	0x00	0
226	0xb3	-77
227	0x00	0
228	0x00	0
229	0x00	0
230	0x00	0
231	0xdd	-35
232	0x4d	77
233	0x00	0
234	0x25	37
235	0x37	55
236	0x00	0
237	0x00	0
238	0x00	0
239	0x00	0
240	0x00	0
241	0xcb	-53
242	0x00	0
243	0x00	0
244	0xec	-20
245	0x00	0
246	0x00	0
247	0x00	0
248	0x0f	15
249	0xf4	-12
250	0x0f	15
251	0x00	0
252	0x0f	15
253	0x0f	15
254	0x20	32
255	0xf4	-12

mushroom_mobilenet_v2/quant_block_4_expand/Conv2D;mushroom_mobilenet_v2/quant_block_4_expand/LastValueQuant/FakeQuantWithMinMaxVarsPerChannel i1 [96, 1, 1, 16]
0	0x1d	29
1	0x00	0
2	0x62	98
3	0x00	0
4	0x00	0
5	0x00	0
6	0x96	-106
7	0x81	-127
8	0x38	56
9	0xe4	-28
10	0x48	72
11	0xd3	-45
12	0x00	0
13	0x00	0
14	0x00	0
15	0x00	0
16	0x48	72
17	0x00	0
18	0x00	0
19	0x34	52
20	0x00	0
21	0x00	0
22	0x00	0
23	0x00	0
24	0x81	-127
25	0x00	0
26	0x00	0
27	0x00	0
28	0x34	52
29	0x34	52
30	0x48	72
31	0x00	0
32	0x9d	-99
33	0x00	0
34	0x41	65
35	0x9d	-99
36	0x00	0
37	0x00	0
38	0xc1	-63
39	0xc1	-63
40	0x7d	125
41	0x00	0
42	0x00	0
43	0x81	-127
44	0x00	0
45	0x00	0
46	0x5b	91
47	0x5b	91
48	0x7f	127
49	0x00	0
50	0x00	0
51	0x00	0
52	0x00	0
53	0x00	0
54	0x00	0
55	0x64	100
56	0x00	0
57	0x49	73
58	0x49	73
59	0xce	-50
60	0x00	0
61	0x00	0
62	0x64	100
63	0xb1	-79
64	0x1f	31
65	0x1f	31
66	0xe2	-30
67	0x1f	31
68	0x00	0
69	0x00	0
70	0xe2	-30
71	0xe2	-30
72	0xe2	-30
73	0x00	0
74	0x00	0
75	0x7f	127
76	0xe2	-30
77	0x1f	31
78	0x2b	43
79	0x2b	43
80	0x2a	42
81	0x00	0
82	0x81	-127
83	0x00	0
84	0xd8	-40
85	0x3a	58
86	0xae	-82
87	0x81	-127
88	0xc0	-64
89	0x00	0
90	0x99	-103
91	0x50	80
92	0x00	0
93	0x81	-127
94	0xc0	-64
95	0x66	102
96	0x7f	127
97	0x00	0
98	0x00	0
99	0x00	0
100	0x00	0
101	0xb1	-79
102	0x00	0
103	0x00	0
104	0xb1	-79
105	0x00	0
106	0x00	0
107	0x9a	-102
108	0x00	0
109	0x00	0
110	0xb1	-79
111	0x64	100
112	0x00	0
113	0x00	0
114	0xee	-18
115	0x00	0
116	0x00	0
117	0x00	0
118	0x00	0
119	0xe3	-29
120	0x13	19
121	0x13	19
122	0x00	0
123	0x00	0
124	0x1a	26
125	0x7f	127
126	0x00	0
127	0x00	0
128	0x7f	127
129	0x00	0
130	0x00	0
131	0x00	0
132	0xe2	-30
133	0x00	0
134	0x00	0
135	0x00	0
136	0x3b	59
137	0x1f	31
138	0x00	0
139	0x2b	43
140	0x00	0
141	0xe2	-30
142	0x1f	31
143	0x1f	31
144	0x00	0
145	0x00	0
146	0xa7	-89
147	0x00	0
148	0x00	0
149	0x38	56
150	0xd3	-45
151	0x81	-127
152	0xa7	-89
153	0x1d	29
154	0x96	-106
155	0x00	0
156	0xc7	-57
157	0xe4	-28
158	0x62	98
159	0x1d	29
160	0x23	35
161	0xcb	-53
162	0xbb	-69
163	0x43	67
164	0x00	0
165	0xaa	-86
166	0xde	-34
167	0x00	0
168	0x00	0
169	0xcb	-53
170	0x56	86
171	0x43	67
172	0x00	0
173	0x00	0
174	0x00	0
175	0x81	-127
176	0x00	0
177	0x00	0
178	0xe3	-29
179	0x00	0
180	0x00	0
181	0x00	0
182	0x00	0
183	0xe3	-29
184	0xee	-18
185	0x13	19
186	0xe3	-29
187	0x00	0
188	0x7f	127
189	0xe3	-29
190	0x13	19
191	0x00	0
192	0x81	-127
193	0xce	-50
194	0x00	0
195	0x00	0
196	0x00	0
197	0x00	0
198	0xce	-50
199	0x00	0
200	0xce	-50
201	0x34	52
202	0xce	-50
203	0x9b	-101
204	0x00	0
205	0x00	0
206	0x81	-127
207	0xb1	-79
208	0x00	0
209	0xcb	-53
210	0x00	0
211	0x00	0
212	0x00	0
213	0x00	0
214	0x00	0
215	0x31	49
216	0x23	35
217	0x00	0
218	0x00	0
219	0xaa	-86
220	0x00	0
221	0x00	0
222	0x56	86
223	0x81	-127
224	0xd8	-40
225	0xd8	-40
226	0x00	0
227	0xd8	-40
228	0x2a	42
229	0x00	0
230	0x00	0
231	0x00	0
232	0x00	0
233	0x00	0
234	0xc0	-64
235	0x50	80
236	0xd8	-40
237	0x2a	42
238	0x81	-127
239	0x50	80
240	0x8c	-116
241	0x00	0
242	0x00	0
243	0x00	0
244	0x00	0
245	0x49	73
246	0x00	0
247	0x00	0
248	0x5d	93
249	0x26	38
250	0x00	0
251	0xdb	-37
252	0x00	0
253	0x00	0
254	0x26	38
255	0x7f	127

mushroom_mobilenet_v2/quant_block_4_depthwise/depthwise;mushroom_mobilenet_v2/quant_block_4_depthwise/LastValueQuant/FakeQuantWithMinMaxVarsPerChannel i1 [1, 3, 3, 96]
0	0x1e	30
1	0xfe	-2
2	0xdc	-36
3	0xfc	-4
4	0x00	0
5	0x02	2
6	0xef	-17
7	0x08	8
8	0x04	4
9	0xff	-1
10	0x04	4
11	0xfb	-5
12	0xf7	-9
13	0xef	-17
14	0x00	0
15	0xe7	-25
16	0x10	16
17	0x02	2
18	0xf0	-16
19	0x12	18
20	0xf4	-12
21	0x11	17
22	0xf5	-11
23	0x30	48
24	0xfb	-5
25	0xf9	-7
26	0x05	5
27	0x04	4
28	0x11	17
29	0xff	-1
30	0x11	17
31	0xf1	-15
32	0xf2	-14
33	0x1c	28
34	0x08	8
35	0x1c	28
36	0x0b	11
37	0x0e	14
38	0xfb	-5
39	0x00	0
40	0x0b	11
41	0xeb	-21
42	0x01	1
43	0x0c	12
44	0x04	4
45	0x01	1
46	0xf6	-10
47	0xf3	-13
48	0x03	3
49	0xfc	-4
50	0xdc	-36
51	0xff	-1
52	0x03	3
53	0xf4	-12
54	0x02	2
55	0xff	-1
56	0x05	5
57	0x12	18
58	0x01	1
59	0x0d	13
60	0xf3	-13
61	0xf6	-10
62	0xf3	-13
63	0xfb	-5
64	0xf4	-12
65	0x01	1
66	0xfe	-2
67	0x02	2
68	0xff	-1
69	0x05	5
70	0x0c	12
71	0x03	3
72	0x05	5
73	0xfe	-2
74	0x08	8
75	0x11	17
76	0x24	36
77	0xfc	-4
78	0xfe	-2
79	0xf4	-12
80	0xf5	-11
81	0x15	21
82	0x18	24
83	0xf6	-10
84	0x00	0
85	0xf8	-8
86	0x10	16
87	0x1d	29
88	0xf7	-9
89	0xf7	-9
90	0x04	4
91	0x05	5
92	0x12	18
93	0xfc	-4
94	0x0c	12
95	0x04	4
96	0xea	-22
97	0xf3	-13
98	0x04	4
99	0xf6	-10
100	0x16	22
101	0x01	1
102	0x06	6
103	0xfd	-3
104	0x24	36
105	0x06	6
106	0xc2	-62
107	0x01	1
108	0x22	34
109	0xe7	-25
110	0x07	7
111	0x25	37
112	0x2d	45
113	0xf5	-11
114	0xf4	-12
115	0xf5	-11
116	0x2e	46
117	0x25	37
118	0xef	-17
119	0x09	9
120	0xf0	-16
121	0x0c	12
122	0x09	9
123	0xdd	-35
124	0xe9	-23
125	0x0e	14
126	0x40	64
127	0xd9	-39
128	0x11	17
129	0xf7	-9
130	0x0f	15
131	0xfb	-5
132	0x0b	11
133	0xef	-17
134	0xe8	-24
135	0x0b	11
136	0xd7	-41
137	0xda	-38
138	0x00	0
139	0x23	35
140	0x00	0
141	0xe0	-32
142	0x02	2
143	0x0b	11
144	0x1c	28
145	0x12	18
146	0xea	-22
147	0x00	0
148	0xf3	-13
149	0xea	-22
150	0x09	9
151	0xfa	-6
152	0x17	23
153	0x10	16
154	0xf1	-15
155	0xe3	-29
156	0xdb	-37
157	0x00	0
158	0x0c	12
159	0xff	-1
160	0xdd	-35
161	0x22	34
162	0x0c	12
163	0xea	-22
164	0xe5	-27
165	0x09	9
166	0x45	69
167	0x07	7
168	0xde	-34
169	0xf1	-15
170	0xf9	-7
171	0xf5	-11
172	0x1f	31
173	0xfd	-3
174	0x25	37
175	0xe6	-26
176	0xc7	-57
177	0xff	-1
178	0xde	-34
179	0x01	1
180	0x09	9
181	0x1c	28
182	0xdb	-37
183	0x14	20
184	0xcb	-53
185	0x25	37
186	0x01	1
187	0x30	48
188	0x3a	58
189	0xff	-1
190	0x1e	30
191	0x09	9
192	0xe6	-26
193	0x00	0
194	0x1d	29
195	0xf5	-11
196	0x09	9
197	0x00	0
198	0x0a	10
199	0xf9	-7
200	0xfe	-2
201	0x02	2
202	0x03	3
203	0x00	0
204	0x1b	27
205	0xfa	-6
206	0x03	3
207	0xec	-20
208	0x0d	13
209	0x00	0
210	0xf2	-14
211	0xf7	-9
212	0xfd	-3
213	0x0f	15
214	0xf6	-10
215	0xea	-22
216	0xfb	-5
217	0x01	1
218	0xfa	-6
219	0x0c	12
220	0xff	-1
221	0xfc	-4
222	0x06	6
223	0xfd	-3
224	0x10	16
225	0xfb	-5
226	0xf2	-14
227	0xe0	-32
228	0x08	8
229	0xff	-1
230	0xfe	-2
231	0xfe	-2
232	0xfb	-5
233	0xea	-22
234	0x02	2
235	0x16	22
236	0x02	2
237	0xed	-19
238	0x01	1
239	0x00	0
240	0x08	8
241	0xf8	-8
242	0xd8	-40
243	0xfe	-2
244	0x02	2
245	0xfc	-4
246	0x03	3
247	0xfe	-2
248	0xf9	-7
249	0xfa	-6
250	0x01	1
251	0xec	-20
252	0xf5	-11
253	0x10	16
254	0x02	2
255	0xfb	-5

mushroom_mobilenet_v2/quant_block_4_project/Conv2D;mushroom_mobilenet_v2/quant_block_4_project/LastValueQuant/FakeQuantWithMinMaxVarsPerChannel i1 [16, 1, 1, 96]
0	0xdb	-37
1	0x61	97
2	0x00	0
3	0xb6	-74
4	0x00	0
5	0x00	0
6	0x2b	43
7	0xb6	-74
8	0x00	0
9	0x00	0
10	0x22	34
11	0x00	0
12	0x22	34
13	0x81	-127
14	0xc6	-58
15	0x2b	43
16	0x00	0
17	0xb6	-74
18	0x00	0
19	0x81	-127
20	0xc6	-58
21	0x00	0
22	0x00	0
23	0x00	0
24	0x00	0
25	0x00	0
26	0x00	0
27	0x00	0
28	0x00	0
29	0x00	0
30	0x2b	43
31	0x00	0
32	0x4b	75
33	0x00	0
34	0x00	0
35	0x00	0
36	0x22	34
37	0x3d	61
38	0x00	0
39	0x81	-127
40	0x00	0
41	0x00	0
42	0x00	0
43	0x00	0
44	0x2b	43
45	0x00	0
46	0x00	0
47	0x00	0
48	0x00	0
49	0x00	0
50	0x3d	61
51	0x2b	43
52	0x00	0
53	0xb6	-74
54	0x00	0
55	0x2b	43
56	0x00	0
57	0x00	0
58	0x00	0
59	0x00	0
60	0xb6	-74
61	0x00	0
62	0x00	0
63	0xdb	-37
64	0x00	0
65	0x00	0
66	0x00	0
67	0x00	0
68	0x00	0
69	0x00	0
70	0x61	97
71	0x81	-127
72	0x00	0
73	0x81	-127
74	0x81	-127
75	0x00	0
76	0x00	0
77	0x61	97
78	0x00	0
79	0x2b	43
80	0x00	0
81	0x81	-127
82	0x61	97
83	0xdb	-37
84	0xc6	-58
85	0x22	34
86	0x00	0
87	0x2b	43
88	0x00	0
89	0xc6	-58
90	0x00	0
91	0xb6	-74
92	0x81	-127
93	0x00	0
94	0xb6	-74
95	0x2b	43
96	0x00	0
97	0x00	0
98	0x00	0
99	0x19	25
100	0xe5	-27
101	0xca	-54
102	0x00	0
103	0x00	0
104	0x00	0
105	0xe5	-27
106	0x00	0
107	0x81	-127
108	0x19	25
109	0xca	-54
110	0x00	0
111	0x00	0
112	0x00	0
113	0x00	0
114	0x00	0
115	0x00	0
116	0xca	-54
117	0x00	0
118	0x00	0
119	0x00	0
120	0x00	0
121	0x00	0
122	0x00	0
123	0x00	0
124	0x00	0
125	0x00	0
126	0x00	0
127	0x20	32
128	0x00	0
129	0x00	0
130	0x2d	45
131	0x00	0
132	0x00	0
133	0xe5	-27
134	0x00	0
135	0x00	0
136	0x47	71
137	0x00	0
138	0xca	-54
139	0x37	55
140	0x00	0
141	0x00	0
142	0xca	-54
143	0x6c	108
144	0x20	32
145	0x2d	45
146	0x00	0
147	0x6c	108
148	0x81	-127
149	0x37	55
150	0x37	55
151	0x00	0
152	0x00	0
153	0x2d	45
154	0x00	0
155	0x37	55
156	0xd5	-43
157	0x00	0
158	0x00	0
159	0x00	0
160	0x20	32
161	0x00	0
162	0xe5	-27
163	0x00	0
164	0x00	0
165	0x00	0
166	0x00	0
167	0xca	-54
168	0x00	0
169	0xe5	-27
170	0x00	0
171	0xd5	-43
172	0xa3	-93
173	0xe5	-27
174	0x00	0
175	0x00	0
176	0x00	0
177	0xe5	-27
178	0x00	0
179	0x00	0
180	0xe5	-27
181	0x00	0
182	0x00	0
183	0xca	-54
184	0x37	55
185	0x00	0
186	0x37	55
187	0x19	25
188	0x00	0
189	0x00	0
190	0xe5	-27
191	0x20	32
192	0xd5	-43
193	0xe5	-27
194	0x2d	45
195	0x00	0
196	0xca	-54
197	0x00	0
198	0x00	0
199	0x00	0
200	0xa3	-93
201	0xe5	-27
202	0x00	0
203	0x00	0
204	0xa3	-93
205	0x00	0
206	0x00	0
207	0x00	0
208	0x19	25
209	0xe5	-27
210	0x00	0
211	0xca	-54
212	0x20	32
213	0x00	0
214	0x47	71
215	0x47	71
216	0x00	0
217	0x00	0
218	0xe5	-27
219	0x00	0
220	0x00	0
221	0x47	71
222	0x20	32
223	0x00	0
224	0xca	-54
225	0x37	55
226	0xd5	-43
227	0xca	-54
228	0x19	25
229	0xca	-54
230	0x19	25
231	0x20	32
232	0x2d	45
233	0xca	-54
234	0x00	0
235	0xa3	-93
236	0x00	0
237	0x00	0
238	0x00	0
239	0x19	25
240	0x2d	45
241	0x00	0
242	0x00	0
243	0x47	71
244	0x00	0
245	0x47	71
246	0x20	32
247	0x00	0
248	0x19	25
249	0x2d	45
250	0x00	0
251	0xca	-54
252	0x37	55
253	0x00	0
254	0xe5	-27
255	0x00	0

mushroom_mobilenet_v2/quant_block_5_expand/Conv2D;mushroom_mobilenet_v2/quant_block_5_expand/LastValueQuant/FakeQuantWithMinMaxVarsPerChannel i1 [96, 1, 1, 16]
0	0x00	0
1	0x00	0
2	0x00	0
3	0x00	0
4	0x2b	43
5	0x5c	92
6	0x2b	43
7	0xb3	-77
8	0x7f	127
9	0x00	0
10	0xc3	-61
11	0xd7	-41
12	0x00	0
13	0x00	0
14	0x00	0
15	0x00	0
16	0x7d	125
17	0x00	0
18	0xbc	-68
19	0x4a	74
20	0x00	0
21	0x81	-127
22	0xd2	-46
23	0x00	0
24	0xaa	-86
25	0x00	0
26	0x67	103
27	0x81	-127
28	0x00	0
29	0xbc	-68
30	0x00	0
31	0x00	0
32	0x3d	61
33	0x00	0
34	0x00	0
35	0x00	0
36	0x00	0
37	0x81	-127
38	0x81	-127
39	0xda	-38
40	0xc8	-56
41	0x00	0
42	0x3d	61
43	0xc8	-56
44	0x00	0
45	0x00	0
46	0x00	0
47	0x00	0
48	0x00	0
49	0x00	0
50	0x91	-111
51	0x00	0
52	0x00	0
53	0x00	0
54	0x7f	127
55	0x7f	127
56	0x00	0
57	0x00	0
58	0xcf	-49
59	0xdf	-33
60	0x00	0
61	0x00	0
62	0x00	0
63	0x00	0
64	0xbc	-68
65	0x4a	74
66	0x30	48
67	0x30	48
68	0x30	48
69	0x4a	74
70	0x00	0
71	0x00	0
72	0x67	103
73	0x00	0
74	0x81	-127
75	0x30	48
76	0x00	0
77	0xbc	-68
78	0x30	48
79	0xbc	-68
80	0x43	67
81	0x00	0
82	0x00	0
83	0x31	49
84	0x00	0
85	0x00	0
86	0x00	0
87	0x00	0
88	0x17	23
89	0x00	0
90	0xea	-22
91	0xb6	-74
92	0x00	0
93	0x00	0
94	0xe0	-32
95	0x7f	127
96	0x57	87
97	0x00	0
98	0x00	0
99	0x22	34
100	0x00	0
101	0xe0	-32
102	0x57	87
103	0xc4	-60
104	0x81	-127
105	0x00	0
106	0x00	0
107	0x00	0
108	0x00	0
109	0x00	0
110	0xc4	-60
111	0xe0	-32
112	0x00	0
113	0x30	48
114	0x30	48
115	0x00	0
116	0x00	0
117	0x30	48
118	0x00	0
119	0x30	48
120	0x81	-127
121	0x4a	74
122	0x4a	74
123	0x4a	74
124	0x00	0
125	0x30	48
126	0x4a	74
127	0x00	0
128	0x54	84
129	0x28	40
130	0x98	-104
131	0x00	0
132	0x00	0
133	0x81	-127
134	0x00	0
135	0x66	102
136	0xda	-38
137	0x00	0
138	0x00	0
139	0xc8	-56
140	0x00	0
141	0x00	0
142	0x00	0
143	0x00	0
144	0xb9	-71
145	0x00	0
146	0x00	0
147	0x3d	61
148	0x81	-127
149	0xda	-38
150	0xda	-38
151	0x00	0
152	0x00	0
153	0x00	0
154	0xc8	-56
155	0x28	40
156	0x00	0
157	0x00	0
158	0x98	-104
159	0x00	0
160	0xe0	-32
161	0x43	67
162	0xb6	-74
163	0xd7	-41
164	0x00	0
165	0x00	0
166	0xe0	-32
167	0xc4	-60
168	0xd7	-41
169	0xaa	-86
170	0xd7	-41
171	0x23	35
172	0x7f	127
173	0x00	0
174	0xd7	-41
175	0x00	0
176	0x62	98
177	0xea	-22
178	0x00	0
179	0xea	-22
180	0x17	23
181	0xc4	-60
182	0x00	0
183	0x00	0
184	0x7f	127
185	0x23	35
186	0x00	0
187	0x00	0
188	0x17	23
189	0xe0	-32
190	0x00	0
191	0x00	0
192	0x00	0
193	0xbd	-67
194	0xdc	-36
195	0xa0	-96
196	0x4b	75
197	0x27	39
198	0x1a	26
199	0xe8	-24
200	0x1a	26
201	0x00	0
202	0x37	55
203	0xe8	-24
204	0x00	0
205	0x1a	26
206	0x81	-127
207	0x00	0
208	0x00	0
209	0xcf	-49
210	0xdf	-33
211	0x00	0
212	0x00	0
213	0x23	35
214	0x35	53
215	0x00	0
216	0x00	0
217	0x00	0
218	0xdf	-33
219	0x7f	127
220	0x00	0
221	0x00	0
222	0x00	0
223	0xa5	-91
224	0x17	23
225	0x7f	127
226	0xea	-22
227	0x00	0
228	0x00	0
229	0x00	0
230	0x17	23
231	0xd7	-41
232	0x00	0
233	0x00	0
234	0x00	0
235	0x00	0
236	0xe0	-32
237	0x00	0
238	0x00	0
239	0x00	0
240	0x00	0
241	0xd2	-46
242	0x00	0
243	0xbc	-68
244	0x00	0
245	0xaa	-86
246	0x00	0
247	0xbc	-68
248	0x67	103
249	0x00	0
250	0x00	0
251	0x81	-127
252	0x00	0
253	0x00	0
254	0x00	0
255	0x00	0

mushroom_mobilenet_v2/quant_block_5_depthwise/depthwise;mushroom_mobilenet_v2/quant_block_5_depthwise/LastValueQuant/FakeQuantWithMinMaxVarsPerChannel i1 [1, 3, 3, 96]
0	0x19	25
1	0xe3	-29
2	0xcf	-49
3	0x1d	29
4	0xec	-20
5	0xf6	-10
6	0xe7	-25
7	0x14	20
8	0x1c	28
9	0xf8	-8
10	0x1a	26
11	0xeb	-21
12	0xf2	-14
13	0x1a	26
14	0xf0	-16
15	0xec	-20
16	0xf6	-10
17	0x06	6
18	0x1c	28
19	0xe3	-29
20	0x05	5
21	0x0a	10
22	0x08	8
23	0x15	21
24	0xf8	-8
25	0x43	67
26	0x07	7
27	0xe6	-26
28	0xf6	-10
29	0x0c	12
30	0xfb	-5
31	0xf2	-14
32	0x1b	27
33	0x17	23
34	0x0c	12
35	0xf9	-7
36	0xf8	-8
37	0xf9	-7
38	0xd6	-42
39	0xfc	-4
40	0x06	6
41	0xe2	-30
42	0xe8	-24
43	0xe1	-31
44	0xfe	-2
45	0x11	17
46	0x0a	10
47	0xd9	-39
48	0xcb	-53
49	0x0a	10
50	0x2e	46
51	0xfa	-6
52	0x0f	15
53	0x15	21
54	0xec	-20
55	0xfe	-2
56	0x0b	11
57	0xf1	-15
58	0xfd	-3
59	0xe3	-29
60	0x11	17
61	0xfa	-6
62	0x06	6
63	0xe3	-29
64	0x03	3
65	0xfb	-5
66	0xf8	-8
67	0xf6	-10
68	0x03	3
69	0x0d	13
70	0x1e	30
71	0x01	1
72	0x0f	15
73	0x23	35
74	0x21	33
75	0xe7	-25
76	0x05	5
77	0x18	24
78	0xe6	-26
79	0xe0	-32
80	0x00	0
81	0xdf	-33
82	0x18	24
83	0xf2	-14
84	0xf2	-14
85	0x10	16
86	0x06	6
87	0xf0	-16
88	0xe7	-25
89	0x26	38
90	0xf4	-12
91	0x20	32
92	0x05	5
93	0x05	5
94	0x2a	42
95	0x03	3
96	0xde	-34
97	0xd6	-42
98	0x0f	15
99	0x08	8
100	0x15	21
101	0xeb	-21
102	0xf8	-8
103	0x22	34
104	0xfc	-4
105	0xdb	-37
106	0x16	22
107	0xe1	-31
108	0xe5	-27
109	0x02	2
110	0xf8	-8
111	0xf3	-13
112	0xc8	-56
113	0x16	22
114	0x39	57
115	0x2d	45
116	0xf8	-8
117	0x2a	42
118	0xea	-22
119	0xd3	-45
120	0xf6	-10
121	0xed	-19
122	0xe5	-27
123	0x0b	11
124	0x33	51
125	0x36	54
126	0x16	22
127	0x34	52
128	0xe4	-28
129	0x04	4
130	0x37	55
131	0xe8	-24
132	0xe5	-27
133	0xf1	-15
134	0xd9	-39
135	0xea	-22
136	0xd8	-40
137	0xdb	-37
138	0xf3	-13
139	0x07	7
140	0x07	7
141	0x0b	11
142	0x1c	28
143	0xff	-1
144	0x01	1
145	0xf4	-12
146	0xbb	-69
147	0xf0	-16
148	0xf7	-9
149	0x26	38
150	0xe6	-26
151	0x1d	29
152	0x08	8
153	0xf7	-9
154	0x0c	12
155	0xda	-38
156	0x2a	42
157	0x34	52
158	0xdf	-33
159	0x0c	12
160	0x25	37
161	0x05	5
162	0xcf	-49
163	0x25	37
164	0x25	37
165	0x2f	47
166	0x16	22
167	0xf6	-10
168	0x05	5
169	0xe8	-24
170	0x12	18
171	0xf0	-16
172	0x02	2
173	0xb6	-74
174	0xf9	-7
175	0xe0	-32
176	0x29	41
177	0x02	2
178	0xd1	-47
179	0xf3	-13
180	0xe5	-27
181	0x16	22
182	0x33	51
183	0xcb	-53
184	0xfe	-2
185	0xfc	-4
186	0x19	25
187	0xd6	-42
188	0xeb	-21
189	0xf0	-16
190	0x15	21
191	0xfe	-2
192	0x19	25
193	0xf5	-11
194	0x1a	26
195	0xef	-17
196	0xf0	-16
197	0xf5	-11
198	0xfc	-4
199	0xfe	-2
200	0xdf	-33
201	0xed	-19
202	0x1a	26
203	0xf4	-12
204	0xf6	-10
205	0xe4	-28
206	0xf4	-12
207	0x23	35
208	0xf1	-15
209	0x09	9
210	0x12	18
211	0xe2	-30
212	0x02	2
213	0x10	16
214	0xf3	-13
215	0x10	16
216	0x00	0
217	0xda	-38
218	0xf0	-16
219	0x23	35
220	0xf9	-7
221	0x02	2
222	0xf5	-11
223	0xea	-22
224	0xe2	-30
225	0x13	19
226	0x08	8
227	0xfd	-3
228	0x11	17
229	0xf2	-14
230	0xe2	-30
231	0x00	0
232	0x1d	29
233	0x03	3
234	0xfc	-4
235	0x1e	30
236	0xfa	-6
237	0x0d	13
238	0x09	9
239	0x2e	46
240	0x21	33
241	0x03	3
242	0x08	8
243	0xeb	-21
244	0xd2	-46
245	0x02	2
246	0xec	-20
247	0xec	-20
248	0x07	7
249	0xf3	-13
250	0xf9	-7
251	0x05	5
252	0xfa	-6
253	0xf7	-9
254	0x10	16
255	0x10	16
