mobile_netv2_50/mushroom_model_final_0.6760982874162323.tflite (tflite, 980336 bytes, 53 tensors)

model/quant_Conv1/Conv2D;model/quant_Conv1/LastValueQuant/FakeQuantWithMinMaxVarsPerChannel i1 [16, 3, 3, 3]
32 -127 0 -24 -37 0 32 -55
45 -108 -127 -127 -75 -55 -55 45
-75 32 32 -75 45 32 -75 11
32 -75 45 0 0 0 0 0
0 0 0 0 0 0 0 0
0 0 0 0 0 0 0 0
0 0 0 0 0 0 18 18
-15 -9 5 18 -91 -127 -30 0
-9 5 0 13 5 13 -9 5
0 0 13 0 -9 -9 26 26
-22 0 0 0 0 0 0 0
0 0 0 0 0 0 0 0
0 0 0 0 0 0 0 0
0 0 0 0 -16 -50 0 -37
-72 -25 0 -16 -16 -16 -37 0
-85 -127 -37 -50 -50 -25 0 8
8 -25 8 -16 -16 8 0 0
0 0 0 0 0 0 0 0
0 0 0 0 0 0 0 0
0 0 0 0 0 0 0 0
0 0 93 93 0 0 -19 -53
-53 -53 -19 127 127 0 62 93
-19 62 62 0 -107 -19 -19 0
62 40 40 62 0 26 36 13
-44 -77 -15 18 36 13 26 51
18 -77 -127 -30 36 51 18 18
26 13 -44 -51 -15 18 26 13
7 13 10 36 66 16 25 42
16 16 19 7 42 60 19 28
42 16 -23 -29 -16 -76 -127 -34
-55 -89 -29 0 0 0 0 0
0 0 0 0 0 0 0 0
00000000: 2081 00e8 db00 20c9 2d94 8181 b5c9 c92d
00000010: b520 20b5 2d20 b50b 20b5 2d00 0000 0000
00000020: 0000 0000 0000 0000 0000 0000 0000 0000
00000030: 0000 0000 0000 1212 f1f7 0512 a581 e200
00000040: f705 000d 050d f705 0000 0d00 f7f7 1a1a
00000050: ea00 0000 0000 0000 0000 0000 0000 0000
00000060: 0000 0000 0000 0000 0000 0000 f0ce 00db
00000070: b8e7 00f0 f0f0 db00 ab81 dbce cee7 0008
00000080: 08e7 08f0 f008 0000 0000 0000 0000 0000
00000090: 0000 0000 0000 0000 0000 0000 0000 0000
000000a0: 0000 5d5d 0000 edcb cbcb ed7f 7f00 3e5d
000000b0: ed3e 3e00 95ed ed00 3e28 283e 001a 240d
000000c0: d4b3 f112 240d 1a33 12b3 81e2 2433 1212
000000d0: 1a0d d4cd f112 1a0d 070d 0a24 4210 192a
000000e0: 1010 1307 2a3c 131c 2a10 e9e3 f0b4 81de
000000f0: c9a7 e300 0000 0000 0000 0000 0000 0000

model/quant_expanded_conv_depthwise/depthwise;model/quant_expanded_conv_depthwise/LastValueQuant/FakeQuantWithMinMaxVarsPerChannel i1 [1, 3, 3, 16]
-3 -1 -11 2 -26 -1 -11 -6
3 1 7 -7 6 2 20 4
1 -3 -1 -1 -4 -2 -4 2
-5 2 43 11 6 -17 35 1
6 -4 -2 1 7 -1 1 10
3 2 -53 5 -10 1 -51 -8
0 0 31 1 65 -3 4 24
12 4 34 119 22 -10 51 13
-26 -4 -1 1 16 -3 18 63
-55 3 54 -127 9 59 46 26
2 -1 -3 -2 -32 0 -14 -99
9 0 -17 -7 -7 -6 -23 -9
5 -1 1 2 -21 1 -14 -8
-1 1 -48 -15 -13 -7 -62 -13
7 0 -3 13 0 -1 10 -2
3 -1 -20 15 -5 17 -18 -8
6 -5 -3 11 5 -3 -8 13
0 0 1 4 -2 -5 11 -3
00000000: fdff f502 e6ff f5fa 0301 07f9 0602 1404
00000010: 01fd ffff fcfe fc02 fb02 2b0b 06ef 2301
00000020: 06fc fe01 07ff 010a 0302 cb05 f601 cdf8
00000030: 0000 1f01 41fd 0418 0c04 2277 16f6 330d
00000040: e6fc ff01 10fd 123f c903 3681 093b 2e1a
00000050: 02ff fdfe e000 f29d 0900 eff9 f9fa e9f7
00000060: 05ff 0102 eb01 f2f8 ff01 d0f1 f3f9 c2f3
00000070: 0700 fd0d 00ff 0afe 03ff ec0f fb11 eef8
00000080: 06fb fd0b 05fd f80d 0000 0104 fefb 0bfd

model/quant_expanded_conv_project/Conv2D;model/quant_expanded_conv_project/LastValueQuant/FakeQuantWithMinMaxVarsPerChannel i1 [8, 1, 1, 16]
5 0 40 0 0 -3 -78 35
15 0 127 -59 35 -21 -51 40
49 0 -59 0 -31 0 59 -41
-18 0 127 59 -35 15 -21 -4
1 0 -18 0 -2 0 0 50
1 0 1 -86 -15 -10 127 -15
-4 0 -3 0 -18 0 -4 0
102 0 5 0 -3 127 -3 1
0 0 0 0 5 0 -58 -127
-3 0 1 -77 0 13 0 -4
-10 0 35 0 -16 0 -10 -52
1 0 20 77 20 -2 127 1
1 0 0 0 127 0 -31 7
7 0 27 -13 -26 7 10 4
0 0 4 0 4 0 -33 12
-65 0 10 -9 10 127 8 1
00000000: 0500 2800 00fd b223 0f00 7fc5 23eb cd28
00000010: 3100 c500 e100 3bd7 ee00 7f3b dd0f ebfc
00000020: 0100 ee00 fe00 0032 0100 01aa f1f6 7ff1
00000030: fc00 fd00 ee00 fc00 6600 0500 fd7f fd01
00000040: 0000 0000 0500 c681 fd00 01b3 000d 00fc
00000050: f600 2300 f000 f6cc 0100 144d 14fe 7f01
00000060: 0100 0000 7f00 e107 0700 1bf3 e607 0a04
00000070: 0000 0400 0400 df0c bf00 0af7 0a7f 0801

model/quant_block_1_expand/Conv2D;model/quant_block_1_expand/LastValueQuant/FakeQuantWithMinMaxVarsPerChannel i1 [48, 1, 1, 8]
-31 -11 127 0 0 127 13 0
0 -37 -37 87 0 24 127 0
-78 76 -127 0 116 116 -33 -33
0 0 0 -127 0 0 0 -87
-9 14 -25 0 -127 18 0 0
-33 66 0 0 0 0 -127 29
84 -102 84 0 49 -42 -127 0
53 -64 127 0 -54 -126 63 23
-50 13 127 0 0 98 13 0
-61 44 25 -61 0 -51 -127 76
84 -87 84 0 60 -37 -127 0
-127 88 -99 0 124 54 0 -54
0 49 25 7 -6 -14 -127 0
87 -110 127 0 112 -122 0 0
-27 -23 0 127 0 -15 0 63
41 -25 69 -46 25 -59 34 127
0 15 20 0 0 0 -127 -20
0 0 -15 0 127 15 0 -10
-46 -23 0 -54 0 -36 0 127
-17 -17 115 0 0 127 -10 12
-64 63 -126 0 0 127 -42 -15
38 -43 53 0 -127 -55 0 23
0 15 0 127 0 0 15 69
-33 18 -62 41 -18 63 -62 -127
60 -127 28 0 60 -37 101 0
0 10 10 0 -127 -9 14 10
-11 -31 -11 127 0 -11 0 13
-127 -75 10 0 0 -47 -9 -14
-30 0 -46 127 0 0 75 127
-127 -103 0 0 0 -28 -12 -12
-92 116 -127 0 -127 116 -51 -22
29 -19 39 0 -127 -29 -68 22
00000000: e1f5 7f00 007f 0d00 00db db57 0018 7f00
00000010: b24c 8100 7474 dfdf 0000 0081 0000 00a9
00000020: f70e e700 8112 0000 df42 0000 0000 811d
00000030: 549a 5400 31d6 8100 35c0 7f00 ca82 3f17
00000040: ce0d 7f00 0062 0d00 c32c 19c3 00cd 814c
00000050: 54a9 5400 3cdb 8100 8158 9d00 7c36 00ca
00000060: 0031 1907 faf2 8100 5792 7f00 7086 0000
00000070: e5e9 007f 00f1 003f 29e7 45d2 19c5 227f
00000080: 000f 1400 0000 81ec 0000 f100 7f0f 00f6
00000090: d2e9 00ca 00dc 007f efef 7300 007f f60c
000000a0: c03f 8200 007f d6f1 26d5 3500 81c9 0017
000000b0: 000f 007f 0000 0f45 df12 c229 ee3f c281
000000c0: 3c81 1c00 3cdb 6500 000a 0a00 81f7 0e0a
000000d0: f5e1 f57f 00f5 000d 81b5 0a00 00d1 f7f2
000000e0: e200 d27f 0000 4b7f 8199 0000 00e4 f4f4
000000f0: a474 8100 8174 cdea 1ded 2700 81e3 bc16

model/quant_block_1_depthwise/depthwise;model/quant_block_1_depthwise/LastValueQuant/FakeQuantWithMinMaxVarsPerChannel i1 [1, 3, 3, 48]
-108 28 -55 -27 -37 -73 13 -46
24 46 -45 31 2 -15 6 -17
-18 63 -56 18 -30 74 -32 62
42 -49 60 -23 -5 17 -18 56
30 25 -40 41 -43 20 -6 -52
13 -12 39 -58 18 60 -17 5
-30 90 -53 -47 -69 30 -63 -57
38 90 68 -55 73 -55 4 -49
7 76 -72 39 -39 41 -67 83
0 -57 70 -48 -20 30 -53 -37
52 68 -61 60 -60 -67 -17 -78
62 -80 70 -107 38 84 17 20
116 74 -5 -21 -34 46 53 -8
33 56 -14 -13 56 -46 -6 -39
47 4 -34 32 -15 -9 -30 31
-60 -17 24 -44 -19 28 -40 -18
27 55 -30 24 -23 18 2 -33
53 15 49 -64 11 33 -56 27
-17 -16 -73 -46 -45 58 10 -81
36 -53 -90 54 8 -39 72 -36
2 84 -67 28 -43 99 -24 71
71 -82 72 -49 -48 30 -25 92
-24 62 -51 72 -48 30 -57 -46
11 -57 71 40 -85 72 -30 27
0 -27 -82 -65 -94 62 -105 -83
115 -110 101 -81 125 -94 115 -85
-68 97 -93 120 -53 56 -33 121
6 -91 92 -93 -73 49 -77 -55
-33 127 -84 105 -83 -114 -82 -68
63 53 119 84 -108 106 14 60
-2 -19 -3 -44 -46 -43 91 -14
56 -74 -23 -32 84 -65 64 -50
00000000: 941c c9e5 dbb7 0dd2 182e d31f 02f1 06ef
00000010: ee3f c812 e24a e03e 2acf 3ce9 fb11 ee38
00000020: 1e19 d829 d514 facc 0df4 27c6 123c ef05
00000030: e25a cbd1 bb1e c1c7 265a 44c9 49c9 04cf
00000040: 074c b827 d929 bd53 00c7 46d0 ec1e cbdb
00000050: 3444 c33c c4bd efb2 3eb0 4695 2654 1114
00000060: 744a fbeb de2e 35f8 2138 f2f3 38d2 fad9
00000070: 2f04 de20 f1f7 e21f c4ef 18d4 ed1c d8ee
00000080: 1b37 e218 e912 02df 350f 31c0 0b21 c81b
00000090: eff0 b7d2 d33a 0aaf 24cb a636 08d9 48dc
000000a0: 0254 bd1c d563 e847 47ae 48cf d01e e75c
000000b0: e83e cd48 d01e c7d2 0bc7 4728 ab48 e21b
000000c0: 00e5 aebf a23e 97ad 7392 65af 7da2 73ab
000000d0: bc61 a378 cb38 df79 06a5 5ca3 b731 b3c9
000000e0: df7f ac69 ad8e aebc 3f35 7754 946a 0e3c
000000f0: feed fdd4 d2d5 5bf2 38b6 e9e0 54bf 40ce

model/quant_block_1_project/Conv2D;model/quant_block_1_project/LastValueQuant/FakeQuantWithMinMaxVarsPerChannel i1 [16, 1, 1, 48]
21 0 -9 14 0 0 0 19
31 0 0 -29 -9 31 0 -15
0 0 -40 0 0 0 14 -29
43 0 -29 -127 0 35 -23 0
43 -127 35 0 0 0 -35 -29
35 0 -66 0 7 49 0 31
98 -50 -94 -41 50 44 -32 -105
0 -73 -32 -50 -32 -127 -57 31
-41 -41 10 10 -94 -13 -73 10
0 -94 50 31 -50 83 -73 -41
-41 44 -94 0 -94 -22 -57 -73
-41 31 0 -50 -94 50 0 -41
61 -64 53 -19 -92 -127 61 27
18 -92 61 0 0 44 -36 9
-83 116 18 -19 27 73 -64 0
53 61 -19 18 -83 27 24 24
0 18 61 -28 9 -19 86 61
-36 -112 -127 -64 -51 -92 -28 -44
-45 0 5 0 10 0 -6 -10
127 0 0 -27 -10 0 -6 -6
0 -6 -19 102 -6 0 0 -19
29 0 0 21 5 -35 -15 0
29 47 0 0 0 0 -19 -15
15 0 -6 0 0 0 0 -6
86 27 73 53 -44 61 24 -11
24 53 27 -28 0 0 0 -36
73 86 -112 -28 -19 0 73 0
-11 27 -28 61 44 61 -19 18
18 24 -11 -19 86 0 -28 18
-11 53 44 53 44 -127 0 -19
0 0 -48 0 -6 0 14 28
0 0 -6 0 -127 37 0 28
00000000: 1500 f70e 0000 0013 1f00 00e3 f71f 00f1
00000010: 0000 d800 0000 0ee3 2b00 e381 0023 e900
00000020: 2b81 2300 0000 dde3 2300 be00 0731 001f
00000030: 62ce a2d7 322c e097 00b7 e0ce e081 c71f
00000040: d7d7 0a0a a2f3 b70a 00a2 321f ce53 b7d7
00000050: d72c a200 a2ea c7b7 d71f 00ce a232 00d7
00000060: 3dc0 35ed a481 3d1b 12a4 3d00 002c dc09
00000070: ad74 12ed 1b49 c000 353d ed12 ad1b 1818
00000080: 0012 3de4 09ed 563d dc90 81c0 cda4 e4d4
00000090: d300 0500 0a00 faf6 7f00 00e5 f600 fafa
000000a0: 00fa ed66 fa00 00ed 1d00 0015 05dd f100
000000b0: 1d2f 0000 0000 edf1 0f00 fa00 0000 00fa
000000c0: 561b 4935 d43d 18f5 1835 1be4 0000 00dc
000000d0: 4956 90e4 ed00 4900 f51b e43d 2c3d ed12
000000e0: 1218 f5ed 5600 e412 f535 2c35 2c81 00ed
000000f0: 0000 d000 fa00 0e1c 0000 fa00 8125 001c

model/quant_block_2_expand/Conv2D;model/quant_block_2_expand/LastValueQuant/FakeQuantWithMinMaxVarsPerChannel i1 [96, 1, 1, 16]
-42 0 -61 -73 -25 56 -20 14
69 0 0 -25 -35 0 -25 127
-68 -68 -32 -117 -56 22 -68 -56
127 -22 22 0 0 70 -68 89
-97 0 127 -40 -32 0 -83 38
52 -68 22 70 0 0 127 -97
49 29 -17 59 0 -31 -17 86
-75 0 0 -25 -17 0 -75 127
0 -15 52 0 -66 -27 0 0
0 -80 -46 -127 15 -127 -38 -66
0 7 -37 0 -82 0 0 24
0 -58 -37 35 0 127 -47 -73
-17 0 69 -30 -37 0 -17 -127
28 -17 0 34 20 0 0 -69
-35 -35 32 0 56 14 0 0
0 0 -52 56 -35 127 44 26
0 0 70 63 22 111 0 -117
-40 0 -32 41 127 22 0 77
-15 -62 -36 -15 28 15 60 -25
19 23 -30 -127 -15 33 23 -68
-82 0 0 -22 -12 69 0 0
-127 20 -12 0 38 0 -37 0
39 0 0 0 21 39 0 -12
-46 0 42 21 127 0 0 12
0 0 -27 -127 0 0 15 0
-127 0 26 -27 0 -22 0 15
-22 0 0 0 -22 -12 -18 127
-12 0 -18 0 0 0 61 0
-62 0 0 -96 0 39 0 0
-127 0 -17 -24 39 0 -30 -24
0 19 -127 0 -47 -27 75 19
19 -57 32 -57 19 -127 -81 -81
00000000: d600 c3b7 e738 ec0e 4500 00e7 dd00 e77f
00000010: bcbc e08b c816 bcc8 7fea 1600 0046 bc59
00000020: 9f00 7fd8 e000 ad26 34bc 1646 0000 7f9f
00000030: 311d ef3b 00e1 ef56 b500 00e7 ef00 b57f
00000040: 00f1 3400 bee5 0000 00b0 d281 0f81 dabe
00000050: 0007 db00 ae00 0018 00c6 db23 007f d1b7
00000060: ef00 45e2 db00 ef81 1cef 0022 1400 00bb
00000070: dddd 2000 380e 0000 0000 cc38 dd7f 2c1a
00000080: 0000 463f 166f 008b d800 e029 7f16 004d
00000090: f1c2 dcf1 1c0f 3ce7 1317 e281 f121 17bc
000000a0: ae00 00ea f445 0000 8114 f400 2600 db00
000000b0: 2700 0000 1527 00f4 d200 2a15 7f00 000c
000000c0: 0000 e581 0000 0f00 8100 1ae5 00ea 000f
000000d0: ea00 0000 eaf4 ee7f f400 ee00 0000 3d00
000000e0: c200 00a0 0027 0000 8100 efe8 2700 e2e8
000000f0: 0013 8100 d1e5 4b13 13c7 20c7 1381 afaf

model/quant_block_2_depthwise/depthwise;model/quant_block_2_depthwise/LastValueQuant/FakeQuantWithMinMaxVarsPerChannel i1 [1, 3, 3, 96]
-1 -4 -35 5 27 4 10 -12
-12 8 -4 -20 3 -22 -3 -13
6 39 20 1 -3 -1 -15 1
-11 -7 42 14 -20 14 19 -19
31 15 1 11 -24 -13 8 -33
-8 -70 -2 1 5 -11 -6 7
-1 29 -18 19 0 -1 -1 -21
-7 3 -32 -16 -21 11 -10 3
-15 -19 -31 20 -8 7 -10 -29
14 -9 -19 -27 -11 -3 -30 -12
39 -3 41 0 3 -3 -7 10
10 21 -9 2 51 16 -12 -5
48 -4 31 47 -29 -15 29 -11
-27 -20 -43 0 -15 -32 8 27
5 -21 38 24 24 -40 46 24
5 24 -49 11 -29 -11 -25 -23
26 -48 53 27 25 -16 63 19
17 8 12 14 0 -43 5 5
-41 -45 57 -20 7 45 1 17
-36 -12 9 7 -41 -10 20 -17
-27 40 -26 16 -24 -10 17 -19
-12 -3 -10 12 28 -18 27 -26
-34 -43 -5 3 36 32 -35 -19
8 30 20 -3 32 42 -44 -2
-4 4 5 2 -4 8 2 3
-37 7 -17 17 -2 -12 -4 -14
0 -7 3 -4 5 0 -19 24
-11 39 -5 -21 -31 -3 -19 -16
7 -4 -9 6 6 -28 -2 9
-4 22 -38 -6 -7 -7 -6 -26
-11 0 -15 -1 2 -30 1 4
-21 8 25 41 -17 -5 -11 4
00000000: fffc dd05 1b04 0af4 f408 fcec 03ea fdf3
00000010: 0627 1401 fdff f101 f5f9 2a0e ec0e 13ed
00000020: 1f0f 010b e8f3 08df f8ba fe01 05f5 fa07
00000030: ff1d ee13 00ff ffeb f903 e0f0 eb0b f603
00000040: f1ed e114 f807 f6e3 0ef7 ede5 f5fd e2f4
00000050: 27fd 2900 03fd f90a 0a15 f702 3310 f4fb
00000060: 30fc 1f2f e3f1 1df5 e5ec d500 f1e0 081b
00000070: 05eb 2618 18d8 2e18 0518 cf0b e3f5 e7e9
00000080: 1ad0 351b 19f0 3f13 1108 0c0e 00d5 0505
00000090: d7d3 39ec 072d 0111 dcf4 0907 d7f6 14ef
000000a0: e528 e610 e8f6 11ed f4fd f60c 1cee 1be6
000000b0: ded5 fb03 2420 dded 081e 14fd 202a d4fe
000000c0: fc04 0502 fc08 0203 db07 ef11 fef4 fcf2
000000d0: 00f9 03fc 0500 ed18 f527 fbeb e1fd edf0
000000e0: 07fc f706 06e4 fe09 fc16 dafa f9f9 fae6
000000f0: f500 f1ff 02e2 0104 eb08 1929 effb f504

model/quant_block_2_project/Conv2D;model/quant_block_2_project/LastValueQuant/FakeQuantWithMinMaxVarsPerChannel i1 [16, 1, 1, 96]
-8 0 9 -8 -8 7 27 -8
-16 -12 -48 15 9 12 0 7
0 9 27 -22 0 34 0 127
0 15 7 15 108 15 22 0
39 -48 0 0 27 7 9 22
-8 0 0 12 -18 -16 7 0
34 27 -8 -12 0 0 0 0
-69 -16 -12 0 15 9 22 0
34 0 9 0 12 9 0 18
18 7 34 9 0 18 0 -16
0 0 -8 15 0 0 9 0
0 -22 -12 0 0 -12 12 0
73 63 40 -78 0 -78 0 -30
-40 34 -88 -78 0 -78 23 18
13 -40 -40 0 -23 63 -30 0
-33 0 82 34 0 23 -65 50
-30 73 18 -65 23 0 0 -33
13 0 0 63 0 -65 -23 13
-14 23 13 23 0 34 29 -14
0 -23 127 -30 -65 50 -100 63
29 -49 -30 -30 -14 29 29 -14
-30 63 13 0 40 0 34 -30
23 40 82 -14 -40 23 18 0
29 -40 29 0 73 -49 -40 -23
-33 -25 -33 -127 -53 54 -37 31
31 0 -37 -16 0 -53 54 0
120 37 -16 -37 0 -37 -33 -37
69 0 -16 31 -33 25 37 -97
-16 37 -127 -16 -37 0 -110 -127
69 0 -16 120 -37 -85 54 0
-16 44 19 -53 -85 -44 -110 -72
0 -25 15 80 -37 -16 54 0
00000000: f800 09f8 f807 1bf8 f0f4 d00f 090c 0007
00000010: 0009 1bea 0022 007f 000f 070f 6c0f 1600
00000020: 27d0 0000 1b07 0916 f800 000c eef0 0700
00000030: 221b f8f4 0000 0000 bbf0 f400 0f09 1600
00000040: 2200 0900 0c09 0012 1207 2209 0012 00f0
00000050: 0000 f80f 0000 0900 00ea f400 00f4 0c00
00000060: 493f 28b2 00b2 00e2 d822 a8b2 00b2 1712
00000070: 0dd8 d800 e93f e200 df00 5222 0017 bf32
00000080: e249 12bf 1700 00df 0d00 003f 00bf e90d
00000090: f217 0d17 0022 1df2 00e9 7fe2 bf32 9c3f
000000a0: 1dcf e2e2 f21d 1df2 e23f 0d00 2800 22e2
000000b0: 1728 52f2 d817 1200 1dd8 1d00 49cf d8e9
000000c0: dfe7 df81 cb36 db1f 1f00 dbf0 00cb 3600
000000d0: 7825 f0db 00db dfdb 4500 f01f df19 259f
000000e0: f025 81f0 db00 9281 4500 f078 dbab 3600
000000f0: f02c 13cb abd4 92b8 00e7 0f50 dbf0 3600

model/quant_block_3_expand/Conv2D;model/quant_block_3_expand/LastValueQuant/FakeQuantWithMinMaxVarsPerChannel i1 [96, 1, 1, 16]
16 16 -13 16 0 -127 12 12
-15 0 -15 12 97 12 -18 32
0 53 0 -23 -81 0 -127 -25
20 67 20 -44 0 -25 0 20
37 0 -99 -24 -24 -126 -58 37
37 0 127 0 -126 0 -43 0
0 53 0 -23 -127 0 67 -25
27 118 53 -44 0 81 0 53
29 0 127 46 0 21 21 -24
-47 -47 -72 100 -47 58 -27 -88
-27 46 0 58 21 0 29 0
127 0 -88 0 29 0 29 37
0 0 -104 0 0 -127 0 0
53 -20 67 -38 -127 0 -35 0
35 0 103 68 -56 0 35 127
-103 0 -56 25 -66 25 35 -56
0 -29 -127 0 35 25 69 0
-29 35 0 -67 56 -32 -39 -32
29 0 -27 21 0 127 0 21
-14 0 46 0 127 0 -14 -24
-33 -33 37 0 46 0 29 21
21 -72 72 -127 21 0 37 0
-39 59 -127 0 -18 -15 32 -31
-13 16 16 -58 12 -26 0 -48
31 -82 -69 0 127 31 0 68
0 105 84 -48 0 105 68 53
37 -43 0 -127 0 -24 52 0
-83 -58 -43 0 0 -100 0 0
71 0 0 71 0 127 0 37
101 0 37 0 127 0 0 0
-127 0 -47 -68 -68 0 0 0
83 -68 -127 0 105 31 -47 43
00000000: 1010 f310 0081 0c0c f100 f10c 610c ee20
00000010: 0035 00e9 af00 81e7 1443 14d4 00e7 0014
00000020: 2500 9de8 e882 c625 2500 7f00 8200 d500
00000030: 0035 00e9 8100 43e7 1b76 35d4 0051 0035
00000040: 1d00 7f2e 0015 15e8 d1d1 b864 d13a e5a8
00000050: e52e 003a 1500 1d00 7f00 a800 1d00 1d25
00000060: 0000 9800 0081 0000 35ec 43da 8100 dd00
00000070: 2300 6744 c800 237f 9900 c819 be19 23c8
00000080: 00e3 8100 2319 4500 e323 00bd 38e0 d9e0
00000090: 1d00 e515 007f 0015 f200 2e00 7f00 f2e8
000000a0: dfdf 2500 2e00 1d15 15b8 4881 1500 2500
000000b0: d93b 8100 eef1 20e1 f310 10c6 0ce6 00d0
000000c0: 1fae bb00 7f1f 0044 0069 54d0 0069 4435
000000d0: 25d5 0081 00e8 3400 adc6 d500 009c 0000
000000e0: 4700 0047 007f 0025 6500 2500 7f00 0000
000000f0: 8100 d1bc bc00 0000 53bc 8100 691f d12b

model/quant_block_3_depthwise/depthwise;model/quant_block_3_depthwise/LastValueQuant/FakeQuantWithMinMaxVarsPerChannel i1 [1, 3, 3, 96]
-36 -35 60 -33 28 -30 -63 30
-38 -59 37 43 -34 24 42 -33
-29 -34 -32 30 58 46 21 -28
31 49 46 29 41 35 31 -33
55 -45 31 -36 53 -47 -55 60
49 -35 -38 28 14 38 -34 -35
30 -51 47 -29 35 39 84 49
33 27 -37 43 59 28 40 25
54 -56 51 -16 14 26 -39 -32
31 -36 66 57 50 -20 34 -37
27 39 -45 -41 -36 82 -43 42
-47 -10 -56 54 -30 11 -31 -24
-60 -43 -17 -40 58 -43 -84 41
78 -84 25 65 -54 -57 0 -45
-39 53 -50 49 59 59 52 -45
44 67 61 48 50 53 59 -49
69 -47 46 -51 64 -52 39 76
64 -46 -56 54 19 61 -39 -50
55 5 50 -38 58 57 -30 76
71 52 -58 58 59 52 67 58
63 -4 56 -41 -65 49 -49 -40
54 -48 71 76 73 -54 64 -47
53 51 -72 -52 -36 -63 -30 28
-65 -35 -55 -13 -40 18 -53 -51
-30 -21 -44 -27 28 -23 -50 15
-49 -55 -21 31 -32 27 -53 -21
-19 -12 -20 28 21 26 39 -29
19 32 27 26 24 22 33 -20
32 -25 30 -25 27 -15 15 32
32 -22 -37 27 -15 27 -16 -22
31 36 15 -25 25 28 -47 39
44 28 -23 29 45 28 32 45
00000000: dcdd 3cdf 1ce2 c11e dac5 252b de18 2adf
00000010: e3de e01e 3a2e 15e4 1f31 2e1d 2923 1fdf
00000020: 37d3 1fdc 35d1 c93c 31dd da1c 0e26 dedd
00000030: 1ecd 2fe3 2327 5431 211b db2b 3b1c 2819
00000040: 36c8 33f0 0e1a d9e0 1fdc 4239 32ec 22db
00000050: 1b27 d3d7 dc52 d52a d1f6 c836 e20b e1e8
00000060: c4d5 efd8 3ad5 ac29 4eac 1941 cac7 00d3
00000070: d935 ce31 3b3b 34d3 2c43 3d30 3235 3bcf
00000080: 45d1 2ecd 40cc 274c 40d2 c836 133d d9ce
00000090: 3705 32da 3a39 e24c 4734 c63a 3b34 433a
000000a0: 3ffc 38d7 bf31 cfd8 36d0 474c 49ca 40d1
000000b0: 3533 b8cc dcc1 e21c bfdd c9f3 d812 cbcd
000000c0: e2eb d4e5 1ce9 ce0f cfc9 eb1f e01b cbeb
000000d0: edf4 ec1c 151a 27e3 1320 1b1a 1816 21ec
000000e0: 20e7 1ee7 1bf1 0f20 20ea db1b f11b f0ea
000000f0: 1f24 0fe7 191c d127 2c1c e91d 2d1c 202d

model/quant_block_3_project/Conv2D;model/quant_block_3_project/LastValueQuant/FakeQuantWithMinMaxVarsPerChannel i1 [16, 1, 1, 96]
-20 -20 -20 0 0 -39 0 36
0 42 0 36 13 0 0 58
13 0 -29 0 -51 27 0 -45
-20 58 0 -17 -45 73 0 85
85 -17 -39 85 20 42 0 13
-17 0 30 73 0 0 -24 -56
73 0 85 0 -45 73 0 0
0 -67 30 36 27 58 -127 -45
0 0 20 -39 0 13 0 -45
-99 -29 13 0 42 0 -56 -72
-12 0 20 42 20 -12 -17 -12
0 0 0 0 0 13 0 73
-18 -21 21 -30 0 -18 28 -40
-25 21 38 -30 21 31 28 21
-18 38 -21 -18 -54 0 21 0
54 -59 -30 106 -12 31 21 -18
76 -40 44 -18 -40 -76 38 -25
90 0 -12 0 28 21 0 28
48 28 0 -12 76 0 -21 38
-104 48 -12 38 38 61 -18 127
0 48 44 14 38 31 -70 -21
21 -48 31 38 -25 21 28 -12
-21 28 14 0 -48 -18 -40 0
-18 -30 28 28 0 21 -12 0
30 -11 0 0 20 0 0 0
0 0 28 -34 -11 9 0 28
0 0 -11 0 24 0 -26 0
-26 -37 57 30 0 13 13 -26
13 0 13 -30 24 28 0 0
0 -16 28 -44 9 34 0 -44
-16 9 0 -19 -13 0 0 127
-26 9 -34 18 18 -26 -26 -26
00000000: ecec ec00 00d9 0024 002a 0024 0d00 003a
00000010: 0d00 e300 cd1b 00d3 ec3a 00ef d349 0055
00000020: 55ef d955 142a 000d ef00 1e49 0000 e8c8
00000030: 4900 5500 d349 0000 00bd 1e24 1b3a 81d3
00000040: 0000 14d9 000d 00d3 9de3 0d00 2a00 c8b8
00000050: f400 142a 14f4 eff4 0000 0000 000d 0049
00000060: eeeb 15e2 00ee 1cd8 e715 26e2 151f 1c15
00000070: ee26 ebee ca00 1500 36c5 e26a f41f 15ee
00000080: 4cd8 2cee d8b4 26e7 5a00 f400 1c15 001c
00000090: 301c 00f4 4c00 eb26 9830 f426 263d ee7f
000000a0: 0030 2c0e 261f baeb 15d0 1f26 e715 1cf4
000000b0: eb1c 0e00 d0ee d800 eee2 1c1c 0015 f400
000000c0: 1ef5 0000 1400 0000 0000 1cde f509 001c
000000d0: 0000 f500 1800 e600 e6db 391e 000d 0de6
000000e0: 0d00 0de2 181c 0000 00f0 1cd4 0922 00d4
000000f0: f009 00ed f300 007f e609 de12 12e6 e6e6

model/quant_block_4_expand/Conv2D;model/quant_block_4_expand/LastValueQuant/FakeQuantWithMinMaxVarsPerChannel i1 [96, 1, 1, 16]
63 127 63 0 0 -17 28 -61
0 -47 0 50 28 78 -61 64
40 0 -19 0 27 127 -15 -32
47 0 -36 0 0 22 47 67
0 0 57 -97 0 32 79 -70
-61 127 32 -31 32 0 57 13
44 127 109 0 0 -61 0 0
-35 0 -61 0 28 0 0 127
63 -43 28 44 28 64 78 0
127 0 127 0 0 63 -43 109
-51 -110 0 23 -127 106 0 -14
0 42 0 -70 0 -51 -36 -62
0 52 -78 52 0 0 -29 36
127 0 23 15 0 -78 0 -14
32 -70 0 -111 0 20 -26 0
0 -45 -54 20 127 0 93 46
127 0 -115 0 38 87 88 87
-65 69 0 0 38 69 -85 0
-86 36 0 36 0 0 -50 52
127 -86 -39 -29 0 0 0 -14
-70 -13 0 0 -13 -26 -70 0
67 0 -31 0 0 127 -26 -31
40 57 -55 0 -39 127 0 16
0 -39 115 -16 0 40 0 70
0 0 60 0 29 0 -86 71
41 -127 -54 0 32 18 -62 29
91 0 91 -51 -36 -39 -80 0
-127 37 77 -70 0 -51 -62 37
0 -54 0 0 -77 57 -31 0
13 0 -85 0 0 -13 127 36
15 37 118 0 53 23 53 0
-127 -51 53 0 0 0 0 0
00000000: 3f7f 3f00 00ef 1cc3 00d1 0032 1c4e c340
00000010: 2800 ed00 1b7f f1e0 2f00 dc00 0016 2f43
00000020: 0000 399f 0020 4fba c37f 20e1 2000 390d
00000030: 2c7f 6d00 00c3 0000 dd00 c300 1c00 007f
00000040: 3fd5 1c2c 1c40 4e00 7f00 7f00 003f d56d
00000050: cd92 0017 816a 00f2 002a 00ba 00cd dcc2
00000060: 0034 b234 0000 e324 7f00 170f 00b2 00f2
00000070: 20ba 0091 0014 e600 00d3 ca14 7f00 5d2e
00000080: 7f00 8d00 2657 5857 bf45 0000 2645 ab00
00000090: aa24 0024 0000 ce34 7faa d9e3 0000 00f2
000000a0: baf3 0000 f3e6 ba00 4300 e100 007f e6e1
000000b0: 2839 c900 d97f 0010 00d9 73f0 0028 0046
000000c0: 0000 3c00 1d00 aa47 2981 ca00 2012 c21d
000000d0: 5b00 5bcd dcd9 b000 8125 4dba 00cd c225
000000e0: 00ca 0000 b339 e100 0d00 ab00 00f3 7f24
000000f0: 0f25 7600 3517 3500 81cd 3500 0000 0000

model/quant_block_4_depthwise/depthwise;model/quant_block_4_depthwise/LastValueQuant/FakeQuantWithMinMaxVarsPerChannel i1 [1, 3, 3, 96]
6 -10 0 -2 9 -4 12 -11
-3 -13 -12 41 -4 -10 -6 -4
-10 -10 1 7 -6 -3 3 -3
20 -4 16 -3 0 8 3 -5
-16 -9 7 -9 8 -6 28 1
9 -12 8 -10 -16 -11 1 53
24 28 5 -5 0 2 -2 3
6 -11 -17 -3 -9 3 7 9
0 -9 11 -7 -2 -10 1 3
2 -14 -18 -12 -7 6 -5 -5
0 -19 9 -5 15 -10 -38 14
2 -7 2 6 -11 18 -17 -2
-10 2 0 -51 54 -7 -14 -20
17 -2 2 16 12 -6 8 -10
-33 -6 -39 42 -8 -17 53 -10
43 -28 48 -10 -3 -15 52 -15
-9 -5 20 -1 61 -30 7 -21
-5 43 58 13 -5 -9 28 -21
11 -24 33 2 -32 46 -11 6
0 -28 2 9 -18 5 49 -2
3 -6 9 -39 3 -14 1 -6
51 10 -22 -19 28 19 11 -38
-22 2 46 -33 16 8 0 -16
8 -30 2 16 -26 -16 28 -25
6 -12 2 2 0 -3 -5 2
-4 -2 8 29 -11 -8 -11 13
-2 17 14 -4 -6 5 7 -8
13 -8 8 16 -33 8 2 -9
-18 -4 1 -11 11 -3 -36 9
-5 5 0 3 -9 -4 -7 -38
15 -18 -6 14 -2 -2 -1 2
-3 -7 -11 25 -16 5 10 -8
00000000: 06f6 00fe 09fc 0cf5 fdf3 f429 fcf6 fafc
00000010: f6f6 0107 fafd 03fd 14fc 10fd 0008 03fb
00000020: f0f7 07f7 08fa 1c01 09f4 08f6 f0f5 0135
00000030: 181c 05fb 0002 fe03 06f5 effd f703 0709
00000040: 00f7 0bf9 fef6 0103 02f2 eef4 f906 fbfb
00000050: 00ed 09fb 0ff6 da0e 02f9 0206 f512 effe
00000060: f602 00cd 36f9 f2ec 11fe 0210 0cfa 08f6
00000070: dffa d92a f8ef 35f6 2be4 30f6 fdf1 34f1
00000080: f7fb 14ff 3de2 07eb fb2b 3a0d fbf7 1ceb
00000090: 0be8 2102 e02e f506 00e4 0209 ee05 31fe
000000a0: 03fa 09d9 03f2 01fa 330a eaed 1c13 0bda
000000b0: ea02 2edf 1008 00f0 08e2 0210 e6f0 1ce7
000000c0: 06f4 0202 00fd fb02 fcfe 081d f5f8 f50d
000000d0: fe11 0efc fa05 07f8 0df8 0810 df08 02f7
000000e0: eefc 01f5 0bfd dc09 fb05 0003 f7fc f9da
000000f0: 0fee fa0e fefe ff02 fdf9 f519 f005 0af8

model/quant_block_4_project/Conv2D;model/quant_block_4_project/LastValueQuant/FakeQuantWithMinMaxVarsPerChannel i1 [16, 1, 1, 96]
0 127 48 14 -30 -30 14 -30
0 -35 0 -18 0 24 0 -62
-30 0 0 31 31 14 -62 24
-53 106 54 0 -30 24 40 -47
40 -18 31 -117 31 -30 0 48
0 -18 -40 -47 0 -40 -30 0
0 24 106 -18 -47 -18 78 24
40 -53 0 106 0 31 48 0
0 48 106 -17 -53 -47 0 -18
48 40 24 -62 54 -76 0 0
40 48 54 -18 -76 0 -18 31
48 0 64 54 0 64 -18 68
25 58 -22 25 50 -40 30 25
9 -26 0 30 0 25 -40 -40
-40 -19 -22 43 0 34 19 -34
41 58 0 30 30 -30 -11 34
58 -26 15 0 0 -59 -48 -30
41 15 43 9 0 -26 -11 50
95 -22 0 -34 9 -26 -34 81
41 -26 58 -74 30 19 -34 0
-11 43 -22 19 0 0 15 0
-22 0 67 50 -30 0 19 0
-30 30 34 -11 0 -22 -11 67
-30 -34 -11 34 127 58 15 -11
17 -25 26 17 -16 -16 21 0
17 -19 -50 17 50 0 0 29
21 0 0 0 8 0 -29 0
29 -19 -29 13 -19 17 21 -41
93 26 13 -41 29 -127 13 34
-19 -22 0 -9 0 29 0 -34
0 26 0 0 0 17 0 42
0 -19 34 50 0 0 -63 -25
00000000: 007f 300e e2e2 0ee2 00dd 00ee 0018 00c2
00000010: e200 001f 1f0e c218 cb6a 3600 e218 28d1
00000020: 28ee 1f8b 1fe2 0030 00ee d8d1 00d8 e200
00000030: 0018 6aee d1ee 4e18 28cb 006a 001f 3000
00000040: 0030 6aef cbd1 00ee 3028 18c2 36b4 0000
00000050: 2830 36ee b400 ee1f 3000 4036 0040 ee44
00000060: 193a ea19 32d8 1e19 09e6 001e 0019 d8d8
00000070: d8ed ea2b 0022 13de 293a 001e 1ee2 f522
00000080: 3ae6 0f00 00c5 d0e2 290f 2b09 00e6 f532
00000090: 5fea 00de 09e6 de51 29e6 3ab6 1e13 de00
000000a0: f52b ea13 0000 0f00 ea00 4332 e200 1300
000000b0: e21e 22f5 00ea f543 e2de f522 7f3a 0ff5
000000c0: 11e7 1a11 f0f0 1500 11ed ce11 3200 001d
000000d0: 1500 0000 0800 e300 1ded e30d ed11 15d7
000000e0: 5d1a 0dd7 1d81 0d22 edea 00f7 001d 00de
000000f0: 001a 0000 0011 002a 00ed 2232 0000 c1e7

model/quant_block_5_expand/Conv2D;model/quant_block_5_expand/LastValueQuant/FakeQuantWithMinMaxVarsPerChannel i1 [96, 1, 1, 16]
-35 0 48 -21 -47 127 48 41
0 21 62 -21 -106 0 -47 -35
0 -21 0 73 62 48 62 0
62 0 55 -62 0 55 -62 127
46 0 -15 0 30 -23 0 0
-35 0 74 0 127 40 -35 0
-70 74 -51 34 97 106 0 34
-17 0 106 -70 0 52 -113 127
97 110 -23 33 127 -57 0 -52
52 -23 0 59 23 33 -34 59
88 -50 88 0 -103 -127 77 -30
104 0 0 0 0 0 68 43
-127 -47 -72 61 -21 41 30 61
88 -47 -31 0 88 0 0 -72
65 0 49 75 57 -127 36 36
121 0 107 -42 -62 36 0 75
-56 21 0 -72 -83 21 -51 0
-61 0 41 0 0 21 0 -127
-67 104 -45 0 0 0 -67 43
-87 43 -50 0 -127 0 30 -103
-79 52 -79 33 0 0 -52 23
-79 0 -91 -38 -52 -23 0 127
61 88 0 -47 21 0 72 88
47 0 -35 30 30 -127 0 47
-19 62 0 45 0 -29 0 0
19 0 29 0 -127 0 -45 -45
0 104 -104 68 0 0 -50 0
127 30 30 -30 -67 30 0 43
-34 23 -23 0 -38 -97 -34 0
-52 -34 -116 0 -34 -57 79 127
75 75 -57 0 -127 121 36 -42
0 -107 75 65 75 65 0 49
00000000: dd00 30eb d17f 3029 0015 3eeb 9600 d1dd
00000010: 00eb 0049 3e30 3e00 3e00 37c2 0037 c27f
00000020: 2e00 f100 1ee9 0000 dd00 4a00 7f28 dd00
00000030: ba4a cd22 616a 0022 ef00 6aba 0034 8f7f
00000040: 616e e921 7fc7 00cc 34e9 003b 1721 de3b
00000050: 58ce 5800 9981 4de2 6800 0000 0000 442b
00000060: 81d1 b83d eb29 1e3d 58d1 e100 5800 00b8
00000070: 4100 314b 3981 2424 7900 6bd6 c224 004b
00000080: c815 00b8 ad15 cd00 c300 2900 0015 0081
00000090: bd68 d300 0000 bd2b a92b ce00 8100 1e99
000000a0: b134 b121 0000 cc17 b100 a5da cce9 007f
000000b0: 3d58 00d1 1500 4858 2f00 dd1e 1e81 002f
000000c0: ed3e 002d 00e3 0000 1300 1d00 8100 d3d3
000000d0: 0068 9844 0000 ce00 7f1e 1ee2 bd1e 002b
000000e0: de17 e900 da9f de00 ccde 8c00 dec7 4f7f
000000f0: 4b4b c700 8179 24d6 0095 4b41 4b41 0031

model/quant_block_5_depthwise/depthwise;model/quant_block_5_depthwise/LastValueQuant/FakeQuantWithMinMaxVarsPerChannel i1 [1, 3, 3, 96]
18 38 9 -1 -7 -12 -1 -78
-15 -24 -33 31 11 -19 -29 -29
57 16 -3 36 17 27 -16 19
-14 11 55 1 -12 3 44 -69
-20 -9 11 -39 -5 -8 16 -10
16 -21 50 12 5 25 -5 17
3 17 1 -33 -8 -29 33 -7
3 -4 15 29 -3 -33 15 -25
15 -13 34 3 7 38 16 39
-27 -26 -22 -14 18 -13 9 -38
-1 -47 7 10 89 -12 5 -90
-8 -24 13 23 14 60 -1 -40
42 -20 -5 3 5 -10 27 4
65 78 -9 46 47 39 13 -5
-84 13 9 70 -23 -16 2 -6
-19 -17 30 22 -27 -24 -6 24
-35 -27 72 32 34 19 17 -47
-45 -84 36 22 -44 33 77 -5
29 59 63 -3 -36 76 -27 -16
37 1 -32 -47 13 -73 -55 -24
35 -29 -80 31 -43 -16 -17 -24
-26 4 -38 -5 -3 17 22 13
5 -1 14 60 -30 54 46 55
-20 53 20 4 -29 -56 -15 1
17 -32 -7 -1 -14 -2 -4 38
10 -23 37 1 -7 -12 22 -23
9 14 -1 18 -49 -35 -8 -18
-12 14 11 2 -8 13 -22 31
17 -18 -1 0 -7 -13 -12 -12
20 -11 13 11 12 -4 -7 9
2 17 0 16 -32 -34 -21 -8
-7 -1 1 18 -4 -16 24 -12
00000000: 1226 09ff f9f4 ffb2 f1e8 df1f 0bed e3e3
00000010: 3910 fd24 111b f013 f20b 3701 f403 2cbb
00000020: ecf7 0bd9 fbf8 10f6 10eb 320c 0519 fb11
00000030: 0311 01df f8e3 21f9 03fc 0f1d fddf 0fe7
00000040: 0ff3 2203 0726 1027 e5e6 eaf2 12f3 09da
00000050: ffd1 070a 59f4 05a6 f8e8 0d17 0e3c ffd8
00000060: 2aec fb03 05f6 1b04 414e f72e 2f27 0dfb
00000070: ac0d 0946 e9f0 02fa edef 1e16 e5e8 fa18
00000080: dde5 4820 2213 11d1 d3ac 2416 d421 4dfb
00000090: 1d3b 3ffd dc4c e5f0 2501 e0d1 0db7 c9e8
000000a0: 23e3 b01f d5f0 efe8 e604 dafb fd11 160d
000000b0: 05ff 0e3c e236 2e37 ec35 1404 e3c8 f101
000000c0: 11e0 f9ff f2fe fc26 0ae9 2501 f9f4 16e9
000000d0: 090e ff12 cfdd f8ee f40e 0b02 f80d ea1f
000000e0: 11ee ff00 f9f3 f4f4 14f5 0d0b 0cfc f909
000000f0: 0211 0010 e0de ebf8 f9ff 0112 fcf0 18f4

model/quant_block_5_project/Conv2D;model/quant_block_5_project/LastValueQuant/FakeQuantWithMinMaxVarsPerChannel i1 [16, 1, 1, 96]
19 -14 37 -39 0 -39 0 -39
-14 -26 -51 23 -30 0 0 -46
-46 0 -14 0 -30 0 32 23
10 0 54 -39 0 -26 0 0
-30 54 49 0 19 -39 37 -39
0 62 -46 -20 -51 37 0 -20
10 32 10 -39 73 19 0 23
-30 10 0 0 0 45 10 -30
49 62 -26 -26 -39 10 0 -46
54 0 0 -30 -69 0 23 0
0 0 -26 62 -20 10 -55 -39
37 37 -102 -127 -26 -26 -12 -30
32 -55 32 -43 -28 0 28 0
-36 53 76 104 -124 0 -65 0
-28 45 -43 45 28 0 -55 0
-20 28 -28 -17 69 0 -20 0
28 -65 45 89 0 0 53 32
45 -65 127 45 76 32 -65 -55
0 0 -36 -20 -20 0 28 -55
-55 0 0 14 -72 69 0 0
53 45 -28 -28 28 -106 28 104
-28 0 89 0 -28 0 0 -36
-28 0 -78 0 104 28 -43 89
-78 -36 104 0 -106 28 0 76
0 0 0 0 60 -38 -57 -86
0 -63 -75 -24 39 -24 56 0
0 24 0 -15 -38 24 -63 -68
-57 -18 0 0 -38 24 0 0
-24 91 56 46 0 -32 12 12
12 -18 -75 39 -127 -75 28 39
12 77 56 -32 0 0 56 28
0 -32 0 0 0 -48 39 12
00000000: 13f2 25d9 00d9 00d9 f2e6 cd17 e200 00d2
00000010: d200 f200 e200 2017 0a00 36d9 00e6 0000
00000020: e236 3100 13d9 25d9 003e d2ec cd25 00ec
00000030: 0a20 0ad9 4913 0017 e20a 0000 002d 0ae2
00000040: 313e e6e6 d90a 00d2 3600 00e2 bb00 1700
00000050: 0000 e63e ec0a c9d9 2525 9a81 e6e6 f4e2
00000060: 20c9 20d5 e400 1c00 dc35 4c68 8400 bf00
00000070: e42d d52d 1c00 c900 ec1c e4ef 4500 ec00
00000080: 1cbf 2d59 0000 3520 2dbf 7f2d 4c20 bfc9
00000090: 0000 dcec ec00 1cc9 c900 000e b845 0000
000000a0: 352d e4e4 1c96 1c68 e400 5900 e400 00dc
000000b0: e400 b200 681c d559 b2dc 6800 961c 004c
000000c0: 0000 0000 3cda c7aa 00c1 b5e8 27e8 3800
000000d0: 0018 00f1 da18 c1bc c7ee 0000 da18 0000
000000e0: e85b 382e 00e0 0c0c 0cee b527 81b5 1c27
000000f0: 0c4d 38e0 0000 381c 00e0 0000 00d0 270c

model/quant_block_6_expand/Conv2D;model/quant_block_6_expand/LastValueQuant/FakeQuantWithMinMaxVarsPerChannel i1 [96, 1, 1, 16]
0 32 0 -116 32 -79 0 109
-17 -24 127 -27 -36 26 32 -17
0 0 96 0 27 18 78 0
-127 0 0 18 0 -37 0 50
-67 96 -127 -127 -32 120 -67 0
-127 0 -107 50 78 -37 -56 0
68 -51 102 83 19 -86 68 0
127 0 68 0 -99 28 0 0
-20 91 31 127 -41 -41 22 -79
17 0 -41 0 -66 0 0 0
-88 46 -88 104 35 0 127 66
86 -30 -64 66 0 46 35 -30
-21 -15 -127 0 0 -72 -45 -63
81 0 0 18 0 100 0 -21
68 37 -27 0 -27 127 -48 15
23 -42 56 0 37 43 103 83
-17 58 -36 109 71 -49 -17 26
-17 0 127 -41 -49 0 -27 0
-27 0 43 0 23 -27 -27 -48
-48 0 0 0 0 127 0 0
116 0 18 34 29 18 -45 -106
29 34 -127 81 34 0 -25 24
0 35 -65 -39 0 -34 24 -16
55 127 0 0 35 84 45 0
43 65 0 0 35 0 43 0
50 0 0 18 18 -127 0 43
-39 -54 0 -18 64 -127 14 -26
-26 41 -66 22 0 -45 -87 -26
84 84 -39 0 24 127 -34 0
45 -47 103 0 35 84 67 55
0 0 25 29 -127 -73 -47 -32
-73 20 45 -32 15 -47 0 0
00000000: 0020 008c 20b1 006d efe8 7fe5 dc1a 20ef
00000010: 0000 6000 1b12 4e00 8100 0012 00db 0032
00000020: bd60 8181 e078 bd00 8100 9532 4edb c800
00000030: 44cd 6653 13aa 4400 7f00 4400 9d1c 0000
00000040: ec5b 1f7f d7d7 16b1 1100 d700 be00 0000
00000050: a82e a868 2300 7f42 56e2 c042 002e 23e2
00000060: ebf1 8100 00b8 d3c1 5100 0012 0064 00eb
00000070: 4425 e500 e57f d00f 17d6 3800 252b 6753
00000080: ef3a dc6d 47cf ef1a ef00 7fd7 cf00 e500
00000090: e500 2b00 17e5 e5d0 d000 0000 007f 0000
000000a0: 7400 1222 1d12 d396 1d22 8151 2200 e718
000000b0: 0023 bfd9 00de 18f0 377f 0000 2354 2d00
000000c0: 2b41 0000 2300 2b00 3200 0012 1281 002b
000000d0: d9ca 00ee 4081 0ee6 e629 be16 00d3 a9e6
000000e0: 5454 d900 187f de00 2dd1 6700 2354 4337
000000f0: 0000 191d 81b7 d1e0 b714 2de0 0fd1 0000

model/quant_block_6_depthwise/depthwise;model/quant_block_6_depthwise/LastValueQuant/FakeQuantWithMinMaxVarsPerChannel i1 [1, 3, 3, 96]
-42 -77 43 8 68 -34 -53 -39
67 76 -48 47 78 -40 53 -41
88 57 -48 -50 57 66 56 -50
-54 -40 79 -18 47 49 59 -70
-46 -38 -42 50 -34 46 45 46
-68 45 -38 -27 -44 -38 -72 -37
-47 53 -44 -23 54 60 -53 51
55 -49 -15 48 49 76 -67 -45
58 -37 -50 -39 -50 -39 57 42
51 -36 54 75 -16 52 -32 52
-50 64 -48 58 74 -75 46 45
59 49 52 -45 -41 -46 65 -60
-52 -121 64 -53 79 -49 -76 -53
81 23 -78 57 13 -48 76 -65
81 77 -52 -70 86 87 79 -63
-73 -59 -1 -37 78 59 94 -105
-71 -44 -46 67 -102 67 66 75
-37 61 -46 -69 -72 -51 15 -44
-49 55 -56 -51 74 83 -79 69
84 -60 -61 109 68 53 -103 -58
70 -45 -64 -54 -69 -42 -77 -68
65 -49 70 38 -48 66 -44 70
-62 85 -67 80 -43 -51 77 79
80 64 73 -56 -61 -65 -75 -109
-20 -45 39 -57 27 -27 -44 -24
28 -25 -39 26 -30 -31 38 -34
26 31 -26 -35 40 37 36 -25
-38 -25 -34 -28 45 26 50 -41
-32 -33 -22 34 -57 33 34 41
7 25 -29 -60 -39 -20 47 -24
-30 21 -27 82 41 37 -35 29
36 -30 -42 47 31 -10 -53 -23
00000000: d6b3 2b08 44de cbd9 434c d02f 4ed8 35d7
00000010: 5839 d0ce 3942 38ce cad8 4fee 2f31 3bba
00000020: d2da d632 de2e 2d2e bc2d dae5 d4da b8db
00000030: d135 d4e9 363c cb33 37cf f130 314c bdd3
00000040: 3adb ced9 ced9 392a 33dc 364b f034 e034
00000050: ce40 d03a 4ab5 2e2d 3b31 34d3 d7d2 41c4
00000060: cc87 40cb 4fcf b4cb 5117 b239 0dd0 4cbf
00000070: 514d ccba 5657 4fc1 b7c5 ffdb 4e3b 5e97
00000080: b9d4 d243 9a43 424b db3d d2bb b8cd 0fd4
00000090: cf37 c8cd 4a53 b145 54c4 c36d 4435 99c6
000000a0: 46d3 c0ca bbd6 b3bc 41cf 4626 d042 d446
000000b0: c255 bd50 d5cd 4d4f 5040 49c8 c3bf b593
000000c0: ecd3 27c7 1be5 d4e8 1ce7 d91a e2e1 26de
000000d0: 1a1f e6dd 2825 24e7 dae7 dee4 2d1a 32d7
000000e0: e0df ea22 c721 2229 0719 e3c4 d9ec 2fe8
000000f0: e215 e552 2925 dd1d 24e2 d62f 1ff6 cbe9

model/quant_block_6_project/Conv2D;model/quant_block_6_project/LastValueQuant/FakeQuantWithMinMaxVarsPerChannel i1 [32, 1, 1, 96]
-53 0 9 -10 -73 0 -23 -38
-38 12 67 0 17 -46 -23 67
12 24 -10 24 28 -46 127 0
-10 0 0 0 0 0 -29 0
12 0 33 0 0 9 0 -25
-19 -29 -23 -23 -10 0 20 -17
9 -38 -10 -10 0 44 24 -73
67 -10 -60 0 53 17 0 -23
100 0 9 20 0 -25 0 0
43 28 0 0 20 0 -23 28
-19 61 0 0 43 -25 44 -25
0 24 -38 -17 0 -10 28 0
14 0 0 -12 50 -12 75 37
0 -12 14 -26 -21 19 27 -19
0 -26 22 19 0 -43 0 14
19 0 0 -19 27 50 0 0
48 0 -28 14 0 -68 10 -52
-12 0 27 0 -68 0 -21 -43
-12 -68 75 0 50 -52 -28 -68
22 -68 22 22 -33 -43 0 -28
48 -12 -21 -12 -82 22 -19 -33
0 27 -82 14 32 0 0 -127
0 -114 0 22 19 10 14 48
32 0 -60 -26 50 -95 27 14
100 0 -69 0 18 -58 0 -44
-44 0 49 -58 0 -35 -69 -58
-25 -110 37 -80 14 91 0 -127
67 -16 0 0 -44 0 0 0
0 14 0 -58 0 -110 -69 0
0 -44 -28 0 100 0 0 0
25 -44 25 37 -127 37 91 0
-25 0 -44 -16 64 -16 0 0
00000000: cb00 09f6 b700 e9da da0c 4300 11d2 e943
00000010: 0c18 f618 1cd2 7f00 f600 0000 0000 e300
00000020: 0c00 2100 0009 00e7 ede3 e9e9 f600 14ef
00000030: 09da f6f6 002c 18b7 43f6 c400 3511 00e9
00000040: 6400 0914 00e7 0000 2b1c 0000 1400 e91c
00000050: ed3d 0000 2be7 2ce7 0018 daef 00f6 1c00
00000060: 0e00 00f4 32f4 4b25 00f4 0ee6 eb13 1bed
00000070: 00e6 1613 00d5 000e 1300 00ed 1b32 0000
00000080: 3000 e40e 00bc 0acc f400 1b00 bc00 ebd5
00000090: f4bc 4b00 32cc e4bc 16bc 1616 dfd5 00e4
000000a0: 30f4 ebf4 ae16 eddf 001b ae0e 2000 0081
000000b0: 008e 0016 130a 0e30 2000 c4e6 32a1 1b0e
000000c0: 6400 bb00 12c6 00d4 d400 31c6 00dd bbc6
000000d0: e792 25b0 0e5b 0081 43f0 0000 d400 0000
000000e0: 000e 00c6 0092 bb00 00d4 e400 6400 0000
000000f0: 19d4 1925 8125 5b00 e700 d4f0 40f0 0000

model/quant_block_7_expand/Conv2D;model/quant_block_7_expand/LastValueQuant/FakeQuantWithMinMaxVarsPerChannel i1 [192, 1, 1, 32]
0 -56 45 50 0 61 -69 45
0 0 0 -24 26 30 30 26
-127 18 0 114 0 -14 88 45
-112 0 0 0 114 -44 -23 26
12 0 0 42 25 42 0 -127
92 25 62 -61 -33 -108 83 42
-33 0 -56 0 -33 0 -95 0
-108 -33 -50 0 42 42 0 36
-22 27 27 -22 27 23 0 -127
0 -21 0 16 0 0 0 61
0 16 -22 23 -33 -13 -22 23
-22 23 0 16 27 55 -13 -50
0 0 0 0 26 44 44 0
-21 -33 0 -21 -64 -59 -21 0
127 0 -59 -114 -81 65 0 0
0 0 0 0 38 127 0 0
48 0 -42 0 -68 -44 -42 0
0 0 56 0 70 112 0 0
56 0 0 -68 -75 0 -42 0
-42 -127 -127 83 70 0 70 56
116 -76 -41 77 52 104 -39 127
0 0 0 0 86 0 15 -76
104 15 31 0 45 0 31 0
0 -39 -76 52 -41 66 -70 127
-16 -16 20 0 -62 68 -50 29
29 -26 127 -62 29 34 29 0
0 -27 29 29 -62 -16 50 0
0 43 20 68 -27 0 -50 -27
0 -18 0 65 -48 -30 -30 34
-48 34 -18 -53 -72 -57 0 0
127 -31 0 0 -57 -57 0 0
11 0 50 -31 24 -57 -31 0
00000000: 00c8 2d32 003d bb2d 0000 00e8 1a1e 1e1a
00000010: 8112 0072 00f2 582d 9000 0000 72d4 e91a
00000020: 0c00 002a 192a 0081 5c19 3ec3 df94 532a
00000030: df00 c800 df00 a100 94df ce00 2a2a 0024
00000040: ea1b 1bea 1b17 0081 00eb 0010 0000 003d
00000050: 0010 ea17 dff3 ea17 ea17 0010 1b37 f3ce
00000060: 0000 0000 1a2c 2c00 ebdf 00eb c0c5 eb00
00000070: 7f00 c58e af41 0000 0000 0000 267f 0000
00000080: 3000 d600 bcd4 d600 0000 3800 4670 0000
00000090: 3800 00bc b500 d600 d681 8153 4600 4638
000000a0: 74b4 d74d 3468 d97f 0000 0000 5600 0fb4
000000b0: 680f 1f00 2d00 1f00 00d9 b434 d742 ba7f
000000c0: f0f0 1400 c244 ce1d 1de6 7fc2 1d22 1d00
000000d0: 00e5 1d1d c2f0 3200 002b 1444 e500 cee5
000000e0: 00ee 0041 d0e2 e222 d022 eecb b8c7 0000
000000f0: 7fe1 0000 c7c7 0000 0b00 32e1 18c7 e100

model/quant_block_7_depthwise/depthwise;model/quant_block_7_depthwise/LastValueQuant/FakeQuantWithMinMaxVarsPerChannel i1 [1, 3, 3, 192]
3 -10 -6 11 -8 4 -4 14
13 1 -27 2 11 -17 22 3
22 8 -5 10 3 13 -28 -12
29 0 1 -2 3 4 3 15
17 -8 -34 7 -8 7 -4 0
-3 -14 -28 4 11 -4 8 -17
1 -24 0 -6 0 2 -1 8
11 11 1 -17 -14 -16 -19 3
1 -8 -17 2 -30 13 -25 3
11 -12 -21 -21 -15 -7 20 17
13 -13 23 -16 14 2 10 -1
-17 -4 26 13 8 8 -23 -15
14 -7 9 -9 3 -2 -14 48
28 -8 8 -43 8 26 -16 8
-17 0 -13 -10 21 8 -6 10
-8 6 10 4 9 -7 4 -17
-20 12 -5 -20 -16 -15 24 19
5 -10 4 -17 32 8 -37 0
-11 -16 12 16 4 9 13 20
0 -14 -43 -12 -5 3 -1 29
38 10 -7 -1 -14 3 19 7
-14 2 8 -2 -8 5 4 -24
49 5 3 7 -17 15 5 21
-23 4 -4 14 6 13 -1 -19
6 -14 22 -47 -30 6 -8 64
14 11 -6 12 -8 -37 83 4
-2 23 -36 -25 -32 70 -12 -10
27 22 -26 -3 -14 -4 -55 -5
16 -29 -9 6 -23 76 -11 27
92 -14 -51 -21 -2 -6 -37 9
-32 -58 -7 -26 8 16 54 -34
127 -5 69 -35 -55 -7 -1 5
00000000: 03f6 fa0b f804 fc0e 0d01 e502 0bef 1603
00000010: 1608 fb0a 030d e4f4 1d00 01fe 0304 030f
00000020: 11f8 de07 f807 fc00 fdf2 e404 0bfc 08ef
00000030: 01e8 00fa 0002 ff08 0b0b 01ef f2f0 ed03
00000040: 01f8 ef02 e20d e703 0bf4 ebeb f1f9 1411
00000050: 0df3 17f0 0e02 0aff effc 1a0d 0808 e9f1
00000060: 0ef9 09f7 03fe f230 1cf8 08d5 081a f008
00000070: ef00 f3f6 1508 fa0a f806 0a04 09f9 04ef
00000080: ec0c fbec f0f1 1813 05f6 04ef 2008 db00
00000090: f5f0 0c10 0409 0d14 00f2 d5f4 fb03 ff1d
000000a0: 260a f9ff f203 1307 f202 08fe f805 04e8
000000b0: 3105 0307 ef0f 0515 e904 fc0e 060d ffed
000000c0: 06f2 16d1 e206 f840 0e0b fa0c f8db 5304
000000d0: fe17 dce7 e046 f4f6 1b16 e6fd f2fc c9fb
000000e0: 10e3 f706 e94c f51b 5cf2 cdeb fefa db09
000000f0: e0c6 f9e6 0810 36de 7ffb 45dd c9f9 ff05

model/quant_block_7_project/Conv2D;model/quant_block_7_project/LastValueQuant/FakeQuantWithMinMaxVarsPerChannel i1 [32, 1, 1, 192]
40 8 -16 0 26 35 -39 15
0 -73 12 45 0 0 22 12
35 -19 12 12 -16 0 -23 66
-12 -12 12 22 -30 17 0 -12
0 17 -30 35 35 0 8 -12
-30 -12 12 -39 -12 12 0 35
12 -5 0 12 0 0 17 0
0 -12 22 -25 0 12 0 0
17 -12 0 8 0 -19 -39 -19
22 0 15 -12 0 -58 35 -39
8 26 -16 17 -25 26 -30 -19
-30 0 -12 12 -19 15 0 26
0 35 -23 52 -23 15 0 0
0 -25 0 26 12 35 0 26
17 -39 17 -19 -12 0 -30 0
-16 15 -5 0 26 -5 22 0
22 35 -39 0 45 0 0 15
17 22 40 0 -16 0 0 26
-12 35 40 26 26 0 0 12
0 -12 0 26 12 8 -19 17
8 12 0 127 -12 0 0 -30
0 0 22 26 12 0 17 0
15 0 12 12 0 -12 8 -25
15 -44 -25 0 0 22 0 8
-23 0 -27 0 -14 0 -14 9
41 0 61 30 -23 0 -19 -19
0 47 20 20 14 0 0 0
0 26 -14 -52 18 47 78 0
-19 20 -45 30 18 -14 -27 -30
30 9 30 -52 0 -45 14 -36
0 30 0 -19 0 -27 -23 -14
0 -30 52 -14 -14 -52 -6 -6
00000000: 2808 f000 1a23 d90f 00b7 0c2d 0000 160c
00000010: 23ed 0c0c f000 e942 f4f4 0c16 e211 00f4
00000020: 0011 e223 2300 08f4 e2f4 0cd9 f40c 0023
00000030: 0cfb 000c 0000 1100 00f4 16e7 000c 0000
00000040: 11f4 0008 00ed d9ed 1600 0ff4 00c6 23d9
00000050: 081a f011 e71a e2ed e200 f40c ed0f 001a
00000060: 0023 e934 e90f 0000 00e7 001a 0c23 001a
00000070: 11d9 11ed f400 e200 f00f fb00 1afb 1600
00000080: 1623 d900 2d00 000f 1116 2800 f000 001a
00000090: f423 281a 1a00 000c 00f4 001a 0c08 ed11
000000a0: 080c 007f f400 00e2 0000 161a 0c00 1100
000000b0: 0f00 0c0c 00f4 08e7 0fd4 e700 0016 0008
000000c0: e900 e500 f200 f209 2900 3d1e e900 eded
000000d0: 002f 1414 0e00 0000 001a f2cc 122f 4e00
000000e0: ed14 d31e 12f2 e5e2 1e09 1ecc 00d3 0edc
000000f0: 001e 00ed 00e5 e9f2 00e2 34f2 f2cc fafa

model/quant_block_8_expand/Conv2D;model/quant_block_8_expand/LastValueQuant/FakeQuantWithMinMaxVarsPerChannel i1 [192, 1, 1, 32]
127 -51 -32 -16 -29 44 -29 72
-51 57 0 -51 -89 -16 57 0
44 0 -16 -67 106 22 22 -119
-29 0 0 0 0 -73 -73 -29
57 0 -32 72 -119 0 -32 44
0 0 127 -48 0 106 27 0
-16 -59 0 -48 -59 27 57 79
0 57 0 72 44 0 33 44
72 0 0 0 0 -48 -16 -48
0 0 44 79 57 44 0 27
0 0 127 33 -51 57 0 33
-48 0 106 -32 106 0 0 22
71 -14 22 28 0 -40 -25 -85
18 0 0 127 0 -27 -126 18
-27 0 18 22 -85 -61 61 37
37 48 -25 -25 -25 48 -14 0
24 0 0 -18 32 0 32 -9
-40 12 -127 47 0 -9 15 0
15 44 0 24 32 -18 0 0
0 -50 -18 -56 15 -27 12 0
15 0 -34 31 19 0 19 51
0 0 31 -12 -127 -23 0 -34
0 0 0 0 -71 0 23 0
19 0 0 19 0 89 15 0
0 35 0 13 0 21 -20 49
35 0 -30 0 -37 35 0 127
-18 0 0 0 -18 0 0 0
-18 0 0 0 -10 -37 -20 -18
0 -27 -38 -27 0 23 0 -16
0 0 0 56 -9 14 0 0
18 0 -16 -17 23 0 23 67
0 127 0 -27 0 0 -47 -9
00000000: 7fcd e0f0 e32c e348 cd39 00cd a7f0 3900
00000010: 2c00 f0bd 6a16 1689 e300 0000 00b7 b7e3
00000020: 3900 e048 8900 e02c 0000 7fd0 006a 1b00
00000030: f0c5 00d0 c51b 394f 0039 0048 2c00 212c
00000040: 4800 0000 00d0 f0d0 0000 2c4f 392c 001b
00000050: 0000 7f21 cd39 0021 d000 6ae0 6a00 0016
00000060: 47f2 161c 00d8 e7ab 1200 007f 00e5 8212
00000070: e500 1216 abc3 3d25 2530 e7e7 e730 f200
00000080: 1800 00ee 2000 20f7 d80c 812f 00f7 0f00
00000090: 0f2c 0018 20ee 0000 00ce eec8 0fe5 0c00
000000a0: 0f00 de1f 1300 1333 0000 1ff4 81e9 00de
000000b0: 0000 0000 b900 1700 1300 0013 0059 0f00
000000c0: 0023 000d 0015 ec31 2300 e200 db23 007f
000000d0: ee00 0000 ee00 0000 ee00 0000 f6db ecee
000000e0: 00e5 dae5 0017 00f0 0000 0038 f70e 0000
000000f0: 1200 f0ef 1700 1743 007f 00e5 0000 d1f7

model/quant_block_8_depthwise/depthwise;model/quant_block_8_depthwise/LastValueQuant/FakeQuantWithMinMaxVarsPerChannel i1 [1, 3, 3, 192]
15 -14 12 -10 30 5 -4 32
2 12 14 -1 -8 -10 19 32
2 8 -4 10 16 -7 13 -3
-4 23 5 24 -31 10 3 -9
-2 -10 32 15 -9 -2 -4 -20
35 -13 5 20 0 10 31 13
-6 -7 10 -28 -5 -26 5 -11
-15 -16 47 -15 4 -5 -34 17
8 6 1 -10 -1 -14 -7 -14
0 21 -12 -25 -15 50 6 12
2 10 7 24 14 -22 -12 -32
6 22 3 3 -66 -9 -15 11
9 -10 -24 4 -13 -19 -12 2
15 -10 20 12 5 -18 -13 9
1 -33 20 0 -15 38 2 16
5 0 -8 10 28 12 52 6
-14 15 -15 -9 -15 20 -3 22
0 -21 -4 10 -20 24 3 3
0 -17 4 5 -6 12 -9 -1
-5 6 -1 3 5 44 6 -3
-2 11 -16 -2 -11 -6 -23 0
-7 -14 17 0 5 7 -22 7
-4 -14 18 6 -18 2 24 31
0 -4 -4 4 15 -12 -22 1
49 -15 30 -10 42 -68 -43 26
24 24 16 3 -61 5 38 20
-15 -18 10 10 60 19 20 40
-1 -9 -19 9 2 14 -52 -9
-5 -19 35 13 7 -18 -16 -13
-16 -36 -39 3 29 32 -10 -12
20 -19 24 -12 -30 -15 14 -15
-8 -12 -6 -10 -39 -63 -10 82
00000000: 0ff2 0cf6 1e05 fc20 020c 0eff f8f6 1320
00000010: 0208 fc0a 10f9 0dfd fc17 0518 e10a 03f7
00000020: fef6 200f f7fe fcec 23f3 0514 000a 1f0d
00000030: faf9 0ae4 fbe6 05f5 f1f0 2ff1 04fb de11
00000040: 0806 01f6 fff2 f9f2 0015 f4e7 f132 060c
00000050: 020a 0718 0eea f4e0 0616 0303 bef7 f10b
00000060: 09f6 e804 f3ed f402 0ff6 140c 05ee f309
00000070: 01df 1400 f126 0210 0500 f80a 1c0c 3406
00000080: f20f f1f7 f114 fd16 00eb fc0a ec18 0303
00000090: 00ef 0405 fa0c f7ff fb06 ff03 052c 06fd
000000a0: fe0b f0fe f5fa e900 f9f2 1100 0507 ea07
000000b0: fcf2 1206 ee02 181f 00fc fc04 0ff4 ea01
000000c0: 31f1 1ef6 2abc d51a 1818 1003 c305 2614
000000d0: f1ee 0a0a 3c13 1428 fff7 ed09 020e ccf7
000000e0: fbed 230d 07ee f0f3 f0dc d903 1d20 f6f4
000000f0: 14ed 18f4 e2f1 0ef1 f8f4 faf6 d9c1 f652

model/quant_block_8_project/Conv2D;model/quant_block_8_project/LastValueQuant/FakeQuantWithMinMaxVarsPerChannel i1 [32, 1, 1, 192]
-11 -26 -47 0 -32 0 -16 19
0 0 0 49 -21 -26 -39 0
-21 -32 -16 -61 0 19 19 -32
-21 28 53 14 49 14 -39 0
-21 22 19 22 0 0 22 0
14 0 -11 0 0 19 0 49
0 -26 0 0 -54 0 32 0
14 -32 0 0 38 -26 0 53
-47 63 -54 9 0 0 28 0
-32 0 22 28 14 0 0 22
63 0 -26 14 -127 -26 22 38
-32 -11 19 -26 14 -26 -26 0
28 0 0 14 19 63 22 -32
9 0 28 -26 -8 0 -32 -32
9 0 -32 -11 0 -21 32 0
0 14 0 -32 -26 -32 -16 0
-16 0 19 0 63 28 28 0
0 -21 -32 -26 -16 0 -72 38
-47 0 -21 22 0 0 -39 0
0 0 19 0 -11 0 -21 -61
-26 0 0 0 -86 49 -26 -54
-32 0 32 9 0 0 0 -26
0 14 0 -21 -21 -39 14 -47
9 32 -16 -16 19 0 19 -16
-38 -24 -17 21 0 -38 0 -79
0 28 78 0 0 0 0 56
0 0 -106 0 -24 0 -57 0
48 -31 -57 21 0 -17 -46 56
0 13 41 21 33 33 0 108
56 33 -31 -24 0 41 21 -24
0 -24 -57 28 0 0 72 0
28 -70 33 56 0 13 -57 -38
00000000: f5e6 d100 e000 f013 0000 0031 ebe6 d900
00000010: ebe0 f0c3 0013 13e0 eb1c 350e 310e d900
00000020: eb16 1316 0000 1600 0e00 f500 0013 0031
00000030: 00e6 0000 ca00 2000 0ee0 0000 26e6 0035
00000040: d13f ca09 0000 1c00 e000 161c 0e00 0016
00000050: 3f00 e60e 81e6 1626 e0f5 13e6 0ee6 e600
00000060: 1c00 000e 133f 16e0 0900 1ce6 f800 e0e0
00000070: 0900 e0f5 00eb 2000 000e 00e0 e6e0 f000
00000080: f000 1300 3f1c 1c00 00eb e0e6 f000 b826
00000090: d100 eb16 0000 d900 0000 1300 f500 ebc3
000000a0: e600 0000 aa31 e6ca e000 2009 0000 00e6
000000b0: 000e 00eb ebd9 0ed1 0920 f0f0 1300 13f0
000000c0: dae8 ef15 00da 00b1 001c 4e00 0000 0038
000000d0: 0000 9600 e800 c700 30e1 c715 00ef d238
000000e0: 000d 2915 2121 006c 3821 e1e8 0029 15e8
000000f0: 00e8 c71c 0000 4800 1cba 2138 000d c7da

model/quant_block_9_expand/Conv2D;model/quant_block_9_expand/LastValueQuant/FakeQuantWithMinMaxVarsPerChannel i1 [192, 1, 1, 32]
0 0 0 -39 -20 18 -39 -39
35 60 35 0 0 0 18 0
35 0 18 -83 -33 78 -48 0
78 127 0 -39 -27 35 93 0
50 70 99 70 -47 -38 -55 -79
50 17 -127 -127 25 -28 -117 25
-55 0 -55 0 0 50 0 110
-28 70 70 0 85 41 -12 0
-14 42 0 -19 42 -45 -33 0
0 127 0 -23 -23 0 0 0
106 -89 0 54 -14 34 34 20
-14 0 0 24 24 0 0 -23
-37 0 39 39 -37 -123 82 0
-12 0 16 0 -88 39 107 -45
48 -54 -27 67 -45 -123 82 39
127 0 -27 -65 39 -27 -65 0
0 0 23 40 -45 48 23 0
-16 -127 -22 -22 -31 0 14 -27
-72 123 0 -87 -72 0 -103 28
-31 0 -16 -7 14 -22 -31 28
96 -40 -68 -24 -48 96 0 -24
35 74 0 43 0 43 0 -48
-40 127 0 0 35 -24 43 43
14 0 60 -79 -24 35 96 60
0 10 0 24 0 41 0 24
-22 0 0 50 41 -32 -40 127
0 0 29 0 15 77 -16 0
-32 58 0 24 0 29 50 -16
-127 0 -39 -66 -46 -23 58 71
-23 0 -23 -23 -32 -127 -23 0
-76 0 0 0 0 0 0 21
-66 -23 -56 0 82 -32 21 10
00000000: 0000 00d9 ec12 d9d9 233c 2300 0000 1200
00000010: 2300 12ad df4e d000 4e7f 00d9 e523 5d00
00000020: 3246 6346 d1da c9b1 3211 8181 19e4 8b19
00000030: c900 c900 0032 006e e446 4600 5529 f400
00000040: f22a 00ed 2ad3 df00 007f 00e9 e900 0000
00000050: 6aa7 0036 f222 2214 f200 0018 1800 00e9
00000060: db00 2727 db85 5200 f400 1000 a827 6bd3
00000070: 30ca e543 d385 5227 7f00 e5bf 27e5 bf00
00000080: 0000 1728 d330 1700 f081 eaea e100 0ee5
00000090: b87b 00a9 b800 991c e100 f0f9 0eea e11c
000000a0: 60d8 bce8 d060 00e8 234a 002b 002b 00d0
000000b0: d87f 0000 23e8 2b2b 0e00 3cb1 e823 603c
000000c0: 000a 0018 0029 0018 ea00 0032 29e0 d87f
000000d0: 0000 1d00 0f4d f000 e03a 0018 001d 32f0
000000e0: 8100 d9be d2e9 3a47 e900 e9e9 e081 e900
000000f0: b400 0000 0000 0015 bee9 c800 52e0 150a

model/quant_block_9_depthwise/depthwise;model/quant_block_9_depthwise/LastValueQuant/FakeQuantWithMinMaxVarsPerChannel i1 [1, 3, 3, 192]
23 -15 10 -14 -1 13 -12 18
-15 -4 10 18 12 -5 -11 -2
-14 7 17 13 23 8 16 10
-16 16 43 3 -1 19 -15 -11
-2 22 13 8 18 -6 -4 -2
40 -26 23 20 -20 10 45 3
10 21 -9 -9 4 -5 12 13
-9 13 13 4 31 -4 21 14
11 23 -6 7 2 -16 -14 17
6 18 -7 -11 -28 8 5 -13
10 10 13 -11 23 19 12 15
26 -6 15 -22 -4 13 21 16
2 -10 23 -13 -1 -9 2 -3
0 10 -75 6 -26 -2 8 5
5 5 12 -9 0 -6 13 11
1 12 5 21 9 -10 19 -1
18 4 -10 -10 8 -3 -5 7
11 17 54 -13 4 20 20 -15
-27 9 8 -5 -16 -8 13 -24
7 14 31 -14 -10 7 0 -5
-23 12 32 8 72 7 15 11
-21 11 -1 -14 18 10 30 13
-21 24 -7 3 -8 -6 -20 -29
10 -23 10 -1 12 31 -16 -7
40 -7 19 -12 -22 17 -35 33
-54 -57 1 -4 73 -30 -46 -62
-25 -74 4 29 33 -34 0 27
4 23 53 26 29 21 -18 -16
16 -23 38 56 37 -26 70 -18
76 2 54 66 -13 33 -43 -29
-8 24 29 60 51 -10 27 -9
3 -39 26 19 36 9 8 12
00000000: 17f1 0af2 ff0d f412 f1fc 0a12 0cfb f5fe
00000010: f207 110d 1708 100a f010 2b03 ff13 f1f5
00000020: fe16 0d08 12fa fcfe 28e6 1714 ec0a 2d03
00000030: 0a15 f7f7 04fb 0c0d f70d 0d04 1ffc 150e
00000040: 0b17 fa07 02f0 f211 0612 f9f5 e408 05f3
00000050: 0a0a 0df5 1713 0c0f 1afa 0fea fc0d 1510
00000060: 02f6 17f3 fff7 02fd 000a b506 e6fe 0805
00000070: 0505 0cf7 00fa 0d0b 010c 0515 09f6 13ff
00000080: 1204 f6f6 08fd fb07 0b11 36f3 0414 14f1
00000090: e509 08fb f0f8 0de8 070e 1ff2 f607 00fb
000000a0: e90c 2008 4807 0f0b eb0b fff2 120a 1e0d
000000b0: eb18 f903 f8fa ece3 0ae9 0aff 0c1f f0f9
000000c0: 28f9 13f4 ea11 dd21 cac7 01fc 49e2 d2c2
000000d0: e7b6 041d 21de 001b 0417 351a 1d15 eef0
000000e0: 10e9 2638 25e6 46ee 4c02 3642 f321 d5e3
000000f0: f818 1d3c 33f6 1bf7 03d9 1a13 2409 080c

model/quant_block_9_project/Conv2D;model/quant_block_9_project/LastValueQuant/FakeQuantWithMinMaxVarsPerChannel i1 [32, 1, 1, 192]
-45 76 -39 -31 25 -31 -31 76
0 -31 -39 -23 40 15 -52 0
0 -23 -45 0 0 -61 -45 0
15 0 32 -23 15 0 0 -45
-17 -52 -17 15 109 0 0 0
40 15 0 25 0 -45 -23 -45
0 25 0 25 -31 0 13 40
25 25 0 -45 -31 32 0 50
-52 -17 -17 -23 15 32 0 -45
50 0 -31 0 0 -31 40 0
0 25 -31 0 61 109 94 -45
0 -61 -39 0 -31 32 0 25
-17 -74 0 15 15 -39 -39 40
0 25 0 0 0 25 32 94
15 -23 40 -31 25 25 -127 -23
-74 15 50 0 0 -39 0 -45
-61 32 78 40 109 0 -74 -17
-23 0 0 0 0 15 -23 0
15 0 -23 -23 94 -31 -52 15
0 25 40 40 0 0 50 61
0 0 15 -31 0 61 -39 -84
-84 -31 -52 0 50 0 0 0
-52 0 -39 40 -17 0 25 -45
-31 50 0 -52 -39 0 -61 50
0 118 -31 -23 -61 0 -52 -61
0 0 61 0 -17 -23 32 32
0 -23 -23 -39 50 50 -31 40
0 15 -31 -39 -39 -17 -45 0
13 25 59 61 -17 94 32 25
32 -39 59 0 76 0 32 0
0 -45 32 32 32 -23 -45 0
25 0 -52 0 32 25 -17 0
00000000: d34c d9e1 19e1 e14c 00e1 d9e9 280f cc00
00000010: 00e9 d300 00c3 d300 0f00 20e9 0f00 00d3
00000020: efcc ef0f 6d00 0000 280f 0019 00d3 e9d3
00000030: 0019 0019 e100 0d28 1919 00d3 e120 0032
00000040: ccef efe9 0f20 00d3 3200 e100 00e1 2800
00000050: 0019 e100 3d6d 5ed3 00c3 d900 e120 0019
00000060: efb6 000f 0fd9 d928 0019 0000 0019 205e
00000070: 0fe9 28e1 1919 81e9 b60f 3200 00d9 00d3
00000080: c320 4e28 6d00 b6ef e900 0000 000f e900
00000090: 0f00 e9e9 5ee1 cc0f 0019 2828 0000 323d
000000a0: 0000 0fe1 003d d9ac ace1 cc00 3200 0000
000000b0: cc00 d928 ef00 19d3 e132 00cc d900 c332
000000c0: 0076 e1e9 c300 ccc3 0000 3d00 efe9 2020
000000d0: 00e9 e9d9 3232 e128 000f e1d9 d9ef d300
000000e0: 0d19 3b3d ef5e 2019 20d9 3b00 4c00 2000
000000f0: 00d3 2020 20e9 d300 1900 cc00 2019 ef00

model/quant_block_10_expand/Conv2D;model/quant_block_10_expand/LastValueQuant/FakeQuantWithMinMaxVarsPerChannel i1 [192, 1, 1, 32]
0 0 0 -16 29 21 -22 -25
48 -25 0 15 -29 0 -16 9
-16 0 0 15 15 0 0 0
0 0 0 29 0 -127 0 0
14 -15 0 -44 0 -31 0 -15
0 127 0 0 -24 0 0 -37
20 -65 20 54 0 14 38 0
0 0 0 54 0 0 38 0
-58 0 -27 -48 36 0 -71 -19
50 -31 0 18 0 50 36 18
-127 0 0 81 50 0 26 18
26 0 0 -31 50 -31 -11 11
-38 -10 0 0 0 -18 -10 -18
-18 -10 0 -25 65 24 0 10
46 10 0 0 46 -25 0 0
-25 24 -28 24 46 127 0 0
50 18 26 0 18 71 -127 -11
11 50 0 -19 -41 50 73 0
18 26 0 50 0 0 11 -36
-71 11 0 -27 -31 36 -104 18
-38 44 -44 0 13 73 13 -44
-70 61 73 73 -127 -59 -50 61
31 0 44 0 31 -50 0 -59
22 -24 0 -70 89 0 -50 -59
0 -46 27 0 38 0 0 0
0 89 0 38 27 0 27 -71
73 -85 27 53 0 0 127 0
73 0 0 0 38 -29 -29 0
-38 27 -38 19 27 0 0 111
-62 -12 19 0 27 127 -38 -38
0 -28 64 0 78 -44 0 -38
0 38 0 0 -76 -44 27 64
00000000: 0000 00f0 1d15 eae7 30e7 000f e300 f009
00000010: f000 000f 0f00 0000 0000 001d 0081 0000
00000020: 0ef1 00d4 00e1 00f1 007f 0000 e800 00db
00000030: 14bf 1436 000e 2600 0000 0036 0000 2600
00000040: c600 e5d0 2400 b9ed 32e1 0012 0032 2412
00000050: 8100 0051 3200 1a12 1a00 00e1 32e1 f50b
00000060: daf6 0000 00ee f6ee eef6 00e7 4118 000a
00000070: 2e0a 0000 2ee7 0000 e718 e418 2e7f 0000
00000080: 3212 1a00 1247 81f5 0b32 00ed d732 4900
00000090: 121a 0032 0000 0bdc b90b 00e5 e124 9812
000000a0: da2c d400 0d49 0dd4 ba3d 4949 81c5 ce3d
000000b0: 1f00 2c00 1fce 00c5 16e8 00ba 5900 cec5
000000c0: 00d2 1b00 2600 0000 0059 0026 1b00 1bb9
000000d0: 49ab 1b35 0000 7f00 4900 0000 26e3 e300
000000e0: da1b da13 1b00 006f c2f4 1300 1b7f dada
000000f0: 00e4 4000 4ed4 00da 0026 0000 b4d4 1b40

model/quant_block_10_depthwise/depthwise;model/quant_block_10_depthwise/LastValueQuant/FakeQuantWithMinMaxVarsPerChannel i1 [1, 3, 3, 192]
20 5 -2 -17 -13 2 17 5
-9 -7 -13 0 -12 -14 5 -2
-10 6 -14 5 -6 0 10 12
17 -9 7 -9 -6 26 2 1
-13 -7 5 -2 3 0 3 5
-3 -23 0 4 -17 -6 11 12
-32 -2 9 10 -7 -5 -5 7
-7 -13 18 1 18 6 -12 -1
-2 3 0 -5 16 0 -22 -1
-15 -9 4 -3 18 -3 -5 -3
12 8 1 4 -6 3 1 -10
-27 0 -6 -2 7 6 8 -11
-13 -3 6 -6 -9 -8 4 12
-11 -9 -2 0 -16 1 3 11
12 -12 -13 2 -4 7 -11 -6
5 8 33 -27 -12 9 -2 -3
-3 -10 15 -12 -8 7 -32 5
-1 8 13 -10 -10 4 7 15
7 6 8 6 -8 -8 -14 33
0 -74 14 11 3 -34 36 -3
5 -18 3 12 8 -5 11 12
12 0 -9 15 -10 -4 6 -6
6 3 7 6 -6 -11 -4 9
-12 5 7 -11 -30 -8 2 13
-25 -18 -23 -25 -13 -11 6 -44
-20 25 -12 -29 -23 3 -8 25
-10 15 -69 9 6 1 20 54
76 -17 24 -9 -17 18 25 36
-5 -20 23 -6 14 -13 -13 8
-21 -22 3 8 -15 -7 68 13
22 -9 21 20 5 -34 -31 22
-10 3 -15 65 65 15 -11 11
00000000: 1405 feef f302 1105 f7f9 f300 f4f2 05fe
00000010: f606 f205 fa00 0a0c 11f7 07f7 fa1a 0201
00000020: f3f9 05fe 0300 0305 fde9 0004 effa 0b0c
00000030: e0fe 090a f9fb fb07 f9f3 1201 1206 f4ff
00000040: fe03 00fb 1000 eaff f1f7 04fd 12fd fbfd
00000050: 0c08 0104 fa03 01f6 e500 fafe 0706 08f5
00000060: f3fd 06fa f7f8 040c f5f7 fe00 f001 030b
00000070: 0cf4 f302 fc07 f5fa 0508 21e5 f409 fefd
00000080: fdf6 0ff4 f807 e005 ff08 0df6 f604 070f
00000090: 0706 0806 f8f8 f221 00b6 0e0b 03de 24fd
000000a0: 05ee 030c 08fb 0b0c 0c00 f70f f6fc 06fa
000000b0: 0603 0706 faf5 fc09 f405 07f5 e2f8 020d
000000c0: e7ee e9e7 f3f5 06d4 ec19 f4e3 e903 f819
000000d0: f60f bb09 0601 1436 4cef 18f7 ef12 1924
000000e0: fbec 17fa 0ef3 f308 ebea 0308 f1f9 440d
000000f0: 16f7 1514 05de e116 f603 f141 410f f50b
